model/retrain.pt (torch, 118562 bytes, 56 tensors)

weight f4 [8, 3, 1]
000000 ca 21 a5 3e 30 76 a2 be 0f fb 0d 3f 55 f7 75 3f
       0.32252342 -0.31730795 0.5546121 0.96080524
000010 55 4c 8e bd e6 10 39 be 00 ea 30 3e f3 cc 76 3e
       -0.06948153 -0.18072852 0.17276764 0.2410162
000020 47 c9 c1 3e 3a f5 4b 3f 6e 92 57 bc 2f 44 92 3c
       0.37848875 0.7967106 -0.01315747 0.017854778
000030 50 ed 12 3d 9b d5 60 be a0 62 1c bd f7 2f 9f be
       0.03587085 -0.21956484 -0.038179994 -0.31091282
000040 f4 e7 8b bd 2a 6f e9 3d 59 ee 4d 3d 76 b5 c8 3d
       -0.06831351 0.11398156 0.050276134 0.09800236
000050 25 37 6e be f1 62 81 be 4c 7c 84 3e a5 8a d7 be
       -0.23263223 -0.252708 0.2587608 -0.42097965

bias f4 [8]
000000 0a 48 ca be 85 85 18 bf 7d e5 85 3e 93 35 84 3e
       -0.39508086 -0.59578735 0.26151648 0.25822124
000010 c2 e3 a5 be 04 5a d2 3e 92 83 76 3b 3e b8 06 be
       -0.32400328 0.410843 0.0037615043 -0.1315622

weight f4 [8]
000000 95 5b 31 3f 59 f0 80 3f 54 6c 41 3f c0 ed 5b 3f
       0.6928037 1.0073348 0.7555592 0.8590965
000010 5b 00 57 3f 8c a7 81 3f 57 dc 3a 3f b6 aa 6e 3f
       0.8398492 1.0129256 0.7299246 0.93229234

bias f4 [8]
000000 e0 48 ee be b1 a6 3f 3f 60 c9 58 3f 25 bb c7 3b
       -0.46539974 0.74863726 0.84682274 0.0060953074
000010 dd 84 53 3f 4c 44 98 3f ac ef 85 3b 75 f9 34 3f
       0.8262461 1.1895843 0.004087409 0.7069314

running_mean f4 [8]
000000 81 7e cc be d6 b8 18 bf f7 34 84 3e 51 27 83 3e
       -0.39940265 -0.5965704 0.2582166 0.25615934
000010 18 82 a5 be 16 8c d2 3e b0 a2 a4 3b d9 5d 03 be
       -0.32325816 0.41122502 0.0050242767 -0.12828769

running_var f4 [8]
000000 aa a4 32 3f 96 7a 82 3f 99 68 af 3e 30 5d 29 3f
       0.6978251 1.019366 0.3425949 0.6615782
000010 fb c6 9c 3d 12 f9 01 3e bd 70 c3 3d 33 14 d6 3e
       0.0765514 0.12692669 0.095429875 0.41812286

weight f4 [11, 8, 7]
000000 88 45 f5 39 b5 f9 23 bc 71 19 86 3a 2c 7e 1f bd
       0.00046781846 -0.010008265 0.0010230971 -0.038938686
000010 10 5d 81 bd 8a 64 cb bd 98 e4 07 be f9 fc a5 3a
       -0.063165784 -0.09931286 -0.13270795 0.0012663893
000020 40 f5 86 bd 8d 81 9b bb bb 9e 87 3d 55 7e 25 3e
       -0.065897465 -0.0047456683 0.06622072 0.16161473
000030 38 89 e0 3d 3f 06 fd 3d 52 5a 9f 3c 0c 5c 98 3d
       0.109636724 0.12354707 0.019452248 0.074394315
000040 7e a5 a8 bb fe fe d7 3d 30 c4 9c 3e eb 5c ab 3e
       -0.0051466813 0.10546683 0.3061843 0.33469328
000050 93 b7 1d 3e 31 e9 ba 3c 34 40 43 3d d5 07 30 bd
       0.1540206 0.022816272 0.04766865 -0.04297622
000060 3b 1d 08 bd 4e b1 34 bc 7e d8 ed bb 71 41 99 bd
       -0.033231 -0.011028601 -0.007258474 -0.07483185
000070 bb d4 aa 3d cf 0f e9 bd 48 be 71 3d 20 ab 41 3d
       0.08341356 -0.113799684 0.059019357 0.04728234
000080 d1 85 3c 3d c4 b6 b9 3d 13 e3 dc 3d 64 8e 2b 3b
       0.046026055 0.09068063 0.107854985 0.00261774
000090 7f 65 62 bd 9c 96 de bb 15 58 f8 3c d3 2c 4d 3e
       -0.055272575 -0.0067928564 0.030315438 0.2003663
0000a0 65 6c 44 3e 8e 59 68 3c fb 60 99 3c 13 95 9e 3d
       0.19181974 0.014181508 0.018723002 0.077432774
0000b0 99 79 99 bc 38 68 7c 3d fb f9 47 bc ab 83 46 3d
       -0.01873474 0.06162283 -0.012205596 0.048465412
0000c0 6a 4e ce bc 11 06 15 bd f3 19 d4 3a 8d 25 87 bd
       -0.025183875 -0.03638274 0.001618205 -0.06598959
0000d0 aa 90 9c 3d 6b f6 90 3e 6d a4 9b 3e 59 0b 6a 3d
       0.0764478 0.28313002 0.30398884 0.05713973
0000e0 9e 1b ef 3d ce 65 da 3d a6 c3 a3 3d d6 f0 eb bc
       0.116751894 0.10663949 0.07996301 -0.028801363
0000f0 1c af 73 3e 67 b3 35 3e 1b 94 ca 3d 93 f0 0a be
       0.23797268 0.17744218 0.0989153 -0.13568334
000100 1a 2c 0e be 98 d6 43 bc 0d f1 1c be c5 ab 19 be
       -0.13884011 -0.011953019 -0.15326329 -0.15006931
000110 4f a3 86 bd 02 4a 24 be 81 ff 1f bc 52 c1 e7 bd
       -0.065741174 -0.16043857 -0.009765507 -0.1131617
000120 f2 58 be bd 43 fb eb 3c 6a 06 8c bd bb ca 48 bd
       -0.09294309 0.028806334 -0.06837161 -0.049021464
000130 2d df 4b bd c7 0e 8b be c1 87 81 3d 6f fa ea bd
       -0.049773384 -0.27159712 0.06324721 -0.11473548
000140 23 2a a1 be 78 ab e1 bd 0a 81 9a 3c 98 74 17 be
       -0.3147746 -0.11019033 0.018860359 -0.1479057
000150 42 52 e7 3b c9 a4 76 bd 9b bc 14 bd 79 3b 3a 3b
       0.0070593664 -0.060215745 -0.03631268 0.0028416796
000160 f2 eb 2f 3d 28 9b d1 bc d0 23 0f 3d 5b 50 8a be
       0.042949624 -0.02558668 0.034946263 -0.2701443
000170 d2 a1 e7 bd fd 8d 23 be d7 21 48 be 4c 2d 7d be
       -0.11310162 -0.15972133 -0.19544159 -0.2472431
000180 f6 21 bc bc 4e a6 87 be 8b 81 d7 bd 42 90 0b 3b
       -0.022965413 -0.26494068 -0.10522755 0.00212957
000190 26 ac 11 bd ed 1e b1 bd d5 89 ef bc 0a 1a c3 bc
       -0.035564564 -0.08648477 -0.029240528 -0.023816127
0001a0 20 09 da bd e0 c6 59 bd 48 b2 8f bd a8 64 28 bd
       -0.10646272 -0.053168178 -0.07016426 -0.04111162
0001b0 6a bd ec bd fa cd 82 bd 99 7b 3a bd 56 88 bd bd
       -0.11559565 -0.06386943 -0.04552803 -0.0925452
0001c0 46 b9 2c be 84 13 4d be 0b 67 88 bd 55 43 aa 3d
       -0.16867551 -0.20026976 -0.06660279 0.08313624
0001d0 1e 25 2e 3c 81 83 20 3e dd d6 00 3e f7 4a d2 3d
       0.010628967 0.15675165 0.12581964 0.10268205
0001e0 1e 77 a4 3d f8 8c 29 bd a2 21 87 bd 66 08 8a bd
       0.08030532 -0.041394204 -0.06598212 -0.06739883
0001f0 93 d4 96 bc 1b fe 39 ba 6f 94 91 be c1 e0 17 be
       -0.01841191 -0.00070950546 -0.28433558 -0.1483183
000200 1e b7 de bd 0e 2e 5f 3c 25 dd 13 3e 0c bd cd 3d
       -0.108747706 0.01362182 0.14439829 0.100458235
000210 77 da 92 3e f0 d4 92 bd 2a 0c 3e bd 61 99 34 3d
       0.286823 -0.07169521 -0.04639832 0.044091586
000220 09 46 9c 3d af 35 7c 3d d5 5c 8e 3a 86 01 b1 bd
       0.07630546 0.061574634 0.0010861406 -0.08642869
000230 b2 81 81 3d a3 f9 8b 3c 4b e1 5c 3d 1d 07 82 3c
       0.063235655 0.01708681 0.053925794 0.015872533
000240 7a bd 5d 3c ea aa 9a bd d0 18 b3 bd e7 f2 03 be
       0.013533944 -0.075521305 -0.08744967 -0.12885629
000250 7c dc 9a bc cb 1f aa bc ce 42 30 bd e7 e2 e5 3c
       -0.018903963 -0.020767113 -0.04303246 0.028062297
000260 85 47 83 3d 95 6f dd 3d ab 35 23 3d b1 70 b5 3c
       0.06410126 0.10812298 0.039846104 0.022148462
000270 14 95 da bb 7b c5 b5 3d b0 37 be 3d 9a dd 00 be
       -0.0066706035 0.08875557 0.09287965 -0.12584534
000280 b1 de 1e be 9e 40 99 3e bc 89 e9 3d b7 7e f4 3d
       -0.15514638 0.29932112 0.11403224 0.119382314
000290 e6 05 bd bd 9e 34 c7 bd c8 40 e6 bd 7d 14 60 be
       -0.09229641 -0.09726833 -0.11242825 -0.21882816
0002a0 f2 34 d9 3b e4 07 e4 3d f0 87 f6 bd dc e4 d4 3c
       0.006628626 0.111343175 -0.12037647 0.025988035
0002b0 98 a1 2c bd b5 c7 ed 3d a3 a2 9b 3c eb 75 77 3c
       -0.042146295 0.11610357 0.01899845 0.015103797
0002c0 e5 8f bf 3d 4c 5f f7 3d 35 21 55 bc 52 03 0c 3e
       0.093536176 0.12078723 -0.013008405 0.13673142
0002d0 0c cc 26 3e 5e 7b 46 3e 1f f1 27 bd 56 48 48 bd
       0.16288775 0.19382998 -0.041001435 -0.04889711
0002e0 0c 34 ce bd 8c 38 40 be 7a 11 01 be 5b 5c bd bd
       -0.10068521 -0.18771571 -0.12604323 -0.09246131
0002f0 cc 10 28 3d 6a d3 d0 3b 57 38 a4 3d a5 ee e8 bd
       0.041031644 0.006372859 0.080185585 -0.11373643
000300 fe fa 0e be 7d e6 25 be fd 65 81 bc db 6d 0d 3e
       -0.13962933 -0.16201206 -0.015795702 0.13811438
000310 2e 1d 95 bd c7 10 33 bd 49 3f f1 bd a0 1b a4 bd
       -0.07280956 -0.043717172 -0.11779649 -0.080130816
000320 0b 73 9b bd 6e 5f 96 bd e4 71 9d bc 25 31 17 be
       -0.07590302 -0.073424205 -0.019219346 -0.14764841
000330 30 b3 35 be 4d 52 12 be 1d 93 8d be 75 8e 17 be
       -0.17744136 -0.14289208 -0.276513 -0.14800437
000340 93 fe f7 3c 06 bb b0 3d 5e 4d b3 bd e1 cc cb 3a
       0.030272758 0.08629422 -0.08754991 0.001554873
000350 69 df aa bd de 98 25 be de f7 b2 bd 79 0d 1a be
       -0.08343393 -0.16171595 -0.08738683 -0.15044202
000360 a6 3d e6 bb e1 37 fe bd b4 81 de bd b3 66 71 be
       -0.007026392 -0.12413002 -0.10864583 -0.23574333
000370 6e a2 5c be 90 40 56 be ba 92 5a bd 35 d8 f4 bd
       -0.21546337 -0.20923066 -0.053362586 -0.11955301
000380 07 62 83 3c d2 25 5a bd 82 cc e6 bd 71 91 d5 bc
       0.016037954 -0.053258725 -0.112694755 -0.026070328
000390 3b 94 ef 3c 90 60 95 3d 6c 54 95 3d c2 dd c3 bd
       0.029245486 0.072938085 0.07291493 -0.09563781
0003a0 2f 5e 4a be c7 5a 9d bd 4c 04 87 bc db 90 82 3d
       -0.1976249 -0.0768333 -0.016481541 0.06375285
0003b0 92 2a 04 3e 16 b1 60 3e ef 34 4b ba 60 ce 19 be
       0.12906864 0.21942553 -0.0007751723 -0.15020132
0003c0 bd dc 74 bd 15 68 69 bc 5c 66 d9 3d 3a 10 42 3d
       -0.059780825 -0.0142460065 0.106152266 0.047378756
0003d0 bb 4b a0 3d 50 a6 ac 3c ae 38 96 bd c0 00 fe bd
       0.078269444 0.021075398 -0.073350295 -0.12402487
0003e0 a0 ed 61 3d 52 19 d6 3d f8 31 bf bc f8 26 05 3c
       0.055158257 0.10454048 -0.023339257 0.008126967
0003f0 27 93 d0 3b af da 3c bd 34 ae 7c bd ff c9 bc 3c
       0.006365198 -0.04610699 -0.06168957 0.023045538

bias f4 [11]
000000 e5 c5 ca 3d 3a 85 e0 bd 29 ba bc bd f1 5e d8 3d
       0.09901027 -0.10962911 -0.09215195 0.10564984
000010 f0 98 ee bd e8 0b fa 3d e2 a6 cc bd 85 ef c9 3d
       -0.11650264 0.12209302 -0.09992768 0.09860138
000020 09 7a da 3d 15 2d ab 3d d4 ae a5 bd
       0.106678076 0.08358208 -0.080899864

weight f4 [11]
000000 78 c6 01 3f 2e 6f 45 3f 3a 2e 72 3f e3 ab 45 3f
       0.50693464 0.7712277 0.94601786 0.77215403
000010 25 7b a0 3f a4 8f 5d 3f aa c8 1b 3f 0c a8 35 3f
       1.2537581 0.86547303 0.60853064 0.70959544
000020 3d cd 2d 3f c7 2e ef 3e d3 9d 24 3f
       0.67891294 0.46715376 0.6430332

bias f4 [11]
000000 88 93 29 3e c2 b5 12 3e 2f 66 d1 bc 03 40 9c 3e
       0.16560185 0.14327148 -0.02556142 0.30517587
000010 e0 37 55 bc 58 ea c9 bc 16 b3 4b 3b 2f 2f ab 3e
       -0.01301381 -0.024647877 0.0031082085 0.33434436
000020 86 23 19 be 6c 52 23 3f 5e ca 31 3e
       -0.14954957 0.6379764 0.17362353

running_mean f4 [11]
000000 c6 b2 24 40 37 82 5a c0 b5 60 fe bd 21 c6 0d c0
       2.5734115 -3.4141977 -0.12420789 -2.2152178
000010 6b 69 a9 bd 4a 93 6a 3d 01 2e f9 3f 51 60 1a c0
       -0.0827206 0.057269372 1.9467164 -2.4121287
000020 a2 c9 06 40 e8 a5 00 c0 25 5e f0 3f
       2.1060567 -2.010126 1.8778731

running_var f4 [11]
000000 3e b5 8e 3e 67 50 12 3f c2 c1 17 3f f5 85 99 3f
       0.27872652 0.57153934 0.59280026 1.1994005
000010 db 34 51 3f ae 7a d7 3e 4c d7 e2 3e b7 39 40 3f
       0.81721276 0.42085785 0.44304883 0.75088066
000020 0b b6 f0 3e 8f 19 8c 3f 48 9e ef 3e
       0.47013888 1.09453 0.46800447

weight f4 [16, 11, 7]
000000 f2 e3 63 bc 8c 68 cd 3d 39 2a 24 3d 15 1b de 3c
       -0.013909327 0.10029706 0.04007933 0.027112523
000010 47 5d 3d bc 29 0d a5 bc ec 12 a0 3c ad 06 2a be
       -0.011557884 -0.020147877 0.019540273 -0.16604109
000020 72 2d 34 be 24 18 12 bd a5 8d 08 be a4 3d 04 bd
       -0.17595461 -0.035667554 -0.13335283 -0.032285348
000030 e2 77 ff 3d 22 75 20 be 67 a7 f6 bc ff 31 c0 3d
       0.12474038 -0.15669683 -0.03010912 0.09384536
000040 91 95 22 3e a3 c4 8c 3e ac 2d 62 3e 21 63 ee 3d
       0.15877368 0.27493772 0.22087735 0.11640001
000050 e9 63 9b 3d 0e 15 07 be 01 24 28 bd af ca e6 bd
       0.07587416 -0.13191625 -0.04104996 -0.112691276
000060 62 91 43 be 3b fa eb 3c 73 38 4f bd 1f b7 6f bc
       -0.19098428 0.028805843 -0.050590944 -0.014631062
000070 c5 a5 fd 3d 95 80 25 3e fa dc 35 3e a9 62 5d 3e
       0.12385134 0.16162331 0.17760077 0.21619667
000080 ba da ea 3d 52 13 9e 3d eb ba 50 3d dd 6e a9 3d
       0.114675 0.07718529 0.05095951 0.082730986
000090 78 6b 52 3d 37 8a 9b 3d c0 aa 7b 3e 6e c4 3b 3e
       0.05137202 0.07594722 0.24576855 0.1833665
0000a0 94 5e 4a 3e 04 46 34 3e 10 52 93 3d 62 58 b2 3d
       0.19762641 0.17604834 0.071933866 0.08708264
0000b0 08 ce 9a bb 8d 75 1c 3d 91 2b 1d bd 08 4c 2f bd
       -0.004724268 0.038198043 -0.038371626 -0.04279712
0000c0 b3 6b 5d bd 30 ac d0 bd eb e1 01 be 83 38 4a 3d
       -0.054057788 -0.10189092 -0.12683837 0.0493703
0000d0 ca 96 0b be 0b b7 dd 3a 64 06 a8 bd 0f e5 ad bd
       -0.1363174 0.0016915513 -0.08204344 -0.08490955
0000e0 f1 d6 12 bb 3c 4b 0b 3c 0b 5f 61 bd a7 9c 5f bd
       -0.0022405947 0.008501824 -0.05502228 -0.054592755
0000f0 05 f8 3e bc ac b6 4a bd e1 f3 7c 3d d4 6e 44 bd
       -0.011655812 -0.049490616 0.06175602 -0.047957256
000100 07 27 14 be 1c 63 e5 bd 18 89 e4 bd db ae 31 be
       -0.14468013 -0.11200544 -0.11158961 -0.17351858
000110 91 c5 2f bd 99 e7 0f bc c2 a1 4b 3c 3a 63 1a 3d
       -0.042913023 -0.0087832445 0.012428703 0.037692286
000120 e3 08 04 3c ad 60 92 bc e2 79 a5 bd 2b 89 de bd
       0.008058759 -0.017868364 -0.08079888 -0.108660065
000130 3e 7f 5e bd 33 b0 eb bc 24 5e 60 bd 0b 7d ab bd
       -0.054320566 -0.028770542 -0.05477728 -0.083734594
000140 e6 5b ac bd 08 5c e4 bc 2b 1a 29 bd 9b c1 d5 bc
       -0.08415966 -0.027875915 -0.04128472 -0.026093295
000150 05 c4 03 3e 04 21 d7 bb c4 a8 f9 3d 64 64 3d 3e
       0.12867744 -0.006565215 0.121903926 0.18495327
000160 95 53 07 3e e0 bc a2 3d e1 a6 29 3e d4 30 56 bd
       0.13215478 0.07946181 0.16567566 -0.05229266
000170 fc 74 97 bd 7c 46 07 be e3 c6 14 be 84 65 0a be
       -0.0739536 -0.13210481 -0.14528994 -0.13515288
000180 a7 1a 08 be b5 e7 67 bd df 9a 5c bd 20 62 2a bd
       -0.13291417 -0.056617457 -0.053858634 -0.041597486
000190 12 a2 bb bd 6c 23 0a 3d 7d 45 99 3d 80 c6 d7 3d
       -0.09161772 0.033725187 0.07483957 0.10535908
0001a0 57 6f 2a 3e c3 a4 ed bd 63 fc 70 be 5d 00 ae be
       0.16644035 -0.116036914 -0.23533778 -0.33984652
0001b0 cf 6c e6 be 6f a4 b2 be f9 5e 6d be 27 2b bf bd
       -0.4500489 -0.34891078 -0.2318076 -0.093344025
0001c0 54 90 e1 bc 3a 70 4c bd 4f 98 c3 bd 29 b2 13 be
       -0.027534641 -0.049911715 -0.09550535 -0.14423431
0001d0 47 34 2d be 74 80 2f be af 9e d8 bd 0b 42 8b bd
       -0.16914473 -0.17138845 -0.105771415 -0.06799706
0001e0 a2 b0 6d bd 82 63 07 bd 27 a1 ca bc b4 a8 44 3d
       -0.05802978 -0.033053882 -0.024735047 0.04801245
0001f0 e4 33 7f 3d 4f a7 e0 3d e2 a6 69 3d 00 ce 3a 3d
       0.062305346 0.109694116 0.057043917 0.045606613
000200 a0 23 ff 3c e2 a4 48 3d c1 9a 98 bc 4b 5d 0a 3d
       0.031144917 0.04898537 -0.01862848 0.033780377
000210 a7 30 2e bd 51 6b c5 3d 87 37 03 3e 11 ed 50 3d
       -0.042526867 0.096396096 0.12814151 0.051007334
000220 5c a5 99 3d 3f ed 4f bd 5b eb 53 bd 82 67 7e bd
       0.07502243 -0.050763365 -0.051738124 -0.06211043
000230 11 91 e7 3d 91 f1 b8 3c 97 4e 4d 3d ac d9 f9 3d
       0.11306966 0.022576125 0.050123777 0.12199721
000240 e6 ae 40 bc 2f bd 50 3d 77 35 95 bd f4 55 01 be
       -0.011760449 0.05096167 -0.07285588 -0.12630445
000250 38 f7 28 bd 8b c5 a0 bb b8 b5 06 bd 2a a2 17 3d
       -0.04125139 -0.0049063615 -0.032888144 0.037019886
000260 3a 9d 93 3d 70 81 90 3c 0d bc 3c bc ec d6 99 3d
       0.07207723 0.017639846 -0.011519444 0.07511696
000270 ca cb 98 bc af f9 7f bc 0c 63 11 3d 08 88 1b bd
       -0.018651862 -0.015623494 0.03549485 -0.037971526
000280 22 06 29 3c 8c bf f5 3c d7 aa 55 3c ab 2d 8e bd
       0.010316404 0.029998563 0.01304122 -0.06942304
000290 c7 fa 82 bd fb 7d 8e bd 8a f7 e8 bd 85 eb 85 bd
       -0.06395488 -0.069576226 -0.11375339 -0.065390624
0002a0 f0 e5 8c be 25 d3 9b be 91 5a 9c be ca e5 ed be
       -0.27519178 -0.30434528 -0.30537847 -0.46464378
0002b0 e4 17 96 be fa 3f 7d be e1 d0 6b be b7 d0 9c 3c
       -0.29315102 -0.24731436 -0.230289 0.019142492
0002c0 6f 87 9b b9 ab 1c a5 3c 20 73 34 bc 90 42 56 bd
       -0.0002966481 0.020155272 -0.011013776 -0.052309573
0002d0 f2 f4 e4 3a fa fc f0 bc 16 e7 1b 3d 13 04 70 3d
       0.0017468019 -0.029417504 0.038062178 0.058597635
0002e0 2f db 07 3e 09 3e 3b 3e 12 8f 0f 3e 95 7f de 3d
       0.13267206 0.18285383 0.1401942 0.10864178
0002f0 19 c4 99 3d a3 7c 4e be e7 08 6a be 34 d4 67 be
       0.07508106 -0.20164733 -0.22854958 -0.22639543
000300 dc de b6 be 3e d0 84 be f8 bf 5f be cc b6 4e be
       -0.35716903 -0.25940126 -0.21850574 -0.20186919
000310 8f 30 4b bc 03 84 a5 bd 9a 89 a9 3b ee 7b 1b bd
       -0.012401714 -0.0808182 0.005173874 -0.037959985
000320 f7 42 97 bc 11 f4 01 3d 23 54 df bc 2a e1 ef bd
       -0.018464549 0.0317269 -0.0272618 -0.117128685
000330 ad 1d 83 bd f6 da d9 bd fe a7 eb 3c 35 f8 b8 3d
       -0.064021446 -0.106374666 0.028766628 0.09031717
000340 0c 84 4c 3d 65 39 e0 3d 03 0b 24 bd 18 86 c2 3c
       0.049930617 0.10948447 -0.040049564 0.023745582
000350 8b a1 41 bd 73 51 e1 bc 8f 0a 86 bc 8a 4b 81 bd
       -0.0472732 -0.027504658 -0.016362457 -0.06313236
000360 55 46 1e bd 92 9e a2 3d 0b b3 5a 3d 7c f2 0b bd
       -0.038641293 0.07940401 0.053393405 -0.034166798
000370 39 82 ca bc 10 05 8c bc 1d 55 2e bd 55 a2 d6 bc
       -0.024720298 -0.017092258 -0.04256164 -0.026200453
000380 47 17 40 3c 2d 19 e4 3b 9b ea 93 bc c1 38 2e bc
       0.0117243 0.006961009 -0.018056205 -0.010633648
000390 65 f4 39 bd fe 1b 43 bc fb e5 40 bd 5c d1 60 bd
       -0.04539909 -0.011908529 -0.047094326 -0.05488716
0003a0 32 29 c9 bb b4 7c 4d 3b 42 e1 2d 3d 85 c3 b7 bc
       -0.006138944 0.0031354846 0.04245115 -0.022432098
0003b0 a4 ad 37 3d a0 a9 af 3d 20 bc 8c 3e 53 53 2d 3e
       0.04484333 0.08577275 0.27487278 0.16926317
0003c0 bd 4e 6c 3e ce 68 b1 3e d4 08 0e 3e 61 cd 7d be
       0.23076911 0.34650272 0.13870555 -0.24785377
0003d0 15 f5 7d be 42 53 f7 3c a6 49 21 3d 5a 70 b8 3d
       -0.24800523 0.030191068 0.039376877 0.09005804
0003e0 a8 3c ef 3d cb 5b eb 3d 1c 50 8d 3d eb 9b 97 bb
       0.11681491 0.114921175 0.06900045 -0.004626741
0003f0 d0 5b bc 3d 7c 34 a4 ba 65 28 e7 3d 0c 53 b4 3d
       0.09197199 -0.0012527849 0.112870015 0.088049024

bias f4 [16]
000000 61 18 c7 3d 72 9c 4b 3c f0 fe 20 bd 71 c8 bd bd
       0.09721447 0.012427436 -0.039305627 -0.09266747
000010 66 d2 08 bd f8 55 b0 bd a2 15 99 3d 79 d3 63 3d
       -0.033403777 -0.08610147 0.07474829 0.055621598
000020 a0 74 e1 3c 98 04 a6 bc 9c fb 87 3d af 23 5a 3c
       0.027521431 -0.020265862 0.066397876 0.013314172
000030 94 9d 01 3c 80 3e dd bd 41 40 65 bd a2 73 a6 bc
       0.007911105 -0.108029366 -0.05596948 -0.02031881

weight f4 [16]
000000 d8 bb 4e 3f 06 8b 9a 3f 50 85 73 3f d0 78 2e 3f
       0.80755377 1.2073677 0.95125294 0.68153095
000010 43 5e 9b 3f 13 67 87 3f 23 9d 6e 3f 75 f4 3a 3f
       1.2138141 1.0578331 0.9320852 0.7302926
000020 f7 25 43 3f de 08 44 3f 05 60 26 3f ce 03 44 3f
       0.76229805 0.7657603 0.64990264 0.76568305
000030 41 83 1a 3f f3 6b 22 3f 8b a1 18 3f 61 9f 22 3f
       0.6035653 0.6344597 0.59621495 0.6352444

bias f4 [16]
000000 03 7b a0 3d 1b 58 c8 3e 97 c0 0d 3f 02 cc 87 be
       0.078359626 0.3912972 0.55371994 -0.26522833
000010 79 45 8c be e4 be 2b bf a7 dc dc 3d ae fb 8d bd
       -0.27396753 -0.6708815 0.107842736 -0.0693277
000020 6d 9b c7 bd 1f e3 00 bc d6 62 f4 bd c5 ab 62 be
       -0.09746442 -0.00786665 -0.11932914 -0.22135837
000030 82 63 dd bd 68 0c 03 3e bc f5 ee bd c1 67 ca 3d
       -0.10809995 0.12797701 -0.11667964 0.09883071

running_mean f4 [16]
000000 f5 9f 69 be f3 1b df be c8 b7 6e bf ca 07 bb 3f
       -0.22814925 -0.4357601 -0.9324918 1.4611752
000010 68 9e ba bf c4 2c 02 bf f4 50 20 3f 90 19 84 3d
       -1.4579592 -0.50849557 0.62623525 0.06450188
000020 56 be 6b bd fd 22 92 3f d6 8b 63 bc ac 02 a4 bf
       -0.057554565 1.1416928 -0.01388832 -1.2813315
000030 f5 38 ac 3f fb c4 d2 be 4c cf 54 be e5 a6 b1 3f
       1.3454882 -0.4116591 -0.20782202 1.3879057

running_var f4 [16]
000000 67 2f 87 3f c0 65 d0 3f af ce 4a 3f b5 a5 01 3f
       1.0561341 1.6281052 0.79221624 0.50643474
000010 2c 04 74 3f 1a ac 8e 3f d4 d9 62 3f d4 2f 8c 3e
       0.95318866 1.1146271 0.8861363 0.2738024
000020 0b 4a 6f 3e fd 17 5d 3f d8 a7 26 3e 32 1d 3f 3f
       0.23368089 0.8636473 0.16274965 0.74653924
000030 73 1c a2 3f e1 86 e0 3e 90 01 03 3e e3 8f 09 3f
       1.2664932 0.43852904 0.12793565 0.5373518

weight f4 [22, 16, 7]
000000 07 cc 13 bd 89 a3 69 bd f3 5d a7 bd 09 2c 59 be
       -0.036083248 -0.057040725 -0.08172216 -0.21208204
000010 b3 01 5b bd 72 6d 0c 3e d2 c0 21 3e f8 f1 ae 3c
       -0.053468417 0.13713625 0.15796211 0.021355614
000020 0b 33 13 3d 38 8c ad 3d 5f 21 4d 3e 98 92 86 3d
       0.03593735 0.0847401 0.20032261 0.06570929
000030 cb 4a ad bd c9 90 69 be 80 5a 8c 3c 9a fb 70 3d
       -0.08461531 -0.22809137 0.017132998 0.058833696
000040 5e cb 02 3e 3d 9e 20 3e 62 07 42 bd 2a d1 5e be
       0.12772891 0.15685363 -0.047370322 -0.21759477
000050 d6 b8 50 be e6 33 ab bc a1 40 3f bd b3 b7 f3 bd
       -0.2038301 -0.02089877 -0.046692494 -0.11900272
000060 07 48 9c 3a fd 8e b5 3d 88 e8 1f bb de fc eb bd
       0.0011923321 0.088651635 -0.0024400074 -0.1152284
000070 ad 98 bc 3c 90 be 7d 3d 53 66 98 3d 7b f4 39 3e
       0.02302202 0.061949313 0.07441392 0.18159668
000080 56 2d f9 3d c9 29 ff bd fc 3e 60 be 3c 85 d0 3c
       0.1216685 -0.12459142 -0.21899027 0.025454156
000090 b6 01 3a 3c 3f 9d 13 3d c5 af f0 3d fc 54 c3 3c
       0.011352947 0.036038633 0.117522754 0.023844235
0000a0 60 9c b9 bd 7a c9 95 be e5 e4 08 ba ec b5 1a 3c
       -0.09063029 -0.29255277 -0.0005222096 0.009442788
0000b0 bf 73 26 3d 21 7f e5 3d 7a 08 b1 3b 15 66 2f be
       0.040637728 0.112058885 0.005402622 -0.17128785
0000c0 b0 1e 08 be 91 00 b4 bd 79 53 d4 bd fa b4 04 be
       -0.13292956 -0.087891705 -0.10367484 -0.12959662
0000d0 db 5d 01 be 1b bc 3b 3d fe 65 2b 3e eb e2 c3 3d
       -0.1263346 0.04583369 0.16738126 0.095647655
0000e0 18 57 b1 bd a0 e9 70 bd bc b3 fb bd 1a cd fe bc
       -0.0865919 -0.058816552 -0.12290141 -0.03110366
0000f0 dc 40 b2 3d 38 f4 0d 3e 6c 3e 5a 3d df 34 0e bd
       0.08703777 0.13862693 0.053282186 -0.03471839
000100 e9 5b ab bd 2e 7b b8 bd 9a d4 04 be 03 57 e4 3c
       -0.0836714 -0.0900787 -0.12971726 0.027873522
000110 df 99 dd 3d e3 77 91 3d 65 39 a3 bd 76 71 91 bd
       0.10820364 0.07102945 -0.079699315 -0.07101719
000120 db c3 d7 bd b5 8d e2 bd c8 36 45 3c ed 24 98 3d
       -0.10535403 -0.11062185 0.012036987 0.07428918
000130 1d 74 6f 3d 1d 23 83 3d e5 d3 05 3c 78 fa 35 bd
       0.058460344 0.06403182 0.008168195 -0.04442832
000140 31 2c 1a bd 41 26 5d 3d 45 73 ce 3d a0 d5 90 3c
       -0.0376398 0.05399156 0.1008058 0.01767999
000150 5b 7c 12 3c 16 d0 8a bb b3 42 c7 bb 50 b7 54 bd
       0.0089407815 -0.0042362316 -0.006080949 -0.051932633
000160 b9 24 85 bd b6 b2 18 bd 47 19 81 3b c6 10 7b bc
       -0.06501145 -0.037279807 0.003939781 -0.015323823
000170 9c a3 72 bd 01 54 75 bd 83 ae 29 bd 6e 5e 08 3d
       -0.05923806 -0.059894565 -0.041426193 0.03329318
000180 d6 15 8b 3d 96 59 9f 3d 0a 10 3e bd 1e 2d a4 bd
       0.06791274 0.07780759 -0.046402015 -0.08016418
000190 da 01 0e be 5c c2 d7 bd 50 fa 1d 3d e1 37 b0 3d
       -0.13867894 -0.10535118 0.038568795 0.08604408
0001a0 32 d5 6e 3d c2 75 83 bd 21 1e 57 bd 32 fb 21 be
       0.058308788 -0.06418945 -0.052518968 -0.1581848
0001b0 a1 3e 3e be bc ac 99 3d cf 06 c9 3d 75 de 45 3d
       -0.18578579 0.075036496 0.09815752 0.048307855
0001c0 c4 de 2e bb fe 93 2e 3c b4 0a 60 3d d4 e6 fd bc
       -0.0026683072 0.010655401 0.054697707 -0.030993856
0001d0 0e 95 81 bd 50 22 a7 3d 32 54 76 3d 34 a1 ce bb
       -0.06327258 0.081608415 0.06013889 -0.006305838
0001e0 b9 28 2c 3d 8c 49 cc 3c 51 26 3e 3e c5 d3 b9 3d
       0.042031024 0.024937414 0.18569304 0.09073595
0001f0 b1 f1 3c be 2a b6 be bd 22 2b 85 bd 60 93 8b bd
       -0.18451573 -0.09312089 -0.065023676 -0.06815219
000200 ed 1f 78 bd 24 82 89 3b 56 4a 12 3d 86 63 8a 3d
       -0.06057732 0.004196422 0.035715424 0.06757264
000210 c7 d5 a1 3d c7 4a 30 bd 97 74 33 bd 45 db 90 bc
       0.07902103 -0.043040063 -0.04381236 -0.01768268
000220 58 67 49 3d 72 4a 9e 3c eb 0f a0 bd a8 b2 76 bd
       0.049170822 0.019322608 -0.07815536 -0.060228974
000230 89 90 15 3c 85 42 2a bd 68 2f 9e 3d 5f d7 98 3e
       0.009128698 -0.041567344 0.07723886 0.29851815
000240 ec 90 83 3e ea 17 1e be 40 90 45 be 15 54 9c bc
       0.25696504 -0.1543881 -0.19293308 -0.019083062
000250 b6 13 fe bc b8 e6 80 3d 46 80 83 3e 59 2b d8 3e
       -0.031015258 0.06294006 0.25683802 0.42220572
000260 a1 0b 8d 3d 6a a1 19 be 68 0c 11 bd 21 7f 84 bb
       0.06886984 -0.15002981 -0.035412222 -0.0040434753
000270 93 9d 17 3d be 8b 29 3d e9 46 10 bd 9f 43 bd 3c
       0.03701551 0.041393034 -0.035223875 0.023103533
000280 3e a2 0a 3d e3 59 8c 3d c0 eb 9d 3d bf a8 1c 3d
       0.033846132 0.06853082 0.07710981 0.038246866
000290 35 f1 59 3c 78 97 85 3d 3c 44 6f 3b a4 b9 52 bd
       0.013302137 0.06523031 0.0036509177 -0.051446572
0002a0 4a d7 0f 3d 7d ae 26 3c 12 48 76 bc e2 0c 2d bd
       0.035117425 0.010173437 -0.015031831 -0.042248614
0002b0 fc 41 56 3b 7d 9c 15 3d 0b 7f cb bc 52 e5 df ba
       0.0032693138 0.036526192 -0.024840852 -0.0017081893
0002c0 58 57 2b 3d f4 91 c9 bc 64 d4 d1 3c 37 0e ca bc
       0.041831344 -0.024605729 0.025613971 -0.024664981
0002d0 ca ce 24 bd 13 cb de bc 27 f8 31 3d fe 0b 04 3c
       -0.040236272 -0.027196443 0.043449547 0.0080595
0002e0 96 b0 08 bd be 58 ca bd 9b 9f 10 bd 89 38 76 3d
       -0.03337153 -0.098802075 -0.03530846 0.06011251
0002f0 8f 58 cb 39 b4 d5 93 3c c7 ee 6a 3d e2 a6 ad 3d
       0.00038785159 0.018046238 0.057356622 0.08479096
000300 af 00 a5 3d 80 29 54 3d 9f 47 68 bd e7 52 ff bd
       0.08056771 0.05179739 -0.05670893 -0.12466984
000310 57 cc 00 3d 2c 68 19 bd 07 cd 32 bd 81 ae 69 bd
       0.031444874 -0.03745286 -0.04365256 -0.057051186
000320 e2 fe be bd 4d a1 d3 bc 98 ad b0 3d 98 49 48 bd
       -0.09325959 -0.02583375 0.086268604 -0.04889831
000330 1f 25 28 bd 8a fd 88 bd c3 ed c7 bd ba 2d ae 3d
       -0.041051026 -0.06688984 -0.09762146 0.085048154
000340 5c bf a2 3d 9c 24 4f bc e1 1e 81 bc cf f9 81 bc
       0.07946655 -0.012643006 -0.015761795 -0.015866188
000350 0a 22 ce bd a2 3b d4 bd 3a b9 cc bc db c7 83 3d
       -0.10065086 -0.103629366 -0.024990667 0.06434604
000360 f6 87 d1 3c c5 d7 3b bc 46 49 03 3d d8 f3 9e 3d
       0.025577527 -0.011465018 0.0320523 0.07761353
000370 77 69 80 3d 3a e2 9d 3d f0 fd d2 3c 91 68 04 bd
       0.06270116 0.07709165 0.025755852 -0.032326285
000380 6c 7b b3 bd 97 98 35 be ee 59 37 be fa ef ea bd
       -0.08763775 -0.1773399 -0.17905399 -0.11471553
000390 e7 a5 10 3d 70 f9 c6 3d 3c 2c 07 3e c9 9e 41 3e
       0.035314467 0.09715545 0.13200468 0.18908228
0003a0 b4 f1 d4 3d 38 8d a2 3d 77 8e 3b bd 59 a4 2f be
       0.10397664 0.079370916 -0.045790162 -0.17152537
0003b0 82 d2 86 bd be ab c9 3b ad 09 49 3e ad 21 78 3e
       -0.0658312 0.0061545065 0.19632597 0.24231596
0003c0 c9 c8 7a 3e c7 55 a5 3e 4c ed 2a 3e a7 87 29 3d
       0.24490656 0.32292005 0.16692084 0.041389134
0003d0 0b c1 f3 bc e1 89 03 be 7a 22 fb bd 18 30 e8 3b
       -0.029755136 -0.12845565 -0.12262435 0.0070858113
0003e0 e0 5d 83 3d 89 80 bf 3c 82 9b 41 bd 66 35 55 bd
       0.064143896 0.02337672 -0.047267444 -0.052052878
0003f0 83 16 f4 bd 19 6a 70 bd bb bb af 3c 2d 4f b4 bd
       -0.11918356 -0.058694933 0.021451822 -0.08804164

bias f4 [22]
000000 97 c8 a3 3d 9e ae 80 bd 93 2e a0 bd 21 2a 9e bc
       0.07997244 -0.062833056 -0.07821383 -0.019307198
000010 74 8a 55 3d 50 2c eb 3c ad a7 e4 3b bb ec 35 3d
       0.052133992 0.028707653 0.0069779963 0.044415217
000020 e4 00 90 3d ab 20 41 bc 01 bd 63 3d c9 29 96 3d
       0.0703142 -0.011787574 0.05560017 0.07332189
000030 f3 0c 99 bd 2f de ac bd 63 83 bd 3d d4 b5 a4 bd
       -0.07473173 -0.08440816 0.09253576 -0.080424935
000040 f7 00 c5 3c d0 cf 41 3d 23 3d 8b bc 71 20 ad bd
       0.024048312 0.047317326 -0.016996926 -0.08453453
000050 a4 b4 1f bb f0 91 a9 3d
       -0.0024369145 0.082797885

weight f4 [22]
000000 9e 4a 81 3f 9e f3 63 3f 9a f6 79 3f be aa 50 3f
       1.0100896 0.89043605 0.9764191 0.8151053
000010 57 13 39 3f 6a 76 4c 3f 22 66 2c 3f 81 64 32 3f
       0.72295135 0.79868186 0.6734334 0.69684607
000020 1c be 83 3f 25 05 47 3f e6 69 4b 3f 69 5b 74 3f
       1.0292392 0.77742225 0.79458463 0.9545198
000030 8a 33 48 3f a5 bb 7e 3f 7b 79 5b 3f c6 64 83 3f
       0.7820364 0.9950507 0.8573224 1.0265129
000040 ff 45 0c 3f 27 f8 66 3f 98 46 5f 3f 02 7b 91 3f
       0.54794306 0.902224 0.8721709 1.1365664
000050 a4 4a 7a 3f 8e 74 82 3f
       0.9777014 1.019182

bias f4 [22]
000000 40 97 6c be d7 25 71 bf f0 83 92 bd 81 58 46 bf
       -0.23104572 -0.94198364 -0.07154071 -0.77478796
000010 06 0e 06 bf 21 49 8e 3d bf 08 b0 bd a9 95 d8 be
       -0.5236515 0.06947542 -0.08595418 -0.42301682
000020 d8 6e 9b 3d dd dd 30 3e 1a aa 35 3f 13 73 14 3f
       0.07589501 0.17272134 0.7096268 0.5798809
000030 81 9d a0 3d da 7b 3e be c6 f1 f7 bd 58 91 86 3e
       0.078425415 -0.18601933 -0.121066615 0.26282763
000040 91 fd 86 3d b4 a3 0b bf 0f b0 45 bf 27 fa b0 3e
       0.06591333 -0.54546666 -0.7722177 0.3456585
000050 6c 21 55 bf e3 85 c8 3e
       -0.8325412 0.39164647

running_mean f4 [22]
000000 9b d8 37 be 52 93 0f 3e 0a ef 1e 3f 40 82 32 bf
       -0.17953722 0.14021042 0.62083495 -0.69729996
000010 9b 0e 7b 3f d8 b7 7e 3d 3c 26 fd 3e 9b 2e 52 3e
       0.9806916 0.062187046 0.49443233 0.20525591
000020 68 76 15 40 2d 3d b7 bf fe b6 5a bf 76 f4 64 bf
       2.335352 -1.4315544 -0.85435474 -0.8943552
000030 3c 3c ef be ca f2 7c bf 9a 0f 7c 3f ff ad 05 bf
       -0.46725643 -0.98807967 0.98461306 -0.5221862
000040 5a e9 2d bf c3 a2 a3 3e c7 44 86 3e 12 a8 e9 be
       -0.6793419 0.31960115 0.26224348 -0.4563604
000050 49 31 f3 3e 34 f6 15 3f
       0.4749854 0.585788

running_var f4 [22]
000000 16 a3 dc 3e dc 9f 8f 3d a9 4e 83 3f 28 f6 85 3e
       0.43093175 0.07012913 1.025838 0.26164365
000010 3c a0 dd 3e 9b 70 10 3f 41 14 8e 3f a6 ec 21 3e
       0.43286312 0.5642182 1.1099931 0.1581293
000020 ff fa 77 3f ad ef e3 3f be b6 a1 3f e1 4a 93 3f
       0.96867365 1.7807518 1.2633893 1.1507226
000030 b5 6e 98 3f ae ea a6 3e c4 36 12 40 5c a6 6d 3f
       1.1908785 0.3260092 2.2845926 0.9283197
000040 1f 78 dc 3e d4 1c 25 3e 58 98 28 3e fe ce 20 40
       0.43060395 0.16124278 0.16464365 2.5126338
000050 a4 81 f9 3d ad a3 a6 3f
       0.1218293 1.30187

weight f4 [32, 22, 7]
000000 24 cb 35 be 3f 16 b6 bd 8d 8e 22 be 87 30 cd 3d
       -0.17753273 -0.08890962 -0.15874691 0.100190215
000010 75 e1 a5 bd af 2f a3 bc 27 4f f5 bc ba 37 61 3d
       -0.08099643 -0.019920198 -0.02994497 0.054984786
000020 a9 0f a4 3d f1 ef 0a 3d 70 3a d4 3d 92 e5 c6 3d
       0.080107994 0.033920232 0.103627086 0.09711756
000030 bf 69 ca bc b1 43 4f 3c 47 83 a1 bd 88 3a 8d bc
       -0.024708627 0.012650416 -0.07886367 -0.017239824
000040 43 b7 9c 3d 44 ec d9 3b b4 9d 30 bd 3d a4 3f be
       0.07652142 0.0066504795 -0.043119147 -0.18714996
000050 6c ed 91 bd 05 f4 bb 3a 8e 9e 84 3d 8b 1e f4 3d
       -0.07125363 0.0014339691 0.064755544 0.11919888
000060 f1 dc 1a 3e b8 e0 39 be 78 1d 26 be 7d 1f 16 3d
       0.15123345 -0.1815213 -0.16222179 0.036651123
000070 88 6d c2 3d 7c 0e 6e 3d 23 17 84 3d 71 46 da 3d
       0.09493548 0.058119282 0.064497255 0.10657967
000080 ba d8 4d be bb 7c 07 bc 82 22 15 3d b5 a7 0b 3e
       -0.20102206 -0.008269484 0.036409862 0.13638194
000090 57 87 a6 3d 6c 16 c9 3c da 6b 80 3d 2b 0c a8 3c
       0.08131283 0.024546824 0.06270571 0.020513615
0000a0 b0 ba a4 bc 70 88 bd 3c 37 14 a2 3c b8 13 74 3d
       -0.02010855 0.023136348 0.01978503 0.059589118
0000b0 ca 4c 81 bd f8 ae 85 bc 74 0c e3 3c 7c 53 05 3d
       -0.063134745 -0.016318783 0.027715899 0.03255032
0000c0 10 3b 9d 3d 77 6b 9a bd 10 25 11 bb 0f cf 10 be
       0.07677281 -0.075400285 -0.0022147335 -0.14141487
0000d0 53 ed c1 bd 3b 9b 37 bc 70 b9 e5 bd 94 1d 75 3c
       -0.09469094 -0.011206443 -0.1121701 0.014960665
0000e0 87 fc 82 3d a4 ad 28 3e ea 7d 76 3e 2f 43 04 3d
       0.06395822 0.16472489 0.2407147 0.032290634
0000f0 e5 ee 1b be 7a 1a 94 bd 28 6e 6b bc 9f 22 01 bc
       -0.1522785 -0.072316125 -0.014369525 -0.0078817895
000100 ef 17 9d 3c 06 1a ac bd db 2b 60 bd aa c4 11 bd
       0.019176451 -0.08403401 -0.054729324 -0.035587944
000110 34 09 05 3e 7a 85 00 bd 35 80 bb bd 65 d7 33 bd
       0.12991792 -0.031377293 -0.09155313 -0.043906588
000120 fd 92 75 bd 53 d1 d2 bd d0 6c 98 3d 99 8f f7 3d
       -0.059954632 -0.10293832 0.07442629 0.12087936
000130 b2 39 e0 3c 58 84 cb 3d 9e a7 d2 3d c7 75 fd 3d
       0.027371261 0.09937352 0.10285877 0.1237598
000140 1e c8 3e be 25 22 44 be 4d 2d 8c 3c 0d d9 f1 bb
       -0.18631026 -0.1915365 0.017111445 -0.007380611
000150 9e 17 53 3d 3e c1 74 3d 6d bc 0d 3e 07 a8 3f ba
       0.051536195 0.059754603 0.1384141 -0.000731111
000160 c8 9f 10 3e 3f 63 6c 3d c4 f1 05 3d 4a 9a f0 bc
       0.14123452 0.057711836 0.03270127 -0.029370446
000170 d5 9f 35 3d c3 60 ab 3d 25 26 94 3d 0c a5 a8 be
       0.04434188 0.08368065 0.07233838 -0.3293842
000180 10 9a f8 bd 4d cf 3d bd 48 5b 99 3d b6 01 3d bd
       -0.1213876 -0.046340276 0.07488114 -0.04614421
000190 eb b2 11 3b 0c f2 8b bc 69 35 88 3d 30 90 c0 bc
       0.0022231888 -0.01708319 0.06650812 -0.023506254
0001a0 f4 45 cb 3c da df 9c 3d f4 19 11 3e 78 d1 bc bc
       0.02481363 0.07659884 0.14170057 -0.023049101
0001b0 98 38 74 be b3 f4 8d be 97 db 28 bd d9 8a ad 3c
       -0.23849714 -0.27725753 -0.041225042 0.021184372
0001c0 73 5c a4 3c cc 9c b4 3d 4a 0d cc 3d fe 5a 4a bd
       0.020063614 0.08818969 0.09963472 -0.049403183
0001d0 e4 f7 37 3e c6 59 43 3c af bb bf bc 9d fa b4 3c
       0.17965657 0.011923259 -0.023404924 0.022092158
0001e0 48 a7 1a bd e2 35 83 bd e4 02 71 be 6c ba 9f 3d
       -0.037757188 -0.06406762 -0.23536259 0.07799229
0001f0 af c6 6a bd 27 72 d6 3c 2d 2b 0b 3d bb 46 58 bd
       -0.057318386 0.026177479 0.033976723 -0.05280183
000200 0a 75 c7 bd 97 04 51 be eb 54 53 3d 71 42 91 bd
       -0.0973912 -0.20411907 0.051594656 -0.07092751
000210 68 c0 ad 3c 6c d7 03 3e a6 ee 3d 3e 62 8c 6a 3e
       0.02120991 0.12875146 0.18548068 0.22905114
000220 7a 93 20 3e 4b 20 3d be 62 26 b0 bd 43 76 90 3c
       0.15681258 -0.1846935 -0.08601071 0.017634517
000230 28 09 d8 3c 01 59 f4 3d 00 50 99 3d b7 d0 2e 3e
       0.026371554 0.11931039 0.07485962 0.17071806
000240 ec 2a 4b be 14 fd d6 bd be 77 3e bc 46 b4 61 3c
       -0.19840592 -0.104974896 -0.011625228 0.013775891
000250 27 cf a7 3d 49 2e 20 bb 6a 8d 12 3b 33 08 6b be
       0.08193808 -0.002444165 0.0022362121 -0.22952347
000260 77 17 0f 3d 13 90 84 3c ff f2 48 bd d0 65 13 3c
       0.034934487 0.016181981 -0.049059864 0.008996442
000270 ee e5 ba bb 3a c9 64 bc 9c 04 40 3d 88 0c db ba
       -0.0057036793 -0.013963992 0.046879396 -0.0016712109
000280 72 33 16 be 47 11 92 3c e6 e4 0e 3e 12 56 d9 bc
       -0.14668062 0.017830504 0.13954505 -0.0265303
000290 45 e2 9c 3d 2f d9 e4 3c 17 5a d2 bd 2f 94 e6 bd
       0.07660345 0.027935592 -0.102710895 -0.112587325
0002a0 0a 01 0b bd 2e f7 00 bd 08 8a aa 3c 44 84 ed bc
       -0.033936538 -0.03148573 0.020817772 -0.028993733
0002b0 79 09 40 3d de 74 0c 3b 7f b8 22 be 85 d8 16 3d
       0.046884034 0.0021431963 -0.15890692 0.036827583
0002c0 bc a4 92 3d ae 4b 29 3d a3 d8 b2 3b 03 6d 5f bd
       0.07160327 0.04133194 0.005457954 -0.05454732
0002d0 f5 9c 0e bd ac 5e 16 be 12 f2 5a be 7c 0c 03 be
       -0.034817655 -0.14684552 -0.21381405 -0.12797731
0002e0 d3 f1 0d bd 22 89 44 3c 80 27 29 bc 83 a5 76 bd
       -0.03465445 0.011995586 -0.010324359 -0.060216438
0002f0 31 3a af 3c ef 19 79 bd ab 63 2a bd 71 46 14 3d
       0.021390053 -0.060815748 -0.041598957 0.03619999
000300 b9 d2 f3 3c 52 be d1 3a fc 6e 1c bd 19 ee 60 bd
       0.029763566 0.0016002154 -0.03819178 -0.054914568
000310 0c ab 52 be 8b 4c 44 be 1f 17 f3 bd 17 06 31 3d
       -0.20573062 -0.19169824 -0.118696444 0.0432187
000320 85 8d 7a 3c db 9a 03 3e 50 e0 af 3d 81 52 e1 bc
       0.01529253 0.12852041 0.08587706 -0.027505161
000330 b8 27 81 3d f3 06 d4 b9 22 66 e0 3d 25 bb 95 3c
       0.06306404 -0.0004044097 0.1095698 0.018277714
000340 78 2a b5 3d ba f9 8a bc de 50 07 3e 23 d1 e7 3d
       0.08845991 -0.016964782 0.13214442 0.113191865
000350 24 50 e5 3d 67 29 7a 3d 8a f1 9a bd 5f e6 20 be
       0.11196926 0.06107464 -0.07565601 -0.1571288
000360 86 12 68 be 08 5e 58 be b9 aa 38 be 79 ac a5 bc
       -0.22663316 -0.2112962 -0.18033876 -0.020223843
000370 1e dc 92 3d 8e fa bb 3b 4b f3 a6 3d ab c9 ab 3d
       0.0717089 0.0057366556 0.08151873 0.083880745
000380 9c 8d df bd b8 58 0c be 96 f1 05 bd 9d 69 b1 3b
       -0.10915682 -0.13705719 -0.032701097 0.0054142014
000390 23 5b aa 3d 62 c7 19 3e 4c 6b 45 3e 23 89 de bd
       0.08318164 0.15017465 0.19279212 -0.108660005
0003a0 5c 67 7a 3d 8b e0 5d 38 18 0f 3f 3d 76 7a a9 3d
       0.061133727 5.2899628e-05 0.046645254 0.08275311
0003b0 7a b8 d0 bd ee b4 e5 bc b0 21 d9 bd 1d d6 9f bd
       -0.10191436 -0.028040376 -0.106021285 -0.07804511
0003c0 76 49 82 bd af 5b c8 bd 25 7b 4c 3c 2c 16 00 3e
       -0.06361668 -0.09783112 0.012480532 0.12508458
0003d0 3f a6 e8 3d a2 2d 9d 3d 55 6a c2 3d f9 00 12 3d
       0.11359834 0.076747194 0.094929375 0.03564546
0003e0 be 54 84 3c 6d f5 41 bc cf 6e e7 bd e7 cc 31 be
       0.01615369 -0.011838299 -0.11300432 -0.1736332
0003f0 b4 c8 8d be 29 36 80 be ef f4 4d bd e3 d5 8e bd
       -0.27692187 -0.2504132 -0.050282415 -0.069743894

bias f4 [32]
000000 34 47 5c 3c 46 04 1f bc 69 30 ee 3c 94 08 aa bc
       0.0134447105 -0.009705609 0.029075818 -0.020756043
000010 6d ef 82 bc d8 6a 19 bc d1 aa 46 3c 7f 39 9a bd
       -0.015983308 -0.009363852 0.012125687 -0.07530498
000020 e3 8c f2 3c 11 dc 15 bd e9 03 29 bd 74 8b 87 3d
       0.029608196 -0.036586825 -0.041263495 0.066183954
000030 a9 66 93 bd 3f c3 28 bc 33 b9 79 3d 5e b5 23 3d
       -0.07197315 -0.010300457 0.060967635 0.039967887
000040 7b a5 18 bc 63 0f 88 bd 26 f0 54 3d cd a7 1d 3c
       -0.009316797 -0.0664356 0.051986836 0.009622526
000050 f6 72 59 bd 5d 53 77 bb f7 de 27 bd 49 ec 23 bc
       -0.05308815 -0.0037738897 -0.04098412 -0.010005065
000060 9f 63 bf 3c 15 56 31 3c d0 de a7 3c 82 7a b6 3c
       0.023362933 0.010823746 0.020491987 0.022275213
000070 90 08 7f 3c 06 93 a5 bc d5 fc 0e bd 93 2a 05 3d
       0.015566006 -0.020211708 -0.03490909 0.032511305

weight f4 [32]
000000 3e 2f 64 3f 92 40 5c 3f 9a 69 7a 3f 72 c7 84 3f
       0.89134586 0.86036026 0.97817385 1.0373366
000010 05 24 71 3f 3e 38 7d 3f b8 b4 9e 3f 01 b1 74 3f
       0.94195586 0.98913944 1.2398901 0.95582587
000020 20 7c 84 3f 22 bc 86 3f ee 5b 71 3f f4 7e 57 3f
       1.035038 1.0526164 0.942809 0.8417809
000030 92 af 8c 3f f5 7a 8d 3f f1 e2 87 3f 63 7c 7d 3f
       1.099108 1.1053149 1.0616132 0.99017924
000040 b9 cd 72 3f 27 16 80 3f a1 62 7d 3f 3a a0 73 3f
       0.9484516 1.000676 0.9897862 0.9516636
000050 c8 da 91 3f 9c 68 7e 3f 52 db 7a 3f 14 83 6e 3f
       1.1394892 0.9937837 0.97990906 0.9316876
000060 47 ff 57 3f 33 8a 7b 3f f0 ea 7d 3f 38 56 5f 3f
       0.843739 0.9825775 0.9918661 0.87240934
000070 d4 c7 8d 3f 51 92 7d 3f bc fc 6b 3f 59 17 51 3f
       1.1076608 0.99051386 0.9218252 0.8167625

bias f4 [32]
000000 28 8e ec bd 6a 6c 07 bd 4b 72 d5 be 79 2d e8 3d
       -0.11550552 -0.033062376 -0.4168876 0.11336798
000010 30 04 4b bd 0a 2a 0e bc 0d 81 13 3e 28 e8 70 be
       -0.04956454 -0.008677015 0.14404698 -0.2352606
000020 90 84 54 be 1b 8e 06 be e1 c1 b3 be d3 65 6d be
       -0.20753694 -0.13140146 -0.35108855 -0.23183374
000030 c9 4f c6 bd 99 49 1f be a8 f1 ef 3b 58 ef 52 bc
       -0.096831866 -0.15555419 0.007322509 -0.012874447
000040 7c c5 b5 be a6 30 0f be 9e c6 2a be ad aa a3 bd
       -0.3550223 -0.13983402 -0.16677329 -0.07991538
000050 29 96 88 3e b3 8e c2 be 8e a8 32 be 00 af aa 3e
       0.26677063 -0.37999496 -0.17447111 0.3333664
000060 92 57 a1 bd 59 1d 61 be c0 fe df 3d 0a 27 a7 be
       -0.07878031 -0.21983851 0.109372616 -0.32646972
000070 1f 89 17 be 11 37 4e be 4c 60 52 be 5e 65 5b 3e
       -0.14798401 -0.20138194 -0.20544547 0.21425387

running_mean f4 [32]
000000 53 98 5c 3d 0a be 02 bf c7 75 39 3c 8e 41 62 3e
       0.053856205 -0.51071227 0.011319584 0.2209532
000010 21 7a 66 bf 81 90 9a bf ca 10 8c be 4b c0 90 3e
       -0.90030104 -1.2075349 -0.2735656 0.28271708
000020 25 09 3b 3f ff 03 b5 bf 69 fe 13 3e a0 19 0f bf
       0.7306083 -1.4141845 0.14452519 -0.55898476
000030 e9 ef 4e 3f b7 4e 54 3e 17 5c f9 3e 73 68 54 bf
       0.80834824 0.20733152 0.4870307 -0.82971877
000040 73 c8 5c 3d aa 37 93 be 81 91 4c be 32 c8 1c 3f
       0.0539021 -0.28753406 -0.1997738 0.61242974
000050 bd 34 fe bd 33 f2 6b 3f 7f e1 93 bf 79 0c fa be
       -0.12412403 0.9216644 -1.1553191 -0.4883764
000060 99 6a 9e be 99 e5 20 3f 4e c8 90 be b5 b9 18 be
       -0.30940703 0.6285034 -0.2827782 -0.14914592
000070 87 93 de bf bd 47 1e be 98 33 4b bf 2b 41 2e 3f
       -1.7388772 -0.15457053 -0.793756 0.6806819

running_var f4 [32]
000000 60 db 2a 3f 63 a3 91 3f 27 fa c0 3e dc a3 a5 3f
       0.6674099 1.1377987 0.3769085 1.2940631
000010 61 56 3c 3f f1 bc 39 3f 9c b9 18 3f a3 ae b2 3e
       0.73569304 0.72553927 0.5965822 0.34898862
000020 52 58 4f 3f a7 9f 42 3f 53 70 44 3f e0 4a 20 3f
       0.8099414 0.7602486 0.76733893 0.6261425
000030 95 83 44 3f 90 97 ba 3e ac 42 68 3f 6d 1a 62 3f
       0.7676328 0.36443758 0.90726733 0.8832157
000040 79 56 08 3f 5d 92 1f 3f 71 91 69 3e 64 3e 1d 3f
       0.53256947 0.6233271 0.22809388 0.61423326
000050 00 b3 9f 3f 29 07 8b 3f 95 ef 83 3f ac be fd 3f
       1.2476501 1.086156 1.030749 1.9823813
000060 f5 e6 8a 3f 12 77 df 3e a8 60 7f 3f 67 19 21 3f
       1.0851732 0.4364553 0.9975686 0.62929386
000070 3b 78 39 3f fe fe fa 3e db 6d 19 3f 6d 89 07 3f
       0.7244908 0.4902267 0.5993325 0.5294407

weight f4 [32, 22, 7]
000000 49 6d 15 3e 29 5a 97 3c 4e 21 80 3c 84 5b 35 bd
       0.1459247 0.018475609 0.01564088 -0.04427673
000010 4f 64 99 bd 2f b6 a9 bd 1a 40 ef bd b5 70 32 3c
       -0.074898355 -0.08286702 -0.11682148 0.010891129
000020 0a be dc 3c 0f 0a 01 3e 24 61 00 3c cc e1 84 be
       0.026946086 0.12601493 0.00783566 -0.2595352
000030 7a dc 7d be 6d 14 6e be 6b 55 0e 3d 1f f2 35 bc
       -0.24791136 -0.2324998 0.03474943 -0.011105089
000040 0b d2 13 bd cf 71 e4 bd 42 a2 af 3d b3 63 e6 3d
       -0.036088984 -0.1115452 0.0857587 0.11249485
000050 d4 fc 7c 3d 2e 58 f4 bd 8a d6 46 bd f1 03 ed bd
       0.061764553 -0.119308814 -0.048544444 -0.115730174
000060 bf d3 4e 3c e9 9d a0 bd 47 6b 92 bc 65 48 3c bc
       0.012623726 -0.07842619 -0.01787342 -0.01149187
000070 30 d3 1c bc 73 d6 bc bd 26 cf 3e 3e 49 73 1a be
       -0.009571835 -0.092205904 0.18633708 -0.1508304
000080 d7 48 58 bd 3e d8 00 be f2 f9 84 3c 85 53 26 bd
       -0.05280384 -0.1258249 0.016232464 -0.040606994
000090 24 9a 1c be 8e 51 94 bd 29 68 1b bd 2a 84 09 be
       -0.15293175 -0.07242118 -0.03794113 -0.13429323
0000a0 fd 1f 83 bd 94 14 36 3c a1 8e 9e bd 3c 15 c2 bc
       -0.06402586 0.011113305 -0.07742048 -0.023691766
0000b0 ab a4 07 3d 8e 9c ac 3d bf 52 0f 3e 91 04 a2 bd
       0.033116024 0.08428298 0.13996409 -0.07911027
0000c0 e4 e2 68 3d cf 58 e7 bd a3 1e 2d be 14 f3 30 3d
       0.056857005 -0.11296236 -0.16906218 0.043200567
0000d0 a9 3b d7 39 b2 f9 fc 3c 6b bf d1 bd 9b fe 05 be
       0.00041052446 0.030880783 -0.10241588 -0.13085406
0000e0 35 c0 13 3c 92 30 08 bd a6 43 14 3d 64 92 0c bd
       0.009017994 -0.033249445 0.036197327 -0.034319296
0000f0 b1 62 bb 3c 42 e0 5f bc 73 db 86 3c 4b 81 cd 3d
       0.022874208 -0.013664307 0.016462063 0.10034426
000100 ae 49 87 3d 77 11 df bd e9 e5 a8 bd a1 cc 17 be
       0.0660585 -0.10892003 -0.08246977 -0.14824153
000110 1e c9 5c bc 4c c5 fd bc 9a 81 3c 3d 85 68 43 bd
       -0.013475684 -0.030977868 0.046022035 -0.0477071
000120 2b 66 f6 3c be d4 80 3c b1 30 8f bd f2 27 d0 3d
       0.030078014 0.015726443 -0.06991709 0.10163869
000130 22 0c dc 3d 11 3e 4c bd 13 6d cc bd 51 f9 8e 3d
       0.10744502 -0.04986388 -0.09981742 0.06981147
000140 1c 49 80 3d b6 ac fb 3c 6a 58 45 3c d8 f6 c4 bc
       0.062639445 0.030722003 0.012045005 -0.024043486
000150 46 83 a2 bd 88 10 2b bd 1f c9 03 be d4 0f f4 bd
       -0.07935195 -0.041763812 -0.1286969 -0.119170815
000160 7e 01 1b be 30 79 0f be fa a6 46 b9 3c 68 a1 bc
       -0.15137288 -0.14011073 -0.00018944955 -0.019703023
000170 75 8d 8b 3d c2 6f bc 3c 63 36 0e 3e 41 79 f9 3c
       0.0681409 0.023002509 0.13887934 0.030453326
000180 08 ca 1c bd a1 3b 73 3d 8c e8 2d 3c e6 df 2f be
       -0.03827861 0.05938304 0.0106145255 -0.17175254
000190 30 db 9d be 37 db 30 3d 98 9b 08 3b f5 95 ca bd
       -0.3083129 0.04317781 0.0020844694 -0.09891883
0001a0 43 23 e0 bc f0 0e c8 3c 18 77 99 bd 43 2e d8 3d
       -0.027360564 0.024421185 -0.074934185 0.10555699
0001b0 8e e7 fe 3a 23 4d 8a bc ff d6 ec 3c e4 c1 80 3d
       0.0019447671 -0.016882485 0.028911112 0.06286982
0001c0 ca 9a 9b bd f2 7c ad 3d 3f ca 3d be a5 5d c6 3d
       -0.07597883 0.08471097 -0.18534182 0.0968583
0001d0 8d 36 88 3d a4 71 fc bd fc 38 93 3c ac f4 ea ba
       0.0665103 -0.12326363 0.017971508 -0.0017925701
0001e0 31 1b 0d 3d ff b2 29 bd d9 45 d3 bb 85 1f 26 be
       0.03444976 -0.04143047 -0.0064475355 -0.16222961
0001f0 1b 90 0a 3e c6 1b 98 bd e2 37 39 bd 1b c4 22 3d
       0.13531534 -0.07427172 -0.04521931 0.039737802
000200 e0 a5 0e be c2 4f 14 3e c1 0f 2c be 04 fa 5b bd
       -0.13930464 0.1448355 -0.16802885 -0.05370523
000210 8c d1 92 be 12 39 ff 3c 4c 32 15 be 86 bf 7e 3c
       -0.28675497 0.031155143 -0.14569968 0.015548592
000220 f4 66 5e 3d 7f 2f 02 be 66 56 7d bd 24 da 39 be
       0.054297403 -0.12713431 -0.061849974 -0.1814962
000230 85 f0 9e bd 88 98 e6 3b 7e 52 e6 3d e8 a6 f6 3c
       -0.07760719 0.007037226 0.11246203 0.030108884
000240 af 63 bd bc d9 f0 f2 bd c1 37 03 be 73 f6 71 bd
       -0.023118822 -0.11862344 -0.12814237 -0.059072923
000250 05 9b 05 bd 3b 85 ea ba d0 26 d1 3c bb 6e 0c 3d
       -0.03261854 -0.0017892489 0.025531203 0.03428529
000260 5d 5c 6d bd 3c f3 08 3c a1 91 b4 3c 5b 1e 2d bd
       -0.057949413 0.008358773 0.022042098 -0.042265277
000270 54 b4 77 3c 7a a1 a5 bd c8 a2 47 3d 7c 71 15 bd
       0.015118677 -0.0808744 0.048739225 -0.03648518
000280 4c 29 d4 bc 99 65 b7 3d 68 d0 76 bc b8 32 49 bd
       -0.025898598 0.08954925 -0.015064336 -0.049120635
000290 fd a7 12 3d ee 11 cf bd a0 4a 88 be 71 a2 b6 be
       0.035804737 -0.10110842 -0.26619434 -0.35670808
0002a0 cd ea 9b be c3 22 50 be 41 d8 9e 3c 4a de 31 be
       -0.30452576 -0.2032576 0.019390227 -0.17369953
0002b0 7f 6c 95 bc 9a dc 96 bd ed 8a bc bd 17 db bc bd
       -0.018240212 -0.07366295 -0.092061855 -0.092214756
0002c0 ef ce 35 3d d4 38 be bb ca 9d 89 bd 65 3d c4 bd
       0.0443868 -0.0058051143 -0.06719549 -0.095820226
0002d0 88 c8 b7 bd 50 89 9d bb 79 65 e8 bd b1 37 8b bd
       -0.08973795 -0.0048076287 -0.113474794 -0.06797732
0002e0 bc 8c fd bc cf d1 de 3d 6b 5d a9 3c 9c e9 42 be
       -0.030950896 0.108798616 0.020674428 -0.19034427
0002f0 97 af ec 3c 91 1a 3f 3b 22 ee c4 bc 0d 70 be be
       0.028892322 0.0029160122 -0.024039332 -0.37194863
000300 8a ac b0 bd 88 aa 3a be 68 4c 95 bd 0e 11 13 be
       -0.08626659 -0.18229115 -0.07289964 -0.14361975
000310 3c 98 be bd 68 a8 21 be 9d f5 c3 3c db 66 83 3d
       -0.0930638 -0.15786898 0.023920828 0.064161025
000320 bf b1 d5 3d 20 12 64 bd a9 19 11 3e 68 53 64 3c
       0.10434293 -0.055681348 0.14169945 0.013935901
000330 89 bd 12 bd f3 df 1a bd 4f 33 47 3d 12 e8 cf 3c
       -0.035825286 -0.03781123 0.048632916 0.025379214
000340 12 4b f7 3c d4 66 2c 3d 6d e7 b3 bd d7 1e 63 be
       0.030187164 0.042090252 -0.08784375 -0.22179733
000350 a1 65 c4 bd 5e b6 7f bd ad 0c 35 bd a2 d6 47 bd
       -0.09589697 -0.06242978 -0.04420154 -0.048788674
000360 fe 0f 1d 3d 06 0f 6a 3d fe 03 b9 b9 5d 1d ca b9
       0.03834533 0.057143234 -0.00035288924 -0.0003855032
000370 32 9f 10 be 8a 0e 18 bd 08 2c 2d be e5 e5 8a 3d
       -0.14123228 -0.03712324 -0.16911328 0.0678213
000380 2c 8d 40 3c 36 47 0f 3d ee 54 01 3d e6 f5 a9 3c
       0.011752408 0.03498002 0.031575136 0.020747136
000390 52 cb b3 bc 80 ea 39 bd ad 2d 1b 3b 2d 98 57 be
       -0.021947537 -0.045389652 0.0023678348 -0.21054144
0003a0 54 09 97 bd 34 54 37 3d 60 f6 82 be f8 60 8e bd
       -0.07374826 0.044758037 -0.25578594 -0.06952089
0003b0 1c 91 18 bc 5f 52 a8 bb c8 39 3f 3d a5 6c ca bd
       -0.0093119405 -0.0051367725 0.046685964 -0.098840035
0003c0 df 70 36 be a2 f7 0b bc 45 6c 5e 3c 44 8f 93 bd
       -0.17816494 -0.008542927 0.013575618 -0.0720506
0003d0 97 07 78 3d d8 80 17 bc e9 3f 8c bc cf c6 46 bc
       0.060554113 -0.009247027 -0.017120318 -0.012132361
0003e0 c4 3c 71 bc 6f bc b6 3d 2b 95 d7 3d e2 24 e3 3c
       -0.01472396 0.089226596 0.105264984 0.027727548
0003f0 97 43 59 be 4f f2 27 be 28 01 f5 3a f2 0f 5e be
       -0.2121719 -0.16401027 0.0018692361 -0.2168577

bias f4 [22]
000000 08 18 5a bc 1e 93 61 bd 56 44 93 3d 38 0f 39 bc
       -0.013311394 -0.055071943 0.071907684 -0.011295132
000010 ea ff 3a 3d aa f5 da bc 45 87 45 bb ef 17 a5 bb
       0.045654215 -0.02672847 -0.0030140441 -0.0050382535
000020 c8 51 58 3d d0 c1 73 bd b8 98 6d bc 92 ab 90 3d
       0.052812368 -0.059511006 -0.014501743 0.070639744
000030 58 0f 4f 3d ff bc 37 bc b4 75 91 bd 5e 80 19 3d
       0.050551742 -0.011214494 -0.07102528 0.037475936
000040 53 c6 70 3d 2c 75 83 bd 8d 82 8f 3d b1 6c 7e 3d
       0.058782887 -0.06418833 0.070073225 0.062115375
000050 58 0f 9f bd 7c 81 40 3d
       -0.077665985 0.046998486

weight f4 [22]
000000 a2 ad 95 3f a2 89 79 3f a4 bb 87 3f 46 a0 84 3f
       1.1693614 0.97475636 1.0604138 1.0361412
000010 34 d3 6b 3f db 26 9a 3f 20 2e 81 3f a1 f3 4e 3f
       0.92119145 1.2043108 1.0092201 0.808405
000020 15 df 8f 3f 23 03 72 3f bc 2e 55 3f fc 1c 87 3f
       1.1239954 0.94536036 0.83274436 1.055572
000030 18 ed 6d 3f 55 50 69 3f b3 19 97 3f 71 3f 88 3f
       0.929399 0.911382 1.1804718 1.0644361
000040 03 78 7f 3f 29 0b 82 3f 6d cc 5c 3f 05 53 67 3f
       0.997925 1.0159656 0.8624943 0.9036105
000050 b3 7e 5e 3f 5b 8f 56 3f
       0.8691208 0.83812493

bias f4 [22]
000000 f3 61 d5 3c 3e b2 c2 bd c3 de 56 3d 99 d3 92 be
       0.026047682 -0.09506653 0.052458536 -0.2867706
000010 fd cd 72 be f3 09 10 3e a1 95 0d 3d af 3c 89 be
       -0.23711391 0.14066295 0.034566525 -0.2680411
000020 2e c0 24 3d c7 a6 b4 bd 69 f8 c5 be 62 c5 9c 3d
       0.04022234 -0.08820873 -0.38666084 0.07654835
000030 ee a9 b7 bd 2b 14 96 be 7b 01 fc 3b 1f a6 9d bd
       -0.089679584 -0.29312262 0.007690606 -0.07697701
000040 fa 15 05 bd 0e 0f 31 bd 62 1d 7b 3c da a6 0a be
       -0.03249166 -0.043227248 0.01532683 -0.13540211
000050 70 e1 96 be 1d a1 12 be
       -0.2946887 -0.14319272
