model/retrain.pt (torch, 118562 bytes, 56 tensors)

weight f4 [8, 3, 1]
00000000: 7769 163e 79d0 8e3e f64c 41be d133 de3c
00000010: 1f2c 19bf 8519 c23d fd3d a73d b16c d23d
00000020: 1a0c 8a3e e1b5 b8bc d7d5 57be 4321 1bbf
00000030: 3b84 22bf b025 453c b6e0 c23b 9a66 16bf
00000040: 07f4 823e 0815 bcbe d799 5f3f e986 bcbc
00000050: 52a4 9dbc 88af c7be 5c97 583d e44f e23e
0.14688669 0.27893427 -0.18877015 0.027124317 -0.5983295 0.09477524 0.0816612 0.102746375
0.26962358 -0.022547664 -0.21077667 -0.6059763 -0.6348302 0.012032911 0.005947198 -0.5875031
0.25576803 -0.36734796 0.87344116 -0.023013549 -0.019243393 -0.39001107 0.052878723 0.44201577

bias f4 [8]
00000000: eac8 afbc e1b4 2ebf 5647 903e dcc6 4bbe
00000010: e7a8 713e e60b 8f3d 8c9a 17bf bbdb 643d
-0.021458108 -0.6824475 0.28179425 -0.19900078 0.23599587 0.06984691 -0.59220195 0.055873614

weight f4 [8]
00000000: 5bcc 023f ebce 633f 6129 863f 5526 8d3f
00000010: a9cc 973f 8998 163f 00e2 af3f 87ae 4e3f
0.5109307 0.88987607 1.0481378 1.1027323 1.1859332 0.588265 1.3740845 0.8073506

bias f4 [8]
00000000: f7a6 5a3f 97fc 013b a1b6 483f a9db 9d3f
00000010: 9174 953b 5923 823f 9012 953e 0fe3 a23f
0.8541102 0.0019834393 0.7840367 1.233266 0.004561015 1.0167037 0.29115725 1.2725543

running_mean f4 [8]
00000000: 9d9e a2bc 898a 2fbf ff3b 903e 7a3b 4cbe
00000010: 88a2 6f3e 78a5 8f3d 2152 17bf 7c0c 633d
-0.019851023 -0.6857076 0.28170773 -0.19944564 0.23401845 0.070139825 -0.59109694 0.055431828

running_var f4 [8]
00000000: 10f6 403e 1c95 0a3f 7fbb 063e f74b 1d3f
00000010: f5df d33e 10df 223f f82b 493f ebde e63e
0.18843865 0.5413377 0.13157462 0.6144404 0.41381803 0.63621616 0.78582716 0.45091948

weight f4 [11, 8, 7]
00000000: dd41 233e 5910 363e 6c40 de3d 90db a9bc
00000010: 4f6f 6ebd e1a3 01be ff81 89be 7eb2 05be
00000020: c26f c0bd a5d3 9abd 1dc9 c4b9 cd3d b13d
00000030: 4640 d43d 777c 733d 6ade 9fbe e7b9 3abe
00000040: 62f2 91bd 81bc 043e 5554 903d 835b 803e
00000050: 9f1b 093e f119 143e 0fcf d63d 49a9 303e
00000060: 6e6f ddbc 31c7 02bd 56a4 ccbd 6115 85be
00000070: a131 adba 9e02 51bc 0b21 fc3d a560 3bbd
00000080: 4582 48bd d26c d03c 2843 3dbc 7851 573e
00000090: 9b47 bd3c 4789 2a3d f37f c1bd d7b2 203b
000000a0: 5bdf f3bd 3881 fabd d5b1 23bd 5520 c3bc
000000b0: 0068 1e3c 3f2c bebc 35ec 38bc f84b 9f3d
000000c0: d3b3 f1bc f0d8 91be 4171 66bd 10ff 06be
000000d0: 8303 c0bd 74e5 2c3e 6814 d13d 603c 753e
000000e0: b39b 5ebd e812 de3c a86d b73c 3a05 5abe
000000f0: c3f9 503c a5f6 293d 5aac a03d d253 ae3b
00000100: c151 953d 3535 a33b 0a64 51be adc2 ee3c
00000110: 5e2b 9c3d 0f34 b43d f1c3 0bbc b76a 663d
00000120: 8b5f e93b cc98 11be 3313 cb3d 3d9c a93d
00000130: 2c6b 193e a004 25bc 3212 c63b bb8b 503c
00000140: e928 37be a3e4 1d3e 74bb 1f3e b5eb 9e3e
00000150: 8fdd 45bc 171b dc3c fb4c 73bc c13b 4fbd
00000160: 403a 523e 8011 5fbb 58d2 453e 7532 d43c
00000170: ec02 953d 065d b5bc 2cc2 a0bd efb2 ea3d
00000180: 3ab0 1d3e 85aa 233e 4b52 b3bc 697e 9c3b
00000190: 40a8 5cbc bdd0 5fbd bb63 5c3e e3ff c33d
000001a0: 1c44 923e c9d4 d33d 9938 4abd de00 e93d
000001b0: bd81 11be 1c88 2e3e 216c 2c3e 7229 9f3e
000001c0: 0d20 37bd 311e 82bd 33aa a73d 7bcf 7f3e
000001d0: 6ba1 9dbd 56b5 4ebd b602 fcbd 47d4 5cbd
000001e0: 9d3f c0bc 6f7b ee3d 7bd5 453e 2b0f e7bc
000001f0: d247 7ebd 2ea9 22be b426 a9bd 0393 e83a
00000200: 892c a93d 2877 103e 5c90 d63c 00a1 bebd
00000210: 7fb8 e5bd 8908 b8bb febb 873b 44f7 3a3d
00000220: fc2c 0c3e 7a62 16bc 8fbd 6fbd fde4 ccbd
00000230: 2170 d1bd b577 a4bd 5151 bb3c 9977 a33e
00000240: 9b7f b33d bce3 a5bd 12e5 6dbe f8b7 23bc
00000250: 266a 8e3d ee07 333d 0cd6 f83c e3e7 64bb
00000260: e784 ea3b 9c80 a6bd 8be7 94be 06f9 473b
00000270: 4179 843e 50b4 9f3e a960 e13d b7c0 a5bd
00000280: a20a 8dbe 2745 d03d 9a66 d1bc b3d2 8a3d
00000290: 9e3b 513d 8e38 883a 90e8 25bd c864 b9bd
000002a0: 7404 6abc 79be a4bc 69fd 94bc 75a9 a23e
000002b0: 0697 983e 32c3 0abe 4cb1 87bd 7e1d cbbc
000002c0: 04a9 9bbc 639b d1bc 5348 aa3e 498f a33e
000002d0: 4ea1 06be 934c 63bd 56b2 abbc 0157 e1ba
000002e0: d7f2 e3bc 6ac3 273e 17a1 283e 2605 7cbd
000002f0: 08dc ec3b cfbd 123b 8751 c13b f864 8cbc
00000300: 87f8 813e a4f1 843e d666 b0bd 1600 233c
00000310: 70c6 06ba 5693 6f3c 1d35 8fbc 5d0b 3f3c
00000320: 9f42 d03c dcf1 ccbb e239 3d3d db06 103c
00000330: 6d15 28bc 2bbc bd3b c991 3b3e fb44 593e
00000340: 01bd 3cbd 87e9 3bbc 990f 0a3c 0033 d73a
00000350: aeec 4f3b 5682 c73d f298 0d3e 930f 00bd
00000360: 35f0 293d 1741 49ba c6d8 90bb 2fc7 613b
00000370: 731f 2f3e 3e03 5c3e 661c 4cbd f7aa 053d
00000380: 2100 4abd e841 b13c 1106 263d 732e b83d
00000390: 42b2 fe3d a6ec ab3d 228b 363e 0638 cabc
000003a0: 3ea1 2a3c 39b2 5dbd f9c4 d53c 2e91 833d
000003b0: c164 833d 2032 8b3e 8ea3 e03d b0c0 45bc
000003c0: f7c8 a23d a149 3bb9 d81e 933c bc48 6b3d
000003d0: ca18 ab3d cb0a 873b eb71 11bc 1a93 cf3c
000003e0: d579 823c f40f 3abd 9f50 a53d cb5d da3c
000003f0: bb11 9dbe 5ceb 03bd 62f4 98be 39bd 32bf
0.15943094 0.17779674 0.10852131 -0.020734578 -0.05821162 -0.12660171 -0.26856992 -0.1305637
-0.09396316 -0.07559899 -0.00037533874 0.08654366 0.10363822 0.05944487 -0.31224376 -0.18234979
-0.07126309 0.12962534 0.07047335 0.25069818 0.13389443 0.14463021 0.10488712 0.17252077
-0.027030673 -0.031928245 -0.09992282 -0.25992873 -0.0013213643 -0.012756972 0.1231099 -0.045746464
-0.04895236 0.025442515 -0.011551656 0.21027172 0.023105433 0.041634824 -0.094482325 0.002452066
-0.11907836 -0.12231678 -0.039964516 -0.023819128 0.00966835 -0.023214458 -0.011286785 0.07778162
-0.029504692 -0.28485823 -0.05626035 -0.13183236 -0.0937567 0.16884404 0.1020897 0.23948812
-0.054347705 0.027108625 0.022391155 -0.21291056 0.01275486 0.041494984 0.078453735 0.0053200508
0.07290984 0.004980708 -0.20448318 0.029145563 0.07625459 0.08798992 -0.008530603 0.056254115
0.0071219853 -0.14218444 0.09915771 0.08281753 0.14982289 -0.0100719035 0.0060446495 0.012728627
-0.178867 0.15419249 0.15598851 0.31039205 -0.0120767495 0.026868386 -0.014849897 -0.050594095
0.20530033 -0.003403753 0.19318521 0.025902966 0.07275948 -0.022139084 -0.07849535 0.1145991
0.15399256 0.15983017 -0.021889826 0.0047758115 -0.013467848 -0.054642428 0.21522419 0.09570291
0.28567588 0.1034332 -0.049370382 0.113771185 -0.14209647 0.17044109 0.16838123 0.31086308
-0.0447083 -0.06353415 0.0818676 0.24981491 -0.07696804 -0.050465904 -0.123052046 -0.05391338
-0.023467833 0.11644637 0.19319718 -0.028205475 -0.062080212 -0.1588485 -0.08259335 0.0017744008
0.082604475 0.14107955 0.026191883 -0.09308052 -0.112168305 -0.005616252 0.0041422835 0.045645967
0.13689035 -0.009178752 -0.058530387 -0.100046135 -0.10226465 -0.08030645 0.022865923 0.31927183
0.08764573 -0.081000775 -0.23231915 -0.009992592 0.0695384 0.043708734 0.030375503 -0.0034928254
0.0071569565 -0.08129999 -0.29082903 0.003051342 0.2587376 0.31192255 0.110047646 -0.08093398
-0.27547175 0.1016944 -0.02556162 0.06778469 0.051082246 0.0010392831 -0.040504992 -0.090524256
-0.014283288 -0.020110356 -0.018187242 0.3176991 0.29802722 -0.13551024 -0.066256136 -0.024794336
-0.019001491 -0.02558679 0.33258304 0.31945255 -0.1314747 -0.05549295 -0.02095906 -0.0017192067
-0.027825756 0.16383138 0.16467701 -0.061528347 0.007228378 0.0022390967 0.0058996114 -0.01713799
0.25384924 0.25965607 -0.086133644 0.009948751 -0.0005141264 0.01462253 -0.017481381 0.011660424
0.025422392 -0.006254418 0.04619778 0.008790697 -0.010259015 0.0057902536 0.18317331 0.2121772
-0.046078686 -0.0114692515 0.00842657 0.0016418397 0.0031726765 0.097416565 0.13827875 -0.031264853
0.041488845 -0.00076772406 -0.0044203727 0.0034450998 0.1710184 0.21485612 -0.04983177 0.032633748
-0.04931653 0.021637872 0.04053313 0.089932345 0.12436344 0.083947465 0.17826512 -0.024684917
0.01041442 -0.054125044 0.0260949 0.06424175 0.06415702 0.2718668 0.109686956 -0.012069866
0.07948487 -0.00017861139 0.017959043 0.05744241 0.083543375 0.0041211597 -0.008877258 0.025338698
0.015927235 -0.04542537 0.08072018 0.026656052 -0.3067759 -0.032206878 -0.2987395 -0.6981998

bias f4 [11]
00000000: b676 a8bd 3feb 2dbd d590 f9bd cf4a 0e3d
00000010: cf12 9f3d 2c3f efbd 6f1c 33bc fef1 0abc
00000020: 2da2 ea3d 2d7d d4bc c0da fb3d
-0.08225767 -0.042460676 -0.12185828 0.03473931 0.07767259 -0.11681971 -0.010932072 -0.008480547
0.11456714 -0.025938595 0.122975826

weight f4 [11]
00000000: 3d9a 833f a2f4 173f 9448 543f 7626 023f
00000010: 0574 623f 3fbf 2a3f 5887 ee3e d69a 4a3f
00000020: f40e 583f 8b18 b33f 04cc 7b3f
1.0281445 0.59357655 0.82923245 0.50839937 0.8845828 0.6669807 0.46587634 0.7914251
0.84397817 1.3991865 0.9835818

bias f4 [11]
00000000: 1f7c 7dbc 7daf 823e f240 f7bc c551 f43e
00000010: a3f8 483d 1077 533f 92cc 363f 9ebb c13e
00000020: f24a ed3e ba80 b0bc 4b32 c03e
-0.015471487 0.25524512 -0.030182336 0.47718635 0.049065243 0.8260355 0.714059 0.37838453
0.4634624 -0.021545757 0.3753837

running_mean f4 [11]
00000000: c620 82be 0bc3 1e40 67a4 61bc 0a92 0f40
00000010: fa4b 89bf c43f 0c40 bba6 da3f 3cd8 0540
00000020: b6b2 67c0 c1ad 18be abb8 98c0
-0.2541563 2.4806545 -0.013772107 2.2432885 -1.0726311 2.191392 1.7082132 2.091323
-3.6202826 -0.14910032 -4.7725425

running_var f4 [11]
00000000: 76c7 b63f 9d13 e73e 8c49 4c3e 23be 883e
00000010: f1e4 8740 b292 bc3e 09d2 633e 5362 c43e
00000020: 6280 2440 e3ed bf3f 169a 7f3f
1.4279621 0.4513215 0.19949931 0.26707563 4.246697 0.3683067 0.22248091 0.38356265
2.5703359 1.4994472 0.9984449

weight f4 [16, 11, 7]
00000000: 046c 353d 7a83 873c ddff 1c3d 7d8b 2b3e
00000010: c3b2 5b3e acd4 7c3e bbd3 a13e 51d4 6fbd
00000020: f2bb 75bd 0e8c 26be aaf0 f2bd 18b5 e6bc
00000030: 5e04 443d b9c7 b23d a807 643d 84b1 713d
00000040: e842 493d c9eb 243d 996c 253d 9c1e 5e3d
00000050: 874c 8f3d d6e6 0abd e0f6 67bc b35c bb3d
00000060: d8e9 f73d c027 093e 17bb 913a 71a8 4ebd
00000070: 3e44 bf3d 6419 e03d 6587 5a3d 360d b63d
00000080: 436b 95bc 99a9 53bc 3a97 093c 5dc5 91bd
00000090: 8c28 ca3c c2f5 8a3d 7e80 363e ab46 0e3e
000000a0: 5894 be3a be45 08be cfb0 153b c03e c73d
000000b0: c6ce f23d 7a9e 1d3e 19f7 293e beb3 a4bb
000000c0: d303 cfbd f6cb fdbc 8ef0 7f3c 1f4d c9bc
000000d0: 646c 413e 052d 4f3e f2f7 6d3e 46da 803e
000000e0: 8fc5 603e 642e 603d 3cb7 5c3e 5fe7 123e
000000f0: e3bb 83bc bf6a 1f3e 9ef8 1abc d797 4f3d
00000100: f018 d13d 81f1 b03d 1169 b03d eb67 b13d
00000110: 62dd b13d 7097 5d3d 2877 3abc 56b2 123e
00000120: d3a9 813e 3e81 223d 5dd2 5dbc 459d 633e
00000130: 1199 dfbd bb0c d9bc abb0 afbd b27e a6bd
00000140: 9421 f0bd b837 d23b 0d9c b7bc aca9 d7bc
00000150: c4c7 343e cf67 2e3e bf71 693e 5bb8 ad3d
00000160: 5f21 063e bc3b 553e 2f22 873e b1a4 be3c
00000170: 5d52 863d 5af4 183d daca ae3d d800 a73d
00000180: 6db6 3f3d a2fa 0d3d ffee f13d c880 c73d
00000190: e950 3e3d 3a19 183d 4532 8bbb 5fca d33d
000001a0: c66b 833d 2a8f 833e dbff 903e 1a08 a23e
000001b0: 20f8 a13e 2deb 9d3e 714b 953e 313b d63e
000001c0: 547f c73d cb60 88bb 390e edbb cbb8 c23d
000001d0: 8a95 c23d a074 283d e186 013c e515 21bd
000001e0: e7e4 673b a479 eebc 9389 8fbd 3d59 e93c
000001f0: 2d06 d33b ccba c5bd 9928 2e3d ebe6 0a3d
00000200: fb45 323e 9f77 903d e958 df3c f5ea 0ebd
00000210: 33f9 47bd 86ec 20be 1e1b f8bd 6e2b 5cbd
00000220: 735d 1c3e 6b4c b13d 27cd 083e 1b59 6bbd
00000230: 8187 a1bd 4111 7fbd bc87 853c 7548 0bbb
00000240: 5daf 50bb e07f 17bc 4719 093c 93e0 cb3d
00000250: b56e 5d3e 2462 2a3e 6ff3 e13d ebec 5e3d
00000260: 53b8 af3d bc6f 153e dc3d 563d 6431 ae3d
00000270: 1b33 cd3d 0b85 bd3d fc3c ab3d d210 7a3d
00000280: 2ce8 6c3d ce25 a73d 6f2e 353e 184b 3b3e
00000290: 48b3 ce3d 391f 623c e6a3 debd 42bf b5bd
000002a0: 2617 d13d 2816 323e 7621 823e fab2 963e
000002b0: bb27 5b3e 7b5c 0e3e 1006 3b3d 0440 89bd
000002c0: c554 2fbc 061d ae3a 585e f6bb ff81 02bc
000002d0: 7cfa a1bd 25b9 9abc c56f d63b 09e2 d2bd
000002e0: 3409 2fbe 5e4a 8fbe e0c1 7dbe c0c6 3abe
000002f0: f6fa 81be 4693 a0bd e89a 9c3a 5de9 8a3b
00000300: 1203 89bb 409e ea3d 2606 9e3c 7d7d 3d3d
00000310: 453f 8bbd c86a 4f3a fcc9 413d 2af0 4b3c
00000320: ac4e a23b 0a98 b3bc bf00 d9bc cf8a b8bc
00000330: f99b efbd 8924 e6bd 2088 14be b634 8ebd
00000340: 4ab8 433c 813c bc3b 93c2 f6bd 5390 15be
00000350: 46d4 06be da58 14be 231a e73c dfeb 1a3d
00000360: 22d8 003e 2ede 3c3e 6ae5 673e 2d7f 8c3e
00000370: 645b 8e3e f16a 033e 3593 2c3d cf5a 36bc
00000380: 8ab2 963d cd9c 2a3e ee8a 423d 5ea2 dc3d
00000390: d611 91ba fc81 da3d b2f7 cf3b 967d b1bd
000003a0: 368b 31be 855e 9ebe 0055 9ebe 14b9 50be
000003b0: 7b8f d2bd ee49 273b ae48 b5bd bc8d bbbd
000003c0: 276f 34bd bdaf da3c fdd5 de3d a76e 093e
000003d0: 0278 b53d fed4 32be 6d03 a4be 8e00 bfbe
000003e0: c465 cebe eab3 85be 5976 bd3c 3191 843d
000003f0: d979 0c3d da61 d13c f845 9b3d 7b19 0ebd
0.044292465 0.016542185 0.038329948 0.1675243 0.21454911 0.24690503 0.3160685 -0.05855209
-0.05999369 -0.16264364 -0.11862309 -0.028162524 0.047855727 0.087295 0.055671364 0.059007183
0.049136072 0.040263925 0.04038677 0.05422841 0.06997018 -0.03391155 -0.014157981 0.0914854
0.12105149 0.1339407 0.0011118379 -0.050453607 0.09339188 0.10942343 0.05335178 0.088892385
-0.018239623 -0.012918853 0.008397872 -0.07117722 0.024677537 0.06785156 0.17822453 0.13894145
0.001454006 -0.13307855 0.0022840982 0.097287655 0.11855845 0.15392485 0.16598167 -0.0050263098
-0.10108151 -0.030981045 0.015621318 -0.024572907 0.18889004 0.20232017 0.23239115 0.2516653
0.21950363 0.05473174 0.21554273 0.14346074 -0.016080802 0.15568064 -0.009458689 0.050681915
0.102098346 0.08639813 0.0861379 0.08662399 0.086848035 0.0540995 -0.011380948 0.14325842
0.25324878 0.039674036 -0.013538924 0.22227962 -0.10917867 -0.026495328 -0.085786186 -0.08129634
-0.117251545 0.0064153336 -0.022413278 -0.026326023 0.1765433 0.17031787 0.22797297 0.08482429
0.13098668 0.20823568 0.26393268 0.02327189 0.06558678 0.037342407 0.085347846 0.08154458
0.046804834 0.03466285 0.11813163 0.0974136 0.04646388 0.037133433 -0.004247936 0.103413336
0.064170405 0.25695163 0.28320202 0.31646806 0.31634617 0.30843487 0.2915912 0.41842034
0.09741083 -0.0041619292 -0.0072343615 0.09507903 0.095011786 0.041126847 0.007905693 -0.03932752
0.003538424 -0.029110737 -0.07008662 0.028484935 0.006439945 -0.09654769 0.042519186 0.033911627
0.17409508 0.07054066 0.027264075 -0.03489204 -0.04882164 -0.15715227 -0.12114547 -0.053752355
0.15270023 0.08657154 0.1335951 -0.057458024 -0.078871734 -0.062272314 0.016300075 -0.0021252905
-0.0031842806 -0.009246796 0.008367843 0.099549435 0.21624263 0.16639 0.110327594 0.05442516
0.08580079 0.14593405 0.052305087 0.08505514 0.10019513 0.092538916 0.08361241 0.061051197
0.057838604 0.081615075 0.17693494 0.18290365 0.10092789 0.013801389 -0.10871105 -0.0887437
0.10209493 0.17391264 0.25416154 0.29433423 0.21401875 0.13902466 0.04566008 -0.06701663
-0.010701363 0.0013283796 -0.007518571 -0.007965564 -0.07909104 -0.018887112 0.0065440857 -0.10297019
-0.17093354 -0.27986425 -0.24780989 -0.1823988 -0.2538678 -0.0784059 0.0011948021 0.004239245
-0.004181274 0.11455965 0.019290041 0.046262253 -0.06799177 0.0007912335 0.047311768 0.012447396
0.004953226 -0.021923084 -0.026489614 -0.022527127 -0.11699671 -0.11237437 -0.14505053 -0.069436476
0.011945793 0.0057445173 -0.12048831 -0.14605837 -0.13166913 -0.14487019 0.028210705 0.0378226
0.12582448 0.1844413 0.22646108 0.27440777 0.278041 0.12833764 0.042132575 -0.011130049
0.073582724 0.16661377 0.047495775 0.107731566 -0.0011067938 0.10669324 0.0063466663 -0.08666532
-0.17338261 -0.30931488 -0.30924225 -0.20383102 -0.10281273 0.0025526243 -0.08851753 -0.09157893
-0.044051316 0.026695127 0.10880659 0.13421117 0.0886078 -0.17464063 -0.32033864 -0.3730511
-0.40312016 -0.26113826 0.023127722 0.064730056 0.03429589 0.025559355 0.07581705 -0.03469227

bias f4 [16]
00000000: a7ad 81bb 4b88 23bb 3530 64bd 0aa5 323d
00000010: 30c4 47bb 8ca3 d83d 03d2 a0bd b90c ecbd
00000020: fc36 193c dcc0 a4b9 9909 46bd a255 a3bd
00000030: 413e d0bd 8669 f33c 8ef3 c73c 9e67 0cbd
-0.0039574686 -0.0024953063 -0.055710036 0.043614425 -0.0030481927 0.10578069 -0.078525566 -0.11525864
0.009351488 -0.0003142421 -0.048348997 -0.079753175 -0.10168124 0.029713403 0.024408128 -0.034278505

weight f4 [16]
00000000: a7e8 253f d540 e23e e1e4 223f 87fd 983f
00000010: fc8a 9c3f 27ed 243f 110c 883f 40d8 413f
00000020: 18dd 193f f1a9 1f3f bd64 d03e e5d7 6d3f
00000030: ab38 173f 8148 253f 44e2 033f 14dd 213f
0.64808124 0.44190088 0.6363049 1.195237 1.2229915 0.64424366 1.0628682 0.75720596
0.6010299 0.62368685 0.40701857 0.92907554 0.59070843 0.6456376 0.5151713 0.63227963

bias f4 [16]
00000000: ebae 94bc c15c a8be d3f2 6bbd 21bf 03bf
00000010: a2ef 1c3e ba5f 1c3e 1047 45bf 1404 2a3f
00000020: 86bf 61bd 2bf1 4abd c379 87bd d1a1 b03e
00000030: ae07 babe 6466 7bbe bc2e 1f3d b22a 09bb
-0.018149814 -0.32883266 -0.057604622 -0.51463515 0.15325788 0.15270892 -0.7706156 0.6641247
-0.05511429 -0.049546402 -0.06615021 0.34498456 -0.36333984 -0.24550778 0.03886293 -0.002092999

running_mean f4 [16]
00000000: 47cb 1340 b297 fb3f 1d3d 903e 904c f6be
00000010: d768 b8bf 4460 bbbf 7190 bfbf 52f7 3c3f
00000020: 6525 1abe a394 263d 0dde cabd 84e5 b9bf
00000030: 7efd eb3f ba18 ae3f 11ef 7c3e aa68 cc3d
2.309282 1.9655669 0.28171626 -0.48105288 -1.4406995 -1.4638753 -1.4965955 0.7381488
-0.15053327 0.040669095 -0.09905634 -1.4523168 1.8436735 1.3601296 0.24700572 0.099809006

running_var f4 [16]
00000000: 1ec0 963f 2e02 573f 3d7d 653f d277 1540
00000010: 15eb f83f 8a34 743f b6fa 1140 1cd6 4c40
00000020: 6177 de3e 2a95 b63e bf37 c53f 0685 a13f
00000030: f403 b23e 10ba 953e 79c6 913e f0c3 eb3e
1.177738 0.839877 0.89644223 2.3354383 1.9446741 0.9539267 2.2809272 3.2005682
0.43450454 0.35660678 1.5407637 1.261872 0.3476864 0.29243517 0.28471735 0.46047926

weight f4 [22, 16, 7]
00000000: 36ec 04bc 1816 c4ba 7900 24bc 30ca 37bd
00000010: 819c d7bd a3a1 96bb ccc7 053d 9424 0c3e
00000020: 7174 60bd 509c a2bd 7ed0 58bd 3392 433d
00000030: c842 99bd 5e77 91bc b945 68bd fd88 16bd
00000040: d0d8 d3bc 1090 8cbd b3e2 14bd fdc1 3a3d
00000050: 8732 e23b 63df 2ebe b67b d6bd ab4d 85bd
00000060: da67 d43c 9781 b73e 9bba 8a3e 2286 8abc
00000070: 2415 cfbd feda 36bd 46fb eebc 3345 2f3e
00000080: 4354 573e 6ecd 61bd 308f 4dbe eb66 eb3d
00000090: 95a0 9b3c 5a37 923c ded0 2bbb d951 18be
000000a0: 6484 853c dbff fa3d 947e bbbe c256 a6be
000000b0: abb7 35be d31d 4b3e 8b60 213f 224d cc3e
000000c0: e14a 643e 82b7 823d 40e0 273c 008a 82bc
000000d0: fe10 a3bd a20a d8ba 7f35 8c3c 4f1d 493a
000000e0: adcb d6bc b683 8dbc 89d9 a43c 675b 9bbc
000000f0: 5abd a33b 4d06 a93c 9e89 9cbc f66f 9e3b
00000100: 1e1e 83bc 9386 3ebd 8a50 a6bd 0699 56be
00000110: 7f1d a53c e890 b73c 4eb5 3cbe ff54 ffbd
00000120: 8dfc dabc 4e33 73bc fa40 ff3c b117 013d
00000130: ab53 883d ced9 e6bd 4363 dabc 227b d5bc
00000140: 7755 313e 9823 6e3e 8be7 a4bc 77de f3bd
00000150: 0290 90bd 4ee0 96bc b497 8cba 6690 31bd
00000160: f7c7 183e d7de 3e3b 85be 70bd 4ba3 a2bc
00000170: 0b02 89bb 41be 3a3d c516 443e ce51 2a3e
00000180: 261d b43b 4774 88bd ef7b 743c 788a 1bbc
00000190: 972c 3fbd 287a 28bd c80c 92bd 424d 543d
000001a0: 5aaf fa3c af05 8abb 5687 49bd efec b1bd
000001b0: 100f f8bd 8690 25bd 4309 993d 9273 223d
000001c0: 773d bd3c 454f 373d 086b 843d 3b36 3abd
000001d0: 63b7 70bc 60cc 663d b227 a1bb 25c9 febb
000001e0: 3151 74bd e6b5 82bd 9e11 10bd 3f4c 37bd
000001f0: 2e83 b6bd d232 83bd a0ea a03d 01d1 d3bc
00000200: 855f 09bc ebe2 d0bd da96 2ebd 32e8 c9bd
00000210: 46b0 bebd 5c7d a4bd 551d 0dbe f735 98be
00000220: f635 d5bd a59a 2ebd 614b 603b 3910 983c
00000230: e230 3dbe 80c9 0cbe f58b 67be 33df 78be
00000240: ee4f 01bd a0a4 003e d9a4 2f3e a016 ad3d
00000250: 99f2 493d 24c1 c33d 678a f8bd 7756 37be
00000260: dcef 36be b1c9 34be 7819 65be 041f 81be
00000270: 01a0 03be e3eb 933d b07a 833d 669a 4f3e
00000280: d315 a73e 24d1 3e3d 701c 1b3e 75b3 b73e
00000290: fb70 b83d c48d c0bd 86fc 05bd 0e9b 8e3b
000002a0: a7fc f63d 7818 783e 3b83 253e 879d 813d
000002b0: c715 143e 9faa 0f3e 0a8b 683d ebd3 033e
000002c0: fea3 423e 4386 793e 1fa6 c63d 6912 ed3d
000002d0: 4bdd 773d 8ffc f03d 55fe ee3c 7892 2dbd
000002e0: d413 edbb 7e9d afbc e6de 59bd faf4 42bd
000002f0: 3b23 58bd f19d 65bc fb84 dcbd 1b1d 23be
00000300: b2ae c0bc 4fd8 2d3d 270c 1c3e c384 2a3e
00000310: 5cb9 83bc 1f79 a53a 9bc3 a8bd d8a2 10bd
00000320: 86ef e8bc e447 be3d 8e18 86bc 25b3 26bc
00000330: 37c2 c33c a17e 42bd 7e78 383d 2a05 c53d
00000340: 2f8a 713d c781 0d3e 8365 233e e1c3 373e
00000350: 172d 773e 10c9 dc3d 2485 893d 2c27 a23d
00000360: 6168 ca3d 6c3c 223e ff9f 503e 71d8 3e3e
00000370: 3709 fa3d 1e02 ac3d 6aa2 c23d d6ed c53d
00000380: 017f f83c dcb8 0c3e cb91 ad3d abed c23d
00000390: 4971 d63d c015 42bd 7367 95bc 1e47 72bd
000003a0: 00fb 22bd 3f29 3abe 107e eebc 41df 033c
000003b0: c604 d9bb 88fa a73d 952e 2bbe f4a5 3ebe
000003c0: 9f00 3bbe 21cd aabd 0317 323c 97b9 7cbb
000003d0: ce46 183c af0d 0ebe d86d c0bd 9148 843c
000003e0: 7bde d63d f883 793d f694 69bd 0766 063e
000003f0: 0921 9b3c 5613 203e ce3e 003e 5430 ee3d
-0.008112958 -0.0014960198 -0.010009878 -0.044870555 -0.105278976 -0.0045969053 0.032661244 0.13685828
-0.054798547 -0.079399705 -0.05293321 0.04774685 -0.07483441 -0.017757114 -0.056707118 -0.036751736
-0.02586022 -0.06863415 -0.03634901 0.045595158 0.006902996 -0.17077403 -0.10472815 -0.065089546
0.025928427 0.35841057 0.27095494 -0.016909663 -0.10111454 -0.04464244 -0.02917255 0.17116241
0.21028237 -0.055127554 -0.20074153 0.114942394 0.01899747 0.01784866 -0.0026217024 -0.14874972
0.01629848 0.12255832 -0.3662001 -0.32488066 -0.17745845 0.19835596 0.6303794 0.39902598
0.22294189 0.063826576 0.010246336 -0.015934944 -0.079622254 -0.0016482661 0.017115353 0.0007671909
-0.026220167 -0.017274719 0.02012326 -0.018964482 0.0049969377 0.020632887 -0.01910859 0.004835124
-0.016005572 -0.04651506 -0.0812083 -0.20956811 0.020155666 0.022407964 -0.18428537 -0.124673836
-0.026731754 -0.014843775 0.031158913 0.031516735 0.066565834 -0.11272012 -0.02665866 -0.02605969
0.17317759 0.23255765 -0.02012994 -0.11907666 -0.07058717 -0.018417504 -0.0010726363 -0.0433506
0.1492003 0.0029124522 -0.058775444 -0.019853255 -0.0041811517 0.045591597 0.19149311 0.16632769
0.005496639 -0.06662803 0.014922126 -0.009493463 -0.046673384 -0.041132122 -0.07131344 0.05183149
0.030601192 -0.0042121033 -0.049201332 -0.086877696 -0.12112248 -0.04042103 0.0747247 0.039660998
0.023100598 0.04475333 0.06465727 -0.045461874 -0.01469216 0.05634725 -0.004918062 -0.007775443
-0.059647743 -0.063823506 -0.03517305 -0.04475045 -0.08911739 -0.064061776 0.07857251 -0.025856497
-0.00838459 -0.10199531 -0.042624332 -0.09858741 -0.09310965 -0.08031723 -0.1378072 -0.29728672
-0.10410683 -0.04262795 0.0034224617 0.018562423 -0.18475679 -0.13748741 -0.22611983 -0.24303894
-0.031570368 0.125628 0.17152728 0.08451581 0.049303625 0.09558323 -0.12135773 -0.17904077
-0.17864937 -0.17655064 -0.22372997 -0.25218976 -0.12854005 0.07222726 0.06419885 0.20273742
0.32633838 0.04658617 0.15147567 0.35879102 0.09005924 -0.0940204 -0.03271153 0.00435198
0.12059908 0.24228084 0.16163342 0.06328874 0.14461432 0.1402993 0.056773223 0.12873809
0.1900787 0.24367623 0.09699654 0.11575777 0.060513776 0.11766922 0.02917401 -0.04237601
-0.0072350297 -0.021437403 -0.05319109 -0.04759691 -0.052767973 -0.014014707 -0.107675515 -0.15929072
-0.023520801 0.042442616 0.15239011 0.16652207 -0.016079597 0.0012624598 -0.08240434 -0.03531155
-0.028434526 0.09291056 -0.01636913 -0.010174547 0.02389632 -0.047484044 0.045036785 0.096201256
0.058969673 0.13819037 0.15956692 0.17945816 0.24138294 0.10780537 0.06714848 0.07917628
0.0988319 0.15843362 0.20373534 0.18637253 0.12208789 0.08398841 0.09503634 0.09664504
0.030333998 0.13742393 0.084750734 0.09517988 0.10470826 -0.047384024 -0.018237805 -0.059149854
-0.039790154 -0.18179797 -0.029112846 0.008048833 -0.0066228835 0.08202082 -0.16716988 -0.18617994
-0.18261956 -0.083399065 0.010869744 -0.0038562769 0.009294225 -0.13872407 -0.09395951 0.016147884
0.104916535 0.06091687 -0.057026826 0.13124858 0.01893665 0.15632376 0.12523958 0.116303116

bias f4 [22]
00000000: 2bcd 043d d3e2 8b3c a58a 6dbc c796 98bd
00000010: 3dc2 b6bc e3e7 c4bd 98d7 81bd 5aff c8bc
00000020: ea99 413d 81a7 86bd c0c6 273d b5d4 a73d
00000030: 569e 19bd 9704 5dbc 3fe7 583c 1f88 9e3d
00000040: 7918 a13d 0307 babd c29f 293d a05e d33c
00000050: bf24 69bd 8606 203d
0.032422226 0.017075932 -0.014498387 -0.074506335 -0.022309417 -0.096145414 -0.06339949 -0.024535824
0.047265925 -0.065749176 0.040961027 0.081948675 -0.037504517 -0.013489864 0.013238727 0.07740807
0.07865996 -0.09083369 0.041412123 0.025801957 -0.05691981 0.03906872

weight f4 [22]
00000000: 919e 823f c97a 063f 8af4 403f d171 5a3f
00000010: 002e 8b3f d841 723f 59f6 2f3f f6e5 2e3f
00000020: f2a4 0c3f aa8f 853f 55ab 313f b763 163f
00000030: c25d 303f f33b 8c3f dfe7 653f 19bc 123f
00000040: 583c 843f 2b68 983f a722 6d3f bf2b 873f
00000050: dbf5 873f cdc1 543f
1.0204641 0.52531105 0.75373137 0.8532992 1.0873413 0.9463172 0.6873527 0.6831964
0.54939187 1.0434468 0.69402057 0.587459 0.68893063 1.0955795 0.8980693 0.57318264
1.0330915 1.190679 0.92631 1.0560225 1.0621904 0.83108217

bias f4 [22]
00000000: 455a f9be 4dbd 263e 98aa d0bd e334 20bf
00000010: a63c 71bb 2e55 c3bd 0ddd 3fbd 6036 e63c
00000020: 1fc0 1abe eb94 483f abfb 7fbe d3a3 a3be
00000030: 3c59 19be a1ff 013f a715 e8be e4ab a7bd
00000040: 2b1b 8cbe 8729 d0be 8ddc 45be 0abd 263f
00000050: 292a 64bf 0cfc 933e
-0.48701683 0.1628315 -0.10188788 -0.625807 -0.003680983 -0.09537731 -0.04684167 0.0281021
-0.15112351 0.7835223 -0.24998347 -0.31960925 -0.14975446 0.50780684 -0.4532902 -0.081870824
-0.27364478 -0.40656683 -0.19322415 0.651322 -0.8912683 0.28903234

running_mean f4 [22]
00000000: 6373 5f3c 6571 d43e 65e3 953f f623 c3bd
00000010: 06af 63be 699a 21bf 0c99 ca3e 2846 313e
00000020: 61e3 e73b efc0 94bf 3c4e 833d 0423 7e3f
00000030: f407 293e c731 81bf 9412 1838 cd2e 183f
00000040: c72c 05bf 6fb6 5e3f b355 043f eb48 bcbf
00000050: 09c0 b5bb c199 96be
0.01363835 0.41492763 1.171002 -0.095283434 -0.22234735 -0.63126236 0.3956989 0.17311919
0.007076666 -1.1621379 0.064114064 0.9927218 0.1650694 -1.0093316 3.6256926e-05 0.5944641
-0.5202145 0.8699712 0.51693267 -1.4709753 -0.005546574 -0.2941418

running_var f4 [22]
00000000: ba67 f93d 9343 653f d9db 1340 b9c7 893d
00000010: de64 e83e 2ced 123f 0636 f83f 20f2 983f
00000020: 7cab b53e 1ca7 9d3f e842 323e 2b04 0f3f
00000030: a93a b23e c371 de3f d881 023e 073e cd3e
00000040: 07b3 673f ca23 8b3e f1bc f23e 1ec1 0240
00000050: 2779 9e3d 6036 1f40
0.121779874 0.89556235 2.3102934 0.06727547 0.45389456 0.57393146 1.9391487 1.1948891
0.35482395 1.2316623 0.17408335 0.55865735 0.3481038 1.7378467 0.12744844 0.40086386
0.9050755 0.27175742 0.47409776 2.043037 0.07737952 2.4876938

weight f4 [32, 22, 7]
00000000: 4247 a53c 74ec 5dbc d020 1abd 5f59 05bc
00000010: c572 9b3d c282 223d 063a 973c 7cb9 6d3c
00000020: a73c 213d d500 503a e1fb 56bd f071 373d
00000030: 604f 993d 53d8 83bd 3eef b13c 4ebc 553d
00000040: 7e47 e33c edcb 283d 3fd8 0ebb 40ff 1a3d
00000050: 70b3 313a 1816 ae3d e6c4 2dbc 5772 0a3e
00000060: 99df 633d 3549 c03c 82f4 a83d b8ce 443d
00000070: 2398 3abe faa4 5bbd 8eff 0d3d 860d 60bd
00000080: e1d9 b9bd d328 523c d68f 6abd e5f7 45bd
00000090: 6cb3 69bd 9806 d8bd 2e52 0b3e 8f46 15be
000000a0: 0bc1 15bd a382 ea3d f94d 42be 67bd 573c
000000b0: 28b3 6a3d 6a5d 953d 52f0 b73d f46a 4a3d
000000c0: 8eb2 98bb 74e0 1dbe fd1f 69bc 42f5 b43d
000000d0: a0ae c93d bd76 543d 328b 893d 2461 813d
000000e0: 77af 38bd f637 c23d 47ae 2b3d b252 fe3d
000000f0: 2826 c43b 2cb3 c93d 0487 933c 41af aebe
00000100: 1e98 bbbe 9925 a3bd 7bd6 7f3e 7e08 9c3e
00000110: d036 d63d 421d 1a3e 2c25 f6bd ab4e 21bd
00000120: 8f65 013e b174 00bd e016 36be 8023 07bd
00000130: 3549 7bbd 19db b7bc 9606 953d 8b62 b53c
00000140: 6004 1e3e e3a0 c23d 95e9 613d 416b 863d
00000150: 8d68 e53d 2bea c83d 193f 9c3c 7690 513d
00000160: fb8d 113b 70fa 403d bb14 033c 42de cfbe
00000170: 177c 56be ea3d a0bc 6fb4 4c3e df5c 073e
00000180: 08b5 3e3e a516 5e3e 7899 15be aead 6b3c
00000190: 7189 123e 0061 c93c e494 05be c470 49bd
000001a0: 86ff b4bc 0fda 3ebd 284a 90bc 6e22 173d
000001b0: 2507 873d 138d ab3d a202 dc39 3d5d 1abc
000001c0: b31d 22be 4f5c ed3c 7bf7 05bc e77b f83c
000001d0: 1b94 13bd 67d3 6939 f40e c23d 6975 773d
000001e0: 4446 3b3e 508d 653d 3dc0 fdbd 9663 19bd
000001f0: bc40 80bd 2ae2 79bd a9e8 243d ff08 233e
00000200: a7ad 4a3e bd52 f03d 305f 07be cc52 363c
00000210: 2918 c63c b430 c4be 2527 20be 4aab a039
00000220: 0681 3d3e 1aad 793e 074c 783d c29f 313d
00000230: ea05 35be c779 9bbd 9e4c 53bd bb90 933d
00000240: 7e08 d1bd 17a7 1abe 69f8 013d 860d a3be
00000250: 17f4 dbbd 71e5 a63d 4009 203e 3c0c a13d
00000260: cd3c e33d e85e 9c3d 20be 8bbd e389 72bd
00000270: 3bf9 423d 83d6 df3b 75a1 e3bc 7c9c 8fbd
00000280: aec5 543d 61e4 41be 6c9f dfbd edfa b2bd
00000290: 24eb 3dbe 51b1 25be 2c42 42bd 5c44 14bd
000002a0: 22d6 07be 9b39 573b 8aa7 d0bd d875 ffbd
000002b0: 44d3 7ebd ebcf d7bd 4752 23be 10c0 1dbd
000002c0: 11c1 d1bd a56c 87be ac3b 3fbd 228b a6bd
000002d0: a86c 76bd 834a 53bd a1b9 543c 81ed 0fbd
000002e0: 07b9 193d 00a1 84bd 7c83 04bd 010c 3abc
000002f0: 2579 bb3d 18bf e43b 1b1b 4abc 9d38 563d
00000300: a6a3 bc3c a512 e3bd 2878 67bc 869a be3d
00000310: 0986 00be 4c0b f7bd 2476 85bd 939d 92bd
00000320: bcaf a4bc 19bf 62bd c2c5 fb3c d328 00be
00000330: 439c 9cbd 7bac f6bd 67d2 46bd 3c43 81bd
00000340: 2a34 a73d 2921 383e 3d67 d2bc d8fb a0bd
00000350: 1594 f53c 498e 01be 99b4 793d 5144 373c
00000360: e0c6 bebd 8961 2f3d 1b11 89bc 1b9c 82bd
00000370: 5fc1 1abd 5a47 3a3e 1b09 013e d4e7 903e
00000380: c9d3 1ebe 8081 bebd 1736 70be a1fb 38bd
00000390: 9311 163c 6cca 403e 7a36 063e f3e1 1cbe
000003a0: 01d5 babd 341a 323c 035b 943d 56ab 08be
000003b0: 30ca eebd ee2f 36bd bcb0 cabc 1ae3 893c
000003c0: db16 363e e989 c43d 5540 8a3d 844e 36bd
000003d0: 1adb 0b3d a34d 03bd 4e2a e9bd a57a e1bd
000003e0: 69db 57be 2612 ea3c bc88 bfbb 024e e33d
000003f0: aea3 15bd 8da6 56be 030d 2abe 7edf c3bd
0.02017558 -0.013545144 -0.03762895 -0.0081389835 0.0759025 0.03967548 0.018460285 0.014509555
0.039364483 0.00079346943 -0.052486304 0.044786394 0.07485843 -0.06437745 0.021720525 0.052181534
0.027744051 0.041210104 -0.0021796373 0.03784108 0.00067787524 0.08500308 -0.010606026 0.1352018
0.05563316 0.023472408 0.08249761 0.048048705 -0.18222098 -0.05362413 0.034667544 -0.054700397
-0.0907476 0.012827116 -0.05726608 -0.048332114 -0.057055876 -0.10548133 0.13605568 -0.14577697
-0.036561053 0.11450698 -0.18975057 0.013167716 0.057299763 0.07293208 0.08981384 0.049418405
-0.0046599573 -0.15417653 -0.014228818 0.08835842 0.0984776 0.05187105 0.067160025 0.06317356
-0.04508921 0.0948333 0.04191425 0.12418117 0.005985994 0.098486274 0.018008716 -0.34118083
-0.36639494 -0.079661556 0.24984162 0.3047523 0.104596734 0.15050223 -0.12018809 -0.039381664
0.12636398 -0.031361286 -0.17782164 -0.03299284 -0.061349113 -0.022443341 0.07276647 0.022141716
0.15431356 0.09503343 0.0551544 0.06563426 0.11201582 0.09810289 0.019073056 0.05116316
0.002220987 0.047113836 0.008000548 -0.40599257 -0.20945774 -0.019560773 0.19990705 0.13219021
0.18623745 0.21688326 -0.14609325 0.01438467 0.14310242 0.024582386 -0.13045079 -0.049179807
-0.0220945 -0.046594676 -0.017613485 0.03689807 0.065931596 0.08376517 0.00041963632 -0.009421644
-0.15831642 0.02897468 -0.00817668 0.030332519 -0.036029916 0.00022299365 0.09475508 0.060414705
0.18288523 0.05604297 -0.12390182 -0.03744849 -0.06262347 -0.061006702 0.040260945 0.159214
0.19792806 0.11734531 -0.13219905 0.011128139 0.024181442 -0.38318408 -0.15639932 0.00030645198
0.1850625 0.2438244 0.06061938 0.043365248 -0.17678037 -0.075915866 -0.05158674 0.072053395
-0.10206698 -0.15102802 0.031731043 -0.31846255 -0.10739916 0.08149231 0.15628529 0.07863662
0.11095581 0.076352894 -0.06823373 -0.05921353 0.047600966 0.0068309917 -0.02778695 -0.07012269
0.051946335 -0.18934776 -0.10919079 -0.087392665 -0.1854673 -0.16180922 -0.047426388 -0.036198005
-0.13265279 0.0032840732 -0.101882055 -0.12473649 -0.062213197 -0.10537704 -0.15949355 -0.038513243
-0.102419026 -0.26450077 -0.046687767 -0.08132006 -0.060162216 -0.05158473 0.0129837105 -0.03513861
0.03752997 -0.06476021 -0.032351956 -0.011355401 0.09153966 0.006980788 -0.012335564 0.052300084
0.023027252 -0.110875405 -0.014127769 0.09306817 -0.1255113 -0.120627016 -0.06516674 -0.07158961
-0.020103328 -0.055358026 0.030733947 -0.12515573 -0.07646992 -0.12044617 -0.0485405 -0.06311652
0.081642464 0.179814 -0.025683993 -0.078605354 0.029977838 -0.12651934 0.060963247 0.0111857215
-0.09315276 0.042817626 -0.01673179 -0.06377431 -0.03778207 0.18191281 0.1260113 0.2830187
-0.15510477 -0.09302044 -0.23458134 -0.045161847 0.009159463 0.18827218 0.13106719 -0.15320568
-0.091226585 0.010870505 0.072439216 -0.1334661 -0.11659658 -0.044479303 -0.024742477 0.016831923
0.17782156 0.09596617 0.067505516 -0.044508472 0.0341445 -0.032056462 -0.11385022 -0.11009721
-0.21079792 0.028573107 -0.0058451574 0.11098863 -0.03653305 -0.20961972 -0.16606526 -0.09564112

bias f4 [32]
00000000: 3758 55bd 5557 8bbc c626 9b3d 1e52 9dbb
00000010: 908c a0bd 1f02 1c3d aa6d 9cbd 05c6 78bd
00000020: 3796 bdbc 361e 243d 4f86 acbc 14a0 0c3b
00000030: fa8a b9bc be1b c2bb ea65 cb3c cdad 963d
00000040: 3256 1cbd 4965 463b bd31 d7bc 0eeb 8b3b
00000050: 4e64 36bd d06d a53d 4284 4a3b 64df 333d
00000060: 379e 9bbd 96a8 553d 7cac a23c 9e16 6d3c
00000070: 34ba 89bd d95b 8a3c 9cd6 813d db2a d33c
-0.05208608 -0.017009417 0.07575755 -0.004801049 -0.0783931 0.03808796 -0.07638104 -0.06073572
-0.023142917 0.040067874 -0.021060137 0.0021457719 -0.022649277 -0.0059237173 0.02482887 0.073573686
-0.03816814 0.0030272773 -0.026268834 0.004269964 -0.04452925 0.08077586 0.0030901586 0.043914214
-0.075985365 0.05216273 0.019857638 0.014470724 -0.067249686 0.0168895 0.063397616 0.025777271

weight f4 [32]
00000000: 0d90 6b3f 0d51 7a3f 2515 6e3f 66ee 863f
00000010: 4104 6f3f a941 653f c04f 7d3f c804 8d3f
00000020: f59b 713f a4ff 853f 91b6 833f e4ab 543f
00000030: 17c1 583f f57b 973f e011 863f c27d 773f
00000040: 8357 6e3f d467 803f 593d 803f 7c11 963f
00000050: 6a13 9b3f 5c99 623f 28cf 743f f640 8b3f
00000060: a5a4 5f3f 6270 5f3f bf81 663f eeae 8f3f
00000070: 4ccc 5e3f 5fda 6a3f ef12 693f 5db9 873f
0.9201668 0.97779924 0.93001014 1.0541503 0.93365866 0.89553314 0.98949814 1.1017084
0.94378597 1.046864 1.029009 0.83074784 0.8466963 1.1834704 1.0474205 0.96676266
0.9310228 1.0031686 1.0018722 1.1724086 1.21153 0.8851526 0.95628595 1.08792
0.873606 0.8728086 0.90041727 1.1225259 0.8703048 0.9173946 0.91044515 1.0603443

bias f4 [32]
00000000: db86 d3be 41f0 0ebe 03d6 21be 97fb d3bd
00000010: 0002 09bd a90e 2e3e 493d ffbc e5f9 79be
00000020: b092 71be 83c5 0fbd b591 28be ad70 aebe
00000030: 26f6 54be 134c 953d 62bc a5bc aa14 c6bd
00000040: 3dc2 21be 8103 4c3e c957 e83d f051 083d
00000050: fcaa ef3e 4817 98bd 0d4a 1cbe 8bc6 cebd
00000060: 79c0 0fbe f7f1 f6be 8bff cabe 9385 d3bd
00000070: 51c5 cdbe 5a6e 73be 7fb0 41be ea6a b43d
-0.41313824 -0.13958837 -0.15804295 -0.10350721 -0.033449173 0.1699778 -0.031157153 -0.24411733
-0.23591113 -0.03510047 -0.16461833 -0.3407034 -0.20797023 0.07289901 -0.02023143 -0.0967191
-0.15796752 0.19923212 0.11344869 0.033281267 0.46810138 -0.074263155 -0.15262623 -0.10096463
-0.14038266 -0.4823148 -0.3964809 -0.10328212 -0.40189603 -0.23772565 -0.18914984 0.08809455

running_mean f4 [32]
00000000: 3975 bd3e cc27 23bf 94c1 16bf a239 a4be
00000010: 224c 68bf 15d2 23c0 9e0c 3c3f 77d5 13be
00000020: 8661 073f 876d ae3f 1f5f acbe eb4f 0f3f
00000030: 1717 cb3f 7647 d2be 6ff1 f8bf ccf2 403f
00000040: 670a 943f c909 a2bf bc53 85bf 9d56 a2bf
00000050: 75c2 0fbe 9c19 0ebf e0cf f3be e80f 43bf
00000060: 10a9 8abf 4083 3c3f ac92 10be fb76 b0be
00000070: 04f9 fc3e 0c88 4b3e 89a8 e0bf 720f 4f3f
0.37003496 -0.637326 -0.58889127 -0.3207522 -0.9074117 -2.5596974 0.7345675 -0.14436899
0.52883184 1.3627175 -0.33666322 0.5598132 1.5866421 -0.41070145 -1.944868 0.7537048
1.1565675 -1.2659236 -1.0416179 -1.2682682 -0.14039023 -0.55507827 -0.47619534 -0.76196146
-1.0832844 0.7363777 -0.14118451 -0.34465775 0.49408734 0.19876117 -1.7551433 0.8088294

running_var f4 [32]
00000000: c071 103f c315 9b3f 8799 db3e 2766 903f
00000010: 69a3 4b3f b3fa 783f 4f26 5f3f 6536 253f
00000020: 43a8 d63e e8fe 103f 32a5 ad3f 194d 243f
00000030: c085 963f 70a6 873f 4d15 a93f d90e e53e
00000040: aeb1 103f 5c67 1840 8746 883f d124 a53f
00000050: ee87 483f 0e11 4d3f 2262 043f 2ce5 553f
00000060: 25c6 223f be46 273f bb78 bc3e 7afc 4f3f
00000070: 2e1f 7a3f 43af ed3e d4ab d53f ae47 913f
0.5642357 1.2116016 0.4289057 1.1281174 0.7954622 0.97257537 0.8716783 0.64536124
0.41925249 0.56638956 1.3566039 0.6418014 1.1759567 1.0597668 1.3209625 0.4473789
0.5652112 2.3813086 1.0646523 1.290186 0.7833241 0.8010415 0.5171224 0.83552814
0.63583595 0.6534232 0.3681086 0.81244624 0.97703826 0.46422777 1.6693063 1.135

weight f4 [32, 22, 7]
00000000: 9744 acbd 8f5b 02bd cc11 8bbd 4072 10bd
00000010: 615e 0abe ef57 10be 6861 43bd b55f 51be
00000020: 2e0a 3abd 7ce6 803e 7eb5 62bc 9ced 28be
00000030: 4ab2 d3bd 5d39 27bd dbf9 003e 4c30 893e
00000040: b173 423d ab03 833d 9f81 3dbe 3f56 163d
00000050: 2b21 11bd 3e26 60bd 5d21 6abd 5054 613c
00000060: dc94 64be 1b90 ffbd e1da c0bd 50f1 1abe
00000070: 1b5f 7fba 38a9 abbe 2f0c 603e 7bf8 ad3d
00000080: c54f 553e 6352 98bd e87b 203e 83ae adbd
00000090: 6998 c0bd 87c4 d2bc e2d9 35bd 8675 30be
000000a0: 73d1 abbd 8a12 acbd 74b2 8dbc f44b 95bc
000000b0: 5c81 29be 86ce 043e 1759 273e 4d38 513d
000000c0: dcc3 723d 8e7e 80bd 6887 bdba ebb4 b3bc
000000d0: 8652 ab3d 291e 6fbe b296 f13d 923d 933d
000000e0: 287b 4d3e a2a2 19bc 3aa8 30be eb57 943d
000000f0: 8e24 d63d cee1 03be 8067 e1bd b0a3 863d
00000100: b8bc b43d 01ec 9fbb b6ba d7bc b501 f8ba
00000110: cedc d4bd 3869 58be a637 04bb a98c 70bd
00000120: 8cf2 5bbe b4f2 61be 26b0 b13d 72c6 7a3c
00000130: c7bd adbd a20d 42bd 24ce b4bd 3bf9 abbe
00000140: bdbe 03be 3960 4fbe 592c 8bbe 3524 70be
00000150: 7afa e0bc 7bcb 18bb 96f0 9cba 744c 07be
00000160: 1bd9 f8bd 4144 85be 3404 1d3d 3701 2d3e
00000170: a324 e7bc 8c27 30bc f7b6 453c 3071 19bd
00000180: 564f e1b9 f78e 92bd ea9c 1abc acb0 9fbd
00000190: 398d 8c3d 9b9e 913d 61c9 aa3d 10e3 703d
000001a0: 4213 543d 6ce9 48be c11a 0dbd da16 12be
000001b0: 8e8c 073e 0ff6 1a3d d9e7 5bbd 6835 98bd
000001c0: 2445 62bd 1ff5 a83d c15b 8e3d ea6b 533e
000001d0: 2733 cd3c 1e5f 8dbd 577f 20bd 6a19 02be
000001e0: 560e 28bd 5553 87be 4714 c6be 95aa a5bd
000001f0: 52bf 94be 99e3 cfbd 0ba6 f13c 46de 8dbd
00000200: 7169 86bc a0df 40bd e7dd 9b3d b93a 963d
00000210: 88c0 17be 5a80 2f3e ddd4 0e3e 84f4 9e3d
00000220: 2f9f 463d 4c2b cebd 8cb7 a0bd 8533 aabd
00000230: 05a3 84be 4f19 623c ddeb 41bd b270 14be
00000240: f848 b13c 6686 c0bd 88e9 61be 5fce a4be
00000250: f7e7 a63c bf01 2e3d ef25 463d b032 eb3d
00000260: 3ea7 b53d c9d8 3b3e 2d6e 0f3e c4a6 853c
00000270: efe6 263d ffff 19bd 68b8 82bd fb32 533e
00000280: c1fa 0d3e b92a ce3c 68ce 6ebd 8379 67be
00000290: 5077 c2bd 5864 193d 7d6f e4bc 000d a3bd
000002a0: 99d7 1abe 0edf a03d ab00 bdbd bd22 81bc
000002b0: 5a38 50bd 3eae e43d 26ae 28bc e227 d0bd
000002c0: c324 77be cce3 413b f852 1c3c 93d7 883d
000002d0: e49b eb3d fa2f 453d 4c51 76bd 4bb7 d53c
000002e0: 5391 1dbd d15a 123c babb eabd c1eb f6bd
000002f0: b6a6 fdbd be2e 103e 927c fc3c 177a adbd
00000300: d99f 36be 57e0 ed3d fde2 963d 1104 eb3d
00000310: 7d8a 903d 5477 0e3e 0553 b93b c53e 313e
00000320: 24bf 97bd be57 b9bd be1a 4abe 67c3 b73c
00000330: 2da6 183d 75a9 04be e52a 88bd d803 bc3d
00000340: b1c0 4bbd 5481 763e 7c35 e23d 921e 033d
00000350: 1fe7 8b3d cde9 cfbb 0790 f2bd b81c d03c
00000360: edbe 13be 1684 0bbe 050c 083e 9ff6 653d
00000370: 5cb9 eabd f5ae 40be 6f72 d93c 66fb 9d3e
00000380: 9674 9ebe ecea 1abe 4da1 a93d 7885 92bd
00000390: 8591 9a3d 050b b03d 3411 553d 4063 96bd
000003a0: ee5d d5bc 394e 7ebd 662d d2bc ba1a d7bd
000003b0: 0fb8 aabd 4dcf b73d 9548 e4bc d616 04bc
000003c0: cd33 9a3c d220 373c 29f0 123e 3e77 d03d
000003d0: b2b1 793e d52b 58bc 3b68 1d3e 1dab 503e
000003e0: e3a4 553e 839e 5e3e 90e8 273e 7c64 d83d
000003f0: dbbd c43d fefb 5a3e 689a cbbc 5fe1 12be
-0.0841152 -0.0318256 -0.06790504 -0.035265207 -0.13512565 -0.14096044 -0.047700316 -0.20446666
-0.045419864 0.25175846 -0.013837216 -0.16496891 -0.1033674 -0.04082619 0.12595312 0.2679466
0.047473613 0.06397184 -0.18506478 0.036703344 -0.035432022 -0.05472397 -0.057160724 0.013753012
-0.2232241 -0.12478658 -0.09416748 -0.15131116 -0.000974165 -0.3352754 0.21879648 0.084946595
0.20831211 -0.07437589 0.15672266 -0.08480551 -0.0940407 -0.025728477 -0.044397242 -0.17232332
-0.08389559 -0.084019735 -0.017297007 -0.018224694 -0.16553253 0.12969407 0.16342579 0.051079083
0.059268817 -0.062741384 -0.001445991 -0.021936854 0.083653495 -0.23351349 0.11796321 0.07189478
0.20066512 -0.009377154 -0.17251673 0.072433315 0.10456191 -0.12879106 -0.11006069 0.0657419
0.08825058 -0.004880429 -0.026334148 -0.0018921407 -0.10393678 -0.21133888 -0.002017477 -0.058727894
-0.21479243 -0.2206524 0.08676176 0.015306102 -0.08483463 -0.047376283 -0.08828381 -0.33588585
-0.1286573 -0.2025155 -0.27182272 -0.23451312 -0.027463187 -0.0023314643 -0.0011973556 -0.13212758
-0.121507846 -0.26028636 0.038334087 0.16894995 -0.028215712 -0.010751616 0.012067548 -0.03746146
-0.00042974454 -0.07156175 -0.009436825 -0.07797369 0.068628736 0.0711033 0.08339191 0.058810294
0.05177618 -0.19620293 -0.034449343 -0.1426653 0.13237211 0.037832316 -0.053687904 -0.074320614
-0.05524172 0.08249878 0.069510944 0.20646635 0.025048805 -0.06902908 -0.03918394 -0.12705007
-0.041029297 -0.26430765 -0.38687345 -0.080891766 -0.29052216 -0.10150833 0.02949812 -0.06927161
-0.0164077 -0.047088265 0.07610684 0.07335419 -0.14819539 0.17138806 0.13948388 0.077614814
0.048491653 -0.10066852 -0.07847509 -0.08310608 -0.25905624 0.013799979 -0.047344077 -0.14496115
0.02164124 -0.094006345 -0.22061741 -0.321887 0.020374281 0.042482134 0.04837602 0.11484277
0.088697895 0.18344416 0.14006872 0.016314872 0.04074758 -0.037597653 -0.06382829 0.20624916
0.13865186 0.025166856 -0.058302313 -0.22604947 -0.09495413 0.03744921 -0.027885193 -0.07961464
-0.15121306 0.07855044 -0.09228643 -0.015763635 -0.05083499 0.111660466 -0.0102954265 -0.10163857
-0.24135117 0.002958524 0.009541266 0.066817425 0.11504343 0.048141457 -0.060136124 0.026088377
-0.03846867 0.008932785 -0.11461587 -0.12056685 -0.12385313 0.1408033 0.030821119 -0.084705524
-0.17834415 0.11615055 0.07367513 0.11475385 0.070576645 0.13912708 0.0056556487 0.17309101
-0.07409504 -0.090499386 -0.19736764 0.022432042 0.037267853 -0.12955268 -0.066488065 0.09180421
-0.04974431 0.24072772 0.110453576 0.032011576 0.06831192 -0.00634501 -0.11843877 0.02540432
-0.14428301 -0.13624606 0.13285835 0.0561434 -0.11461136 -0.18816741 0.026543824 0.30855864
-0.30948323 -0.15128678 0.08282719 -0.071543634 0.07547287 0.08595852 0.05201836 -0.07343149
-0.026045766 -0.062086318 -0.025656413 -0.105031446 -0.08335888 0.08975086 -0.027866641 -0.008062085
0.018823529 0.011177259 0.14349426 0.10178994 0.24384192 -0.013194044 0.15371792 0.20377775
0.2086368 0.21740155 0.1639731 0.10566041 0.096065246 0.2138519 -0.0248539 -0.14343785

bias f4 [22]
00000000: 5030 98bd b8bd 2bbd 5f5b 603d 77cc dabc
00000010: 7d96 0c3d 2c32 583d d397 66bd 6d2d 3c3d
00000020: 0855 203d 6302 85bd 2056 423d c3d2 0a3d
00000030: 4a73 483d 7480 8f3c e354 e73a 4968 91bd
00000040: fcd0 03bd c506 393d 97f3 70bc f50d a43d
00000050: 2ea1 f1bc 088b 4bbd
-0.0743109 -0.041928977 0.05477464 -0.026708825 0.034323204 0.052782223 -0.056297135 0.04594176
0.039143592 -0.06494596 0.047445416 0.033892404 0.048938073 0.017517306 0.00176492 -0.07099969
-0.032181725 0.04517247 -0.014706514 0.080104746 -0.029495802 -0.049693137

weight f4 [22]
00000000: cd06 5f3f 576d 833f ebe8 293f 1f2c 863f
00000010: a00c b53f e0d5 753f a402 763f e047 783f
00000020: 92ee 413f 2b66 823f d05d 593f 3c2f 673f
00000030: e133 953f be18 553f 93be 543f 28d5 ae3f
00000040: 809e 7b3f 2c74 6b3f 25ef 8b3f 5aab 9b3f
00000050: 936e 643f 4480 a33f
0.8711975 1.0267743 0.6637103 1.0482215 1.4144478 0.9602947 0.9609778 0.9698467
0.75754654 1.0187429 0.8490877 0.9030645 1.1656457 0.8324088 0.83103293 1.36588
0.98288727 0.9197414 1.0932356 1.2161667 0.8923122 1.2773519

bias f4 [22]
00000000: 6c5e 89be 7a4c bbbd ece1 f1bd 8fdb 82be
00000010: 2ae6 713e 4ab5 0cbe 7de3 85be 6361 25be
00000020: f290 98be 967c 8cbe fcf6 d3be ba3e c8bd
00000030: a719 65be 8fd9 92be faf2 36be fed0 8b3d
00000040: c4aa 99be b166 0ebe 826a 1ebe 5885 a9bd
00000050: bf91 47be 7443 9c3c
-0.2682985 -0.09145446 -0.11810669 -0.25558135 0.23622957 -0.13741031 -0.26150122 -0.16150431
-0.29798084 -0.27438802 -0.41399372 -0.09777589 -0.22373067 -0.2868161 -0.17866126 0.068269715
-0.30013096 -0.13906361 -0.15470317 -0.082773864 -0.19489191 0.019075133

running_mean f4 [22]
00000000: 9b5f a33c a000 74be d266 9f3e b275 ca3d
00000010: dd9b b6be dbd1 61be 8500 83bd cd0e 90bc
00000020: c96a 1fbf b81d 0b3f 1c09 9cbe 0486 13bf
00000030: 533c b5be f999 cbbe 76fe 86be 537d e0be
00000040: fe99 b63d 203f 5ebf 0c52 87be f8c5 eebe
00000050: 9864 f7be f488 2dbf
0.01994305 -0.23828363 0.31133133 0.0988573 -0.3566579 -0.2205271 -0.063965835 -0.017585183
-0.62272316 0.5434222 -0.304757 -0.57626367 -0.35397586 -0.3976591 -0.26366013 -0.43845615
0.089160904 -0.8681507 -0.26429784 -0.46635413 -0.48318934 -0.677871

running_var f4 [22]
00000000: e0db 1d3f 73dd 203f 4e83 1e3f f049 203f
00000010: e3c9 673f 4fe9 853f 3ac6 553f c18e 1a3f
00000020: 404b 303f 4966 323f fe9d ae3e f926 333f
00000030: ba00 163f d311 dd3e 09f9 c43e 8605 663f
00000040: 1aea bf3e 0ca3 483f d680 0a3f 0aab 273f
00000050: 9a82 053f 2a53 3e3f
0.6166363 0.62837905 0.61919105 0.6261282 0.9054243 1.0461825 0.83505595 0.60374075
0.6886482 0.69687325 0.34104913 0.6998134 0.5859486 0.4317766 0.3847125 0.8985218
0.37483293 0.7837379 0.5410284 0.6549536 0.5215241 0.7434565
