model/scedc.pt (torch, 118306 bytes, 56 tensors)

weight f4 [8, 3, 1]
000000 9a 06 7a 40 6d e2 4e 40 d9 a0 e9 40 a2 32 b4 41
       3.906653 3.23257 7.3008847 22.524723
000010 7d d0 be bf 63 31 8a 3f 84 d8 9a bf 09 e2 c7 3e
       -1.4907376 1.0796322 -1.2097325 0.3903964
000020 9a 0e f5 41 60 37 1c c0 a6 11 5d 41 5c 1d 0d 40
       30.63213 -2.4408798 13.816809 2.204917
000030 6a 25 7d 41 58 7a 1c c0 ad 5a 15 40 57 a9 9f 3f
       15.821634 -2.4449673 2.3336594 1.2473553
000040 76 43 d7 be 4e 36 e7 c1 42 0f 5b bd 7f e4 4f 42
       -0.42043656 -28.901516 -0.053481348 51.97314
000050 d0 8e cf be 23 80 96 c0 91 55 52 c0 51 7f ae 40
       -0.40538645 -4.7031417 -3.2864726 5.4530416

bias f4 [8]
000000 56 68 e3 be 65 67 1e be 78 f4 28 3e ab 71 98 bf
       -0.4441554 -0.1546913 0.16499507 -1.1909689
000010 4c ea 03 be f5 67 09 3f af 5d 9d 3e 4b 64 79 bf
       -0.12882346 0.5367425 0.30735537 -0.9741866

weight f4 [8]
000000 1e 23 39 3e 1a 6d d7 3e 6e 95 17 40 5e d1 f4 3e
       0.18079802 0.42075425 2.3684955 0.47815984
000010 bb c0 e0 3e af ea 01 40 c4 f6 00 3f 18 9f 06 3f
       0.43897042 2.029949 0.50376534 0.5258651

bias f4 [8]
000000 8c 23 0e 3f 90 20 7a 3c 9c aa da bb bc b3 54 40
       0.5552299 0.015266553 -0.0066731703 3.32347
000010 60 0d 15 40 84 79 8c 3d 20 e3 77 bc bc f9 30 40
       2.3289413 0.06859115 -0.015129834 2.7652426

running_mean f4 [8]
000000 dd 3d e3 be 90 4f 1e be 77 54 28 3e b6 6a 98 bf
       -0.44383135 -0.15460038 0.16438471 -1.1907566
000010 01 ae 03 be 62 6b 09 3f a0 2c 9d 3e 89 b4 79 bf
       -0.12859346 0.5367948 0.3069811 -0.975411

running_var f4 [8]
000000 76 1f a8 40 06 af 07 42 85 c7 63 42 65 f6 37 41
       5.2538404 33.92092 56.944843 11.497655
000010 8f a0 89 41 fd d8 4a 42 84 81 1c 43 44 62 78 40
       17.203398 50.711903 156.50592 3.8809977

weight f4 [11, 8, 7]
000000 4c af 80 3e f4 c9 07 3f a2 8b 8f 3f cc 71 49 40
       0.2513374 0.5304253 1.1214488 3.1475706
000010 c8 15 35 40 db 88 c8 40 8e ae 80 40 e9 5d 94 bf
       2.8294544 6.266706 4.021308 -1.1591159
000020 1d fb d9 3f 24 82 02 c0 34 79 25 40 2b 7a b1 3f
       1.7029759 -2.0391932 2.5855227 1.3865408
000030 ab be 69 40 ad ad 77 40 a7 8a 03 40 b8 b4 f2 bf
       3.6522624 3.8699753 2.0553377 -1.8961401
000040 92 99 70 c0 0c cb de c0 b6 10 38 c1 8d 48 a9 c0
       -3.7593732 -6.962286 -11.50408 -5.2901063
000050 a7 5c d1 c0 20 74 8b c0 34 27 ae bf 23 db 88 c0
       -6.54256 -4.3579254 -1.3605714 -4.27675
000060 16 d9 36 c0 46 6c 8e c0 68 9d 08 40 55 42 08 c0
       -2.8569999 -4.450717 2.1346073 -2.1290486
000070 9f 5f 1f 40 92 e8 ac 3f fd 6a a7 40 86 fe a3 40
       2.4902112 1.3508475 5.23181 5.1248198
000080 8e 39 cb 3e 7e 57 03 40 c7 e0 b4 be 10 06 81 3f
       0.39692348 2.052215 -0.35327742 1.0079975
000090 f6 f1 7a be 68 26 07 c0 a9 12 5b c0 36 0f fa c0
       -0.24506363 -2.1117191 -3.423014 -7.814357
0000a0 59 a3 eb c0 60 5e 5c c0 ac fa eb 40 91 7c 8f 40
       -7.36369 -3.4432602 7.3743496 4.483956
0000b0 a6 90 00 41 3d a5 62 41 11 9b 54 41 62 f3 b5 40
       8.035315 14.165341 13.287858 5.68596
0000c0 6f 93 11 41 5f 84 8f 40 13 f6 53 40 aa ad 10 40
       9.098495 4.4849086 3.3118942 2.2605996
0000d0 a6 0e e3 40 ea 8c ee 3f 5e dd 8f 40 5f f0 f0 be
       7.095538 1.8636754 4.4957724 -0.4705839
0000e0 76 50 8d c0 b0 a0 c9 3f b2 44 49 c0 62 17 3f 40
       -4.416072 1.5752163 -3.1448178 2.9858022
0000f0 4c 2c 84 c0 6a 6b be 3f 91 37 a1 c0 cb 82 00 40
       -4.1304073 1.487653 -5.038033 2.007983
000100 04 63 0c c0 39 46 95 c0 93 43 56 c0 52 7d c4 3f
       -2.1935434 -4.664822 -3.3478744 1.5350745
000110 8d 07 6a 40 57 10 ad 40 2e c5 30 c2 15 1e 47 c0
       3.6567109 5.4082446 -44.19256 -3.111211
000120 f3 69 db 3f 65 5e b3 bf f9 49 96 c0 b1 38 7a c0
       1.7141708 -1.4013182 -4.69653 -3.9097102
000130 10 ad cf c0 cf 51 78 bd f8 47 a2 3f c8 8d e5 bf
       -6.489876 -0.060624894 1.2678213 -1.7933893
000140 51 34 da 3f c6 0e 3c 3c 20 46 04 40 8c 49 d1 3f
       1.7047216 0.011478132 2.06678 1.635057
000150 92 18 67 bf b7 63 f7 3f 42 af b1 bf 28 32 ba 40
       -0.90271866 1.9327306 -1.388161 5.8186226
000160 80 91 2e c0 e1 35 09 40 b4 a0 94 c0 27 dd 1f 40
       -2.7276306 2.1439135 -4.644617 2.497873
000170 a9 c9 4c c0 97 b4 8a c0 11 02 37 bf 6a 78 b8 40
       -3.1998084 -4.3345447 -0.7148753 5.764699
000180 ea 3f 3d 3f 23 40 d0 40 3e a5 c0 c0 92 53 35 3e
       0.7392565 6.507829 -6.020171 0.17707661
000190 ab 6e 5d c0 53 1e b4 3f c1 aa ca be 6d d3 99 bf
       -3.4598796 1.4071754 -0.395834 -1.2017647
0001a0 f7 7f bd bf d0 73 a8 bf 94 92 3e be 57 95 2e c0
       -1.4804677 -1.3160343 -0.18610603 -2.727865
0001b0 d3 29 08 40 f2 cc e7 be 4c 3d 22 40 19 d3 8f bf
       2.1275527 -0.45273548 2.5349913 -1.1236297
0001c0 99 29 b6 40 a4 fe d6 3b 94 8b e8 40 2d df 47 40
       5.692578 0.0065611172 7.2670383 3.1229966
0001d0 c1 3d e2 3f af b1 0f bf 5f eb 34 40 b9 b7 0d c1
       1.7675096 -0.561305 2.826866 -8.857354
0001e0 2b 43 09 c0 28 e5 a0 c0 d6 45 1d 40 2f 90 ab 3f
       -2.1447246 -5.027973 2.4573874 1.3403376
0001f0 5d 09 3f 40 27 d6 d4 40 bd 50 4b 3e 37 25 89 3f
       2.9849465 6.6511416 0.19855018 1.0714482
000200 7b 5b 31 40 c8 b8 c2 3e d6 7c 82 40 ca 70 2e 3f
       2.7712085 0.38031602 4.077739 0.6814085
000210 e1 5f c7 3f 7d f9 13 c1 3d ae 19 c1 4a 5a 5b c1
       1.5576135 -9.24841 -9.605039 -13.709543
000220 03 8b 26 bf a7 8f 27 c1 b9 4a 51 c1 9b 6a 42 c1
       -0.65055865 -10.472571 -13.080743 -12.151027
000230 87 f6 35 41 6c 7b c3 40 72 0b 4a 41 7d 18 e8 40
       11.372687 6.108816 12.627794 7.2529893
000240 f3 c2 12 c0 50 89 cc be 5f 88 83 bf e2 84 ce be
       -2.2931488 -0.3994851 -1.0275992 -0.40335757
000250 c6 2d b6 3d ef 8b e3 bf 4b d3 b3 3f 9a 5f 4f 3e
       0.08895449 -1.7777079 1.4048856 0.20251313
000260 ef e8 62 3f 41 fd b7 be 30 2c 94 3f 03 e0 8f 40
       0.8863668 -0.35935405 1.1575985 4.496095
000270 b9 9a 9d 40 c0 1b 23 41 ef ef 94 40 6d fc bd 40
       4.925137 10.194275 4.654289 5.9370637
000280 eb a7 13 41 49 9e 1d c1 cb c7 4b c0 b0 bb 9d c0
       9.228496 -9.851144 -3.1840694 -4.929161
000290 eb b5 0b 41 ec a4 1e c1 29 66 b9 c0 2a b3 ac bf
       8.731914 -9.915264 -5.7937207 -1.3492177
0002a0 4f dc a7 bf b7 7c d3 3f 36 3d 78 3f e8 64 90 c0
       -1.3114108 1.6522435 0.969684 -4.5123177
0002b0 d1 6d 9d 40 3d a8 23 c0 ee 3b 9a 3f 6a 72 84 3e
       4.9196553 -2.5571434 1.2049539 0.2586854
0002c0 e5 4b 7d be ef a3 b5 bd 19 9f 01 bc 1d b9 e6 bd
       -0.24735983 -0.088691585 -0.007911467 -0.11265776
0002d0 6a 2f 6a 3e 32 1f fe be 43 11 4a c0 44 49 c7 40
       0.2286965 -0.49633175 -3.1573036 6.2276936
0002e0 da bf cc bf 16 e7 c9 c0 96 80 0a 41 50 b3 97 c0
       -1.5996048 -6.3094587 8.656393 -4.7406387
0002f0 5d 73 4f 3f 0e 34 ea bf ac db 89 40 ca 84 57 c0
       0.81035405 -1.8297136 4.3080654 -3.3674798
000300 61 b0 03 c0 78 b0 b8 40 10 a4 5f c0 b2 9f 49 3f
       -2.0576403 5.7715416 -3.4943886 0.787593
000310 45 83 53 3f 70 90 2b c0 e1 85 43 40 c2 8e 76 be
       0.82622176 -2.6806908 3.0550463 -0.24077895
000320 e5 53 24 c0 6b 7b 19 40 e8 4f 04 bf e4 85 8b 40
       -2.5676205 2.3981578 -0.5168443 4.360094
000330 b3 97 17 c1 e4 da 9e 40 2c d6 83 40 a8 a2 f7 c0
       -9.474536 4.96422 4.119894 -7.7386055
000340 8a 17 79 40 ad 9b a1 be b8 c0 9f be d1 83 3c 3f
       3.8920617 -0.31564084 -0.3120172 0.73638636
000350 c3 cf 90 bf 4f ad 85 3e 7e a7 83 3f d7 84 c4 bf
       -1.1313404 0.26108786 1.028549 -1.535304
000360 a1 ad 1e 3f 93 4c 17 c0 a9 5a c1 40 27 5e 76 c0
       0.61983687 -2.3640487 6.042317 -3.8494966
000370 63 ed 90 c0 9e 88 ed 40 f9 d4 4d c0 2d a3 f7 3e
       -4.528978 7.422927 -3.2161238 0.4836668
000380 23 ff c8 3f d7 93 03 bf f7 4f 76 3f a7 57 90 40
       1.5702862 -0.5139746 0.96215767 4.5106997
000390 15 7d 8c bf b0 36 82 3f f2 e1 2d 40 ea 77 2f 40
       -1.0975672 1.0172939 2.7169156 2.741694
0003a0 22 bd ea bf e7 b3 70 c0 38 8b 96 c0 80 89 dc 3f
       -1.8338969 -3.7609804 -4.7044945 1.7229462
0003b0 e7 0d 42 40 11 71 b4 40 a8 e8 ac 40 d8 60 e5 bf
       3.0320985 5.638802 5.4034004 -1.7920179
0003c0 ee 53 94 bf 3f d2 b5 c0 27 57 b0 3d 9b fc 57 40
       -1.1588113 -5.681915 0.08610373 3.3747928
0003d0 0c 69 ef 40 0b 69 b3 3f f8 60 53 bf ba 0d 2e 3f
       7.481573 1.4016432 -0.8256984 0.67989695
0003e0 22 9d d7 3f 8f 59 3a 3f 3e 85 8e 3f 2a 27 e1 3f
       1.6844828 0.72792906 1.1134412 1.7590077
0003f0 ed 72 27 c0 8b df 3a c0 cc e0 b3 bf da 0d 8c 40
       -2.6163895 -2.919894 -1.4052978 4.376691

bias f4 [11]
000000 f1 77 92 3b 24 83 ac bd 8b b8 07 3e b3 93 a6 bd
       0.0044698645 -0.084234506 0.13253991 -0.0813364
000010 5b 6b d5 3d 21 33 50 bc eb 51 ac 3b fb a4 d1 3d
       0.10420867 -0.012707503 0.005258789 0.10236546
000020 26 df 5d bb e3 14 48 be 3f c4 bb bd
       -0.003385493 -0.19539218 -0.0916829

weight f4 [11]
000000 91 f7 c8 40 d2 8f 36 41 78 c3 77 40 e1 bc 8a 40
       6.2802205 11.410112 3.8713055 4.3355565
000010 4e 2f 00 41 55 64 ba 40 7b 38 45 40 5b d2 aa 40
       8.011549 5.8247476 3.0815723 5.338178
000020 35 f8 86 40 68 da fa 40 d1 ff 9e 40
       4.2177987 7.839161 4.9687276

bias f4 [11]
000000 23 32 09 42 0a 44 1e c0 c3 e8 9a 41 53 61 e1 bd
       34.29896 -2.4729028 19.363653 -0.11004891
000010 9a 95 57 bd 8a 0d 85 bd 5a 8a 66 be 93 7f 0f bd
       -0.052632906 -0.06496723 -0.22513714 -0.035033774
000020 16 e4 78 40 ce 4f 89 bd ba 81 7f bd
       3.8889213 -0.06704675 -0.062379576

running_mean f4 [11]
000000 ca 11 db 41 0f 29 fa c1 da 70 45 c3 dd 0f 27 3f
       27.383686 -31.270048 -197.44083 0.6525858
000010 5c 25 cf 41 fe 10 4e bf e3 1a 5e c3 5c a4 0e bf
       25.893242 -0.8049468 -222.10503 -0.5571954
000020 e9 49 a5 c2 11 c0 11 c0 4e b2 83 3e
       -82.644356 -2.2773478 0.25721973

running_var f4 [11]
000000 87 72 fc 44 98 c4 fc 45 d1 8d 95 44 a7 0a ed 42
       2019.579 8088.574 1196.4318 118.520805
000010 81 01 79 45 ab a0 87 43 78 18 34 45 81 85 40 43
       3984.094 271.25522 2881.5293 192.5215
000020 c3 34 36 44 c1 8c a7 43 12 51 2c 43
       728.8244 335.09964 172.31668

weight f4 [16, 11, 7]
000000 2b 2b 9f bf 06 70 15 c0 4f 0a 7c bf 84 4d f7 3e
       -1.2435049 -2.3349624 -0.9845323 0.48301327
000010 3e f8 05 3f 5c 3f 74 bf 82 bb a1 be 2c 62 1e c1
       0.5233191 -0.9540918 -0.3158837 -9.898968
000020 be 0c cd c0 59 0a 23 c0 7c b7 8d 40 c6 a7 7d 40
       -6.4078054 -2.5475066 4.428648 3.963365
000030 c8 4d 5d c0 d0 e0 cd c0 8a 80 20 c0 16 63 28 c0
       -3.4578724 -6.433693 -2.5078454 -2.6310477
000040 63 d6 3a 40 38 1e 08 bf fc 8b 5f 40 0f 29 2b 40
       2.9193351 -0.5317111 3.492919 2.674381
000050 86 b0 0a c0 e5 1d 21 40 42 9c ea c0 a0 55 78 c1
       -2.1670241 2.5174496 -7.3315744 -15.520905
000060 2b db b0 c1 55 f4 ae c1 2e 8d 80 c0 95 82 81 40
       -22.107016 -21.869303 -4.017234 4.04719
000070 e8 ce ab c0 11 41 0c c1 4c 00 64 c0 16 16 a2 c0
       -5.369007 -8.765885 -3.5625181 -5.065196
000080 13 36 94 40 df f4 a5 3f 12 e2 eb bf a2 a1 ae bd
       4.631601 1.2965354 -1.8428366 -0.08526923
000090 1e 38 cd bf 60 bf c6 bf 28 51 78 bf d6 bb d9 3e
       -1.6032751 -1.5527153 -0.96998835 0.4252612
0000a0 9f cb f6 3f 56 87 dc 3f 29 9b e7 be 19 c6 3a c0
       1.928089 1.7228801 -0.45235565 -2.918341
0000b0 18 8e 5a c0 22 08 73 c0 ee 11 0a 40 3c 7b c1 40
       -3.4149227 -3.7973714 2.1573443 6.0462933
0000c0 42 c5 47 40 b6 8f 18 c0 ba d9 5c c0 8f 05 68 c0
       3.1214147 -2.3837714 -3.450789 -3.6253393
0000d0 70 dc 78 c0 e9 73 bf bf c7 4b a2 3e 84 d7 91 3f
       -3.8884544 -1.4957248 0.3169844 1.1393895
0000e0 08 81 20 40 85 cd a5 40 f3 fe 09 40 d8 d8 40 c0
       2.5078754 5.181338 2.1561859 -3.013235
0000f0 52 88 9b c0 09 1b 89 c0 92 48 24 40 29 90 2f c1
       -4.8603907 -4.28455 2.5669293 -10.972695
000100 f1 81 a0 c1 89 27 d2 c1 43 cc c7 c1 b2 87 54 c1
       -20.063448 -26.269304 -24.974737 -13.283129
000110 4c e9 5f be 39 62 2d 40 cf 29 61 c1 4c 50 ce c1
       -0.2186634 2.70912 -14.072707 -25.789207
000120 ff fb 01 c2 fb 09 fc c1 03 be 56 c1 77 8a 83 40
       -32.49609 -31.504873 -13.42139 4.1106524
000130 32 0b 69 40 6e 84 84 be 7c c2 1e bf 48 64 ce bf
       3.6413083 -0.25882286 -0.6201551 -1.6124353
000140 d0 43 84 3f 68 23 4d 3f bd 85 1d 40 ae 1b b2 bf
       1.0333195 0.8013215 2.4612877 -1.3914697
000150 18 65 0a c0 cc d0 da bf 4a b9 44 c0 c1 9e 37 40
       -2.1624203 -1.709497 -3.0738091 2.8690646
000160 ea 6e 04 41 0d e2 84 40 78 9c b2 c0 10 8d bf c0
       8.277079 4.152594 -5.5816 -5.9859695
000170 64 40 80 c0 1c 0d 78 bd 47 90 a1 c0 37 fa f7 bf
       -4.00786 -0.060559377 -5.048862 -1.9373235
000180 6a 9d 5a 41 1f 6d 5a 40 28 91 48 40 f5 f1 d4 40
       13.663431 3.4129102 3.1338596 6.654536
000190 ba d6 4b 40 3b 79 da c0 bc ac 8e c1 bb c6 b7 c1
       3.1849809 -6.8272986 -17.834343 -22.972036
0001a0 c7 a0 e7 c0 40 61 24 40 0b 76 8f bf 37 fc 02 c0
       -7.238376 2.5684357 -1.1207899 -2.046644
0001b0 9f e8 24 c0 3c 7f 72 40 18 7e 5c 40 45 71 f7 bf
       -2.576698 3.7890158 3.4451962 -1.9331442
0001c0 8f 1b cd c0 e8 17 5e c1 4c 44 8f c1 4b e2 93 c1
       -6.409614 -13.8808365 -17.908348 -18.485495
0001d0 8f 9b 8d c1 93 0d 9c c0 ec d7 0a 40 40 bb 2d 3f
       -17.700956 -4.876657 2.1694288 0.67863846
0001e0 66 10 20 40 81 49 8c bd a2 f8 0d c0 ec c1 cb c0
       2.501001 -0.06849957 -2.2183003 -6.367422
0001f0 1d 37 c3 3f c2 80 88 40 0a 3b e5 be 87 da c0 c0
       1.5251194 4.2657175 -0.44771606 -6.0266757
000200 76 9b 19 c1 cf 1c 35 c1 29 a6 8b c1 53 5a c3 c0
       -9.600454 -11.319533 -17.456133 -6.104776
000210 c2 77 24 3f 41 cb 38 3f 0c 36 a5 3f 3e 2e 37 3f
       0.64245236 0.7218514 1.2907119 0.71554935
000220 87 a8 2a c0 8f 4a 90 c0 fe 2c 2f c0 a8 ab da 40
       -2.666536 -4.5091014 -2.737121 6.833454
000230 bc 74 f8 c0 7a 83 6c c1 eb 7c b5 c1 bb 74 d0 c1
       -7.76425 -14.782099 -22.685995 -26.056997
000240 ba d9 e5 c1 f0 40 6c c1 47 8f 1d bf 0c 35 3d 3f
       -28.731312 -14.765854 -0.6154675 0.7390907
000250 fc a9 ff bf 5a 5f 1f c1 e8 f5 c4 c1 d2 f0 cc c1
       -1.997375 -9.960779 -24.620071 -25.617588
000260 c1 e3 88 c1 37 78 46 bf b3 68 f4 c0 ca a2 e1 c0
       -17.111208 -0.77527183 -7.6377807 -7.0511217
000270 83 d6 59 41 c7 14 3f c0 b0 c2 24 41 10 e5 3a c0
       13.614871 -2.9856431 10.297531 -2.9202309
000280 45 f6 54 c1 63 36 83 3f c5 e7 d2 c0 79 c1 79 c1
       -13.310124 1.0250973 -6.590792 -15.609735
000290 99 c6 a4 c0 95 39 7e c1 2c c8 9f bf d9 00 b3 bf
       -5.149243 -15.889058 -1.2482963 -1.3984634
0002a0 0a d6 a1 3f b5 73 09 3e b9 67 50 bf b8 84 0d 40
       1.2643445 0.13423045 -0.8140827 2.2112255
0002b0 25 c1 57 3f 5b e4 e2 be 1e 13 a8 bf 02 2c f3 bf
       0.8427909 -0.44314846 -1.3130834 -1.8997805
0002c0 85 f3 7f c0 da 63 36 c0 85 9c 6d c0 5f 33 3a bf
       -3.9992383 -2.8498445 -3.7126782 -0.72734636
0002d0 40 76 1e 3d b6 b8 13 bf e1 42 1d c0 75 ef 42 c0
       0.03868699 -0.5770372 -2.457207 -3.0458653
0002e0 81 d7 02 c1 2f c2 f1 bf 3b 81 4e c1 5e b0 c1 c0
       -8.177613 -1.8887385 -12.90655 -6.052779
0002f0 4e 82 ca c0 ca b4 3f 3e af 24 6f bf 73 57 30 c0
       -6.3284063 0.1872131 -0.9341535 -2.7553375
000300 c9 ab df bf fa 1c 08 3f 8f c1 da 3f 2e 61 07 40
       -1.74743 0.53169215 1.7090319 2.1153064
000310 1d 6f ed 3e e5 8e 6f c0 ae e1 2f 40 8c 55 42 40
       0.46373835 -3.7430966 2.7481494 3.0364714
000320 31 15 f9 3e a4 1e 87 40 ef 60 f2 c0 a9 69 6e bc
       0.4864898 4.2224903 -7.5743327 -0.0145515585
000330 c0 7e 70 be fc 47 68 3f fd fd bc 3d 3f 79 1d 40
       -0.23485851 0.9073484 0.09228132 2.4605253
000340 f9 95 04 40 f2 22 11 3f 0b dd 43 40 b0 29 5a 40
       2.0716536 0.5669395 3.0603664 3.4087944
000350 b2 ce c7 bf be 82 74 c0 a5 f3 9c c0 60 38 e1 bf
       -1.5609953 -3.8204799 -4.904742 -1.7595329
000360 06 ce ca 40 a3 71 67 3f 54 5c 83 3e fe d4 90 bf
       6.3376493 0.9040777 0.25656378 -1.1315
000370 df 52 46 3f e7 bb 1d 40 52 72 4b 40 56 8b 5c 40
       0.774702 2.4645936 3.1788526 3.4460044
000380 d7 19 22 c0 10 ef 1a c0 37 88 69 bf 54 00 83 be
       -2.5328271 -2.4208412 -0.9122347 -0.25586188
000390 8e b9 e5 3f dd 4a ac 3f 36 7f d0 3d 4c 90 10 40
       1.7947252 1.3460346 0.101805136 2.2588072
0003a0 0b 82 68 40 9e f0 3c c1 f8 d9 c4 40 86 c7 25 41
       3.6329372 -11.808744 6.1516075 10.361212
0003b0 0c 8d 5e c1 b1 b3 47 40 35 e2 6f 3e 27 d8 80 40
       -13.909435 3.1203425 0.23426135 4.026386
0003c0 27 e6 8e 40 9e 60 b2 c0 3b d6 a3 40 7a 24 e3 3f
       4.465595 -5.574294 5.119901 1.7745507
0003d0 06 20 2e c1 7c 23 29 c0 32 fd d4 be 24 4f db 40
       -10.882818 -2.6427908 -0.41599423 6.8534107
0003e0 8c 4b a9 c0 72 ba 76 bf 60 50 a8 40 45 47 2e c0
       -5.290472 -0.9637824 5.2598114 -2.7231
0003f0 28 99 51 3f b9 f0 fd 3e 6d fb 99 bf 33 d3 91 3e
       0.8187432 0.4959772 -1.2029854 0.28481445

bias f4 [16]
000000 63 64 9b 3d 24 56 dd bd 38 9f 59 3b b5 d5 51 bc
       0.075875066 -0.10807446 0.0033206474 -0.012807299
000010 39 02 7f bd 68 2c 2d 3d a9 b7 87 bc 58 11 cc 3d
       -0.06225798 0.042278677 -0.016567068 0.099642456
000020 d1 0f 94 bd fc 8a 5f 3d 2b e4 b3 bd fd 23 77 bd
       -0.07229579 0.054575905 -0.08783754 -0.060337055
000030 b5 7e b9 bb 64 26 bc 3d 97 b5 84 3d 2d 5a b1 bd
       -0.0056608566 0.0918701 0.06479948 -0.08659778

weight f4 [16]
000000 a3 b8 08 41 8c d1 1b 41 59 af 02 40 1c 39 0c 40
       8.545077 9.738659 2.0419524 2.1909857
000010 f7 6e e0 40 6f 19 19 40 54 09 05 40 b9 69 1b 40
       7.0135455 2.3921773 2.0786943 2.4283278
000020 1c 6d 3d 40 4c f8 69 40 d8 14 86 40 31 0f 66 40
       2.9597845 3.6557798 4.1900444 3.5946772
000030 5f 43 20 40 2e 9d 63 40 55 08 2a 40 e2 82 d6 40
       2.504112 3.5564685 2.6567585 6.703477

bias f4 [16]
000000 e7 8c 7f c0 c4 99 f1 c0 4a 40 2a 3d 26 c0 8c be
       -3.992975 -7.55002 0.041565217 -0.27490348
000010 bf fe 48 c0 5c e8 b8 be 2e 19 05 3e 0e df b8 be
       -3.1405485 -0.36114776 0.12997887 -0.36107677
000020 51 b2 99 c0 84 70 d1 40 f9 6a de 3e 84 c3 e7 3e
       -4.803017 6.544985 0.4344099 0.45266354
000030 40 f0 bd 40 e4 43 ce 3f ea 2b 3d 41 4c df b6 c0
       5.9355774 1.6114469 11.823221 -5.714758

running_mean f4 [16]
000000 be a8 18 c4 b5 ad 01 c4 5f fc ee c3 79 e0 85 c1
       -610.6366 -518.7142 -477.97165 -16.734606
000010 66 af c4 c4 4e 90 16 c1 0a c1 1d c2 8d 2b c5 c1
       -1573.4812 -9.410231 -39.438515 -24.646265
000020 f5 45 04 c4 f9 41 d3 41 f4 62 a5 c3 ea fc c2 c2
       -529.0931 26.407213 -330.77307 -97.49397
000030 f3 d4 2e c4 60 8d 09 c4 e7 8d 93 c1 1a 20 52 c3
       -699.32733 -550.209 -18.444288 -210.1254

running_var f4 [16]
000000 0a aa 68 48 ce d1 b1 48 1b 58 1a 46 61 45 35 45
       238248.16 364174.44 9878.026 2900.3362
000010 c0 fa ac 47 27 8e 4d 45 74 e4 0e 46 57 3b 88 45
       88565.5 3288.8845 9145.113 4359.4175
000020 af 41 29 47 ac db 38 47 19 10 ac 47 70 4b 05 47
       43329.684 47323.67 88096.195 34123.438
000030 6b 7d cf 46 f1 54 a3 47 1b 8a c4 47 a2 7e 08 47
       26558.709 83625.88 100628.21 34942.633

weight f4 [22, 16, 7]
000000 e1 ac 60 c0 fe 7b 28 c0 77 94 11 c0 93 81 31 bf
       -3.5105517 -2.632568 -2.2746866 -0.6933834
000010 92 4d a1 40 08 d0 fc 40 d7 ff c8 40 3a 66 09 c1
       5.040719 7.9003944 6.2812304 -8.587458
000020 a1 e4 44 c1 b0 bd 7c c1 20 2f 82 c1 34 e7 a1 40
       -12.305818 -15.79631 -16.27301 5.059473
000030 b3 bb 93 41 dc 6f 0b 42 6f d9 0c 3f ab 4c f1 3f
       18.46665 34.859238 0.5501928 1.8851522
000040 9b bc 29 40 f8 85 16 3f 2b 92 c2 bf 87 42 84 c0
       2.6521366 0.5879817 -1.5200857 -4.133121
000050 8b aa 0b c1 ca 60 a5 3e a1 78 f5 3e 4e 2f c7 3f
       -8.729136 0.32300407 0.47943595 1.5561311
000060 1d d0 b3 3e 6a 56 4e bf 23 fb 52 c0 e4 73 f0 c0
       0.35119715 -0.8060061 -3.2965782 -7.514147
000070 79 02 99 c0 6a 53 0c c0 42 8f 51 c0 75 9d 48 bf
       -4.781552 -2.1925912 -3.2743688 -0.7836526
000080 6a ef 2b 40 36 9a 12 40 7e c6 a3 40 d3 b7 1a 3f
       2.6864877 2.2906623 5.11798 0.60436743
000090 e7 ec 00 3f 42 ec 12 40 d9 dc b4 3f ec 6a 00 bf
       0.50361484 2.29567 1.4129897 -0.5016315
0000a0 3f f1 27 c0 6e c8 ef c0 b0 27 2f 40 a9 ed ff 3f
       -2.6240995 -7.4932165 2.7367973 1.9994403
0000b0 b2 af d0 3f 97 3f 40 3f 59 29 e1 bd 33 4e 84 be
       1.6303618 0.7509703 -0.109942146 -0.2584091
0000c0 20 cd d7 bf 1c 90 1c 3f d2 da 1e 3f 1c 0b fc 3f
       -1.6859474 0.61157393 0.62052643 1.969089
0000d0 54 a8 a1 3f df 25 5b 3e 09 3f c0 bf 3b 48 aa c0
       1.2629495 0.21401165 -1.5019237 -5.321317
0000e0 2b a2 87 c0 4c 53 be bf 55 7b e0 bf 58 97 1a 40
       -4.238546 -1.486917 -1.7537638 2.4154873
0000f0 3d 42 dc 40 14 61 be 40 6c e3 e2 40 1d 94 95 40
       6.8830857 5.9493504 7.0902615 4.67433
000100 65 d7 c8 3f 76 a0 05 40 26 5d 28 3f 1c 5f 34 c0
       1.5690733 2.0879188 0.65767133 -2.818305
000110 32 aa 03 c0 19 64 7d c0 8b 14 62 c0 1d b8 36 c0
       -2.057263 -3.9592345 -3.5325038 -2.8549874
000120 c8 40 a1 c0 f8 8b 17 3f 91 ac 38 40 72 67 90 40
       -5.039158 0.5919795 2.8855326 4.5126276
000130 fb 4e 4a 41 3c 57 c5 c0 63 ec a2 c0 a0 ea a9 c0
       12.644282 -6.1668987 -5.091356 -5.3098907
000140 f9 61 17 3f 3e 18 de 40 cf 40 1b 41 fd 8b 26 41
       0.5913387 6.9404593 9.703322 10.409177
000150 4c f5 33 40 ca b0 f6 3f 32 e8 44 40 eb 63 38 40
       2.8118467 1.9272702 3.076672 2.8810985
000160 c4 68 6d bf 73 f7 b0 be 2a 51 69 bf 27 66 81 c0
       -0.92737985 -0.3456379 -0.9113947 -4.04372
000170 d7 0a 77 c0 10 04 98 c0 e1 f4 4d c0 5d 49 cb 3f
       -3.8600366 -4.750496 -3.2180712 1.5881764
000180 4e ed 5a 40 f2 28 04 41 e4 d4 d1 bf 12 82 ad c0
       3.420734 8.259996 -1.6393094 -5.4221277
000190 3b 6f a1 c0 b2 bd be bf b2 d8 1c 40 d1 57 eb 40
       -5.044828 -1.490164 2.450726 7.35447
0001a0 d2 db 58 41 dc 55 9d c0 a0 62 da c0 f8 06 01 c1
       13.553667 -4.916731 -6.824539 -8.064201
0001b0 cf bc a6 bf 66 55 ad 40 37 ab 17 41 18 cf 82 41
       -1.302637 5.4166746 9.4793005 16.35112
0001c0 f1 84 a9 bf ad 26 1b 3f 0e 9c 92 40 d3 39 82 41
       -1.3243695 0.6060589 4.5815496 16.278234
0001d0 0a 15 18 c1 58 d2 0b c1 76 8f 86 c0 99 3b e4 3e
       -9.5051365 -8.738853 -4.2050123 0.4457672
0001e0 b9 5d 7c 40 05 af 95 41 c6 0c d9 41 c3 d1 da c1
       3.9432204 18.710459 27.131237 -27.352423
0001f0 79 13 8f c0 1c b3 bb bf 4f 85 8b bf e8 aa 75 c0
       -4.471127 -1.4664035 -1.0900058 -3.8385563
000200 d9 28 b6 c0 4a e1 ac 40 15 c5 8a 3f 57 59 86 bf
       -5.6924863 5.402501 1.0841395 -1.0496014
000210 77 06 57 bf 57 78 0b c0 ff 53 a6 c0 71 2e df c0
       -0.8399424 -2.17922 -5.1977534 -6.974419
000220 92 ea a7 40 e5 92 a2 3f 68 12 83 bf c6 e0 18 bf
       5.247384 1.2701079 -1.0239992 -0.5971798
000230 59 3b 80 c0 ed 37 10 c0 cb 5e 02 40 5f 88 4a bf
       -4.0072446 -2.2534134 2.0370357 -0.79114336
000240 5d 40 9d bf 2d 3d d2 3f 1d bf e2 bd 9c b1 ff bf
       -1.2285267 1.6424919 -0.11071608 -1.9976077
000250 06 89 8e c0 e9 dd 13 c1 09 2b c6 40 eb d5 94 3f
       -4.4542265 -9.241677 6.1927533 1.1627783
000260 5d 1a a2 bf 42 e1 4d bf 16 f9 4e 3f b7 f8 92 3e
       -1.2664295 -0.8042184 0.80848825 0.2870538
000270 df f7 90 bf bb d2 92 3e d0 ff 95 bf 08 76 12 bf
       -1.1325644 0.286764 -1.1718693 -0.5721135
000280 08 2e 9e be e3 cb e1 bf 25 bd 84 c0 07 34 1f c1
       -0.30894494 -1.7640346 -4.148089 -9.950202
000290 14 9c dd 40 6c 07 02 40 b6 df d2 bf 68 d9 51 bf
       6.9253025 2.031703 -1.6474521 -0.8197236
0002a0 62 ac 0f 3e c6 ab 87 3e c3 40 23 40 4d 38 ab 40
       0.14030603 0.2649824 2.5508277 5.3506227
0002b0 bd 79 37 c1 04 05 f8 bf e4 5a fb be 77 99 99 3f
       -11.467221 -1.9376531 -0.49092782 1.1999959
0002c0 98 39 7c bf 96 4f 7a bf bf 8e f8 bf 04 1c 57 40
       -0.9852538 -0.9777769 -1.9418563 3.361085
0002d0 d6 99 d7 bf 10 b1 64 3f 5f d6 33 40 be 21 3a 40
       -1.6843822 0.89332676 2.8099592 2.9083095
0002e0 7a 9c d7 40 53 fb d1 bf ee 43 16 c1 c9 71 7c 3f
       6.737851 -1.6404823 -9.391584 0.9861112
0002f0 04 7c 40 3f c2 ff 9b bf a5 a8 ac bf ab 70 0d 40
       0.7518923 -1.2187426 -1.3488966 2.2100017
000300 45 ad 60 40 22 05 7b c0 f2 a8 1f bf af d2 f4 bd
       3.5105755 -3.9221883 -0.62367165 -0.11954247
000310 83 dc f9 bf e9 b9 1b c0 f3 14 d1 bf 5d c6 d1 c0
       -1.952042 -2.433222 -1.6334518 -6.5554643
000320 18 a8 20 41 4a 1e 97 3f c9 8f 3b 3f d6 db df 3f
       10.0410385 1.1806118 0.73266274 1.7488964
000330 bf d4 ce 3f 87 5d 78 40 01 ea 87 40 b4 73 d6 c0
       1.6158675 3.8807085 4.247315 -6.701624
000340 9c 1c 53 c0 15 5a 6c bf 6a 50 3e bf a7 8d 31 3f
       -3.2986212 -0.92324954 -0.7434145 0.6935677
000350 53 05 11 41 ed 60 cc 40 9e 6c 34 c1 44 dc 3a c0
       9.0638 6.3868318 -11.276518 -2.919694
000360 9f 62 eb bd d5 44 0d 3f 4e c2 46 bd b8 55 60 41
       -0.1149342 0.55183154 -0.048525147 14.020927
000370 e9 71 b5 c0 30 7b 60 c1 10 79 93 3f 60 b3 7d 3f
       -5.670155 -14.030075 1.152132 0.9910183
000380 47 6d 61 bf 48 46 6e bf c3 0c 25 bf de f6 56 40
       -0.8805737 -0.9307599 -0.644726 3.3588176
000390 75 79 43 bd 6e a4 97 3f f3 d2 17 3f 49 ce aa 3f
       -0.047723252 1.1847055 0.5930626 1.3344203
0003a0 a4 7c 08 c0 31 0e cc c0 e7 15 47 3e 7f 93 6e c0
       -2.1326075 -6.3767323 0.19441949 -3.7277524
0003b0 b1 c8 46 bd c3 01 93 40 df ea 3b bf d7 63 23 bf
       -0.048531238 4.593965 -0.7340526 -0.6382422
0003c0 66 e5 f0 bf 15 e2 1c c0 71 ca a0 3e fe 04 ba 3f
       -1.8820007 -2.451299 0.3140445 1.4532773
0003d0 e9 42 c1 40 de fa 5c 3f dd 8f c3 3f a7 20 09 40
       6.0394177 0.8632029 1.5278279 2.142618
0003e0 67 f2 b2 3f 5a df f2 3f ed e4 b0 3f fb 05 9c 3f
       1.3980225 1.8974411 1.3819863 1.2189325
0003f0 3f 02 bb 3f 04 e0 e9 3f 28 1f 52 3e 25 4e cf 3f
       1.461006 1.8271489 0.20519698 1.6195723

bias f4 [22]
000000 c2 a4 e7 bc c7 e3 c5 bd 6a de 96 3c 33 2b 84 bd
       -0.028276805 -0.09662586 0.018416602 -0.06453552
000010 7b 8e 18 3d 60 60 82 3d 07 38 8a bd 11 d5 50 bd
       0.037245255 0.06366038 -0.067489676 -0.050984446
000020 b7 ac 9e bd 98 de d0 3c 53 45 7b 3c e5 7e 49 bd
       -0.077477865 0.025496766 0.015336352 -0.04919328
000030 75 b3 63 3d 2a 09 1b 3d 5d b9 ae bd 4f cf 93 bb
       0.055591065 0.037850536 -0.08531449 -0.004510797
000040 c8 9b 18 bd c4 7f 8c bc 8d 5b 53 3d 4d 51 eb bb
       -0.03725794 -0.017150767 0.05160098 -0.0071813227
000050 d9 1f 8e bd 9b 98 82 3d
       -0.06939668 0.063767634

weight f4 [22]
000000 84 ab 3e 40 c0 24 7e 40 fa 91 14 41 42 eb 4c 40
       2.9792185 3.970993 9.285639 3.201859
000010 ef b7 a7 40 f3 bc 34 40 66 aa a5 40 94 da 62 40
       5.241203 2.8240325 5.1770506 3.544591
000020 67 6e c3 40 ce 68 46 40 c7 b3 5f 40 8f 6e be 40
       6.107227 3.1001468 3.4953477 5.950996
000030 ce fd 5c 40 8b 7d bb 40 de 84 21 41 08 a1 8a 40
       3.452991 5.859075 10.094938 4.332157
000040 53 32 9a 40 46 41 95 40 24 dc 4d 40 f6 67 38 40
       4.818643 4.664218 3.2165613 2.8813453
000050 b3 9b 49 40 c2 9f 74 40
       3.1501281 3.8222508

bias f4 [22]
000000 16 97 0a 40 ee 80 39 c0 76 aa c8 c0 71 9f 9a 40
       2.1654716 -2.8984942 -6.270808 4.831963
000010 eb 05 e8 bf 67 4b 0c 3e e8 1f 57 c1 d3 c8 d8 bf
       -1.8126806 0.13700639 -13.44529 -1.6936287
000020 37 62 d2 be 15 5d ac 40 aa 2d fa 40 6b 79 4b c0
       -0.41090557 5.3863626 7.818074 -3.1792858
000030 88 18 e4 bf 9e b5 60 c0 8f 79 a9 41 55 23 1d c0
       -1.7819986 -3.511085 21.184355 -2.4552815
000040 2e 14 58 40 8b 5a 8d c0 cb 33 b5 bf f6 92 31 3e
       3.3762317 -4.4173026 -1.4156431 0.17341217
000050 e2 ee f2 bf 59 ac 34 c0
       -1.8979151 -2.8230193

running_mean f4 [22]
000000 52 98 46 43 16 36 23 c1 01 30 6f 43 5e 98 a3 c3
       198.595 -10.200705 239.18752 -327.19037
000010 02 d7 9b c2 90 35 8c c2 94 20 b6 3f c3 f3 5b c2
       -77.91994 -70.104614 1.4228692 -54.98805
000020 f5 0b ac c2 27 6b 1a 43 f1 31 7a 43 58 e5 b4 41
       -86.02335 154.41856 250.19508 22.611984
000030 f2 36 84 c2 61 f5 4f c2 00 a4 e1 c2 a5 b9 a3 c0
       -66.107315 -51.989628 -112.82031 -5.1164117
000040 87 de 9b c2 80 84 ac c1 82 02 9b c2 e7 ba ef 42
       -77.93462 -21.564697 -77.5049 119.86504
000050 82 7e 72 c1 30 7b a6 c1
       -15.155886 -20.81015

running_var f4 [22]
000000 b8 04 cd 45 a3 6f 1f 45 7d 8a 4f 47 39 e0 13 46
       6560.59 2550.9773 53130.49 9464.056
000010 f7 fe 29 46 5b 80 16 46 f3 b9 cb 44 ba e2 5d 45
       10879.741 9632.089 1629.8109 3550.1704
000020 62 1a 92 46 0a 2e 61 46 74 80 91 46 da af ad 46
       18701.191 14411.51 18624.227 22231.926
000030 11 ce 64 45 17 fd a7 46 93 5d 17 48 61 0e 82 45
       3660.8792 21502.545 154998.3 4161.7974
000040 df 83 21 47 25 6b 8f 45 fe 8b 3b 45 66 bb fd 45
       41347.87 4589.393 3000.7495 8119.425
000050 e7 6b 1d 45 95 c3 3a 45
       2518.744 2988.2239

weight f4 [32, 22, 7]
000000 ea 9c 90 c0 c6 2b 3f c0 29 cd 92 c0 cb 84 04 40
       -4.5191545 -2.9870467 -4.587544 2.070605
000010 e4 ad c9 40 53 2d 3a 40 23 7b 1c c0 90 8b 8c c0
       6.302477 2.9090164 -2.4450157 -4.3920364
000020 16 f9 fc bf 7c 0d c9 be 8f 41 6d 40 37 90 a6 40
       -1.9763515 -0.392681 3.7071264 5.2051044
000030 4b d7 b5 40 3b 7d c1 3f 0d 8b 14 c0 1c 6a 6f c0
       5.682531 1.5116342 -2.320987 -3.7408514
000040 37 01 dd bf cb 58 9f 3f ed 1f 08 41 07 14 cc 3f
       -1.7265996 1.2448972 8.507794 1.5943612
000050 b3 1f 2e 40 1b 98 78 40 37 a8 3c 3f 1c da 06 3f
       2.7206848 3.8842838 0.73694175 0.5267656
000060 05 9d 3f bf b6 a6 82 3e 87 6d e9 3f 51 f7 05 40
       -0.7484897 0.25517815 1.823655 2.09322
000070 86 a3 52 c0 85 46 20 c0 d8 70 04 c0 12 7f e8 bf
       -3.2912307 -2.5043042 -2.0693874 -1.8163779
000080 fe 26 13 40 a7 2b ae 40 5a 8e 40 40 ea ef fe c0
       2.299255 5.4428287 3.0086884 -7.9667864
000090 76 b2 d8 c0 83 1b 34 c0 5b 63 c2 3e 0c 70 0e 41
       -6.771785 -2.8141792 0.37966427 8.902355
0000a0 b3 5d 18 40 65 18 a5 bf 1d d7 eb c0 62 b2 4c c0
       2.380719 -1.289807 -7.370009 -3.1983876
0000b0 4d f8 8a bf 9e c2 18 c1 60 ec 04 3e 54 50 07 41
       -1.0857025 -9.547514 0.12980795 8.457111
0000c0 1c 82 c2 40 31 ee 59 c0 f8 1d e6 be 11 a0 8c bf
       6.0783825 -3.405163 -0.4494474 -1.0986348
0000d0 1e c0 dc 3f 3d fa 52 40 d2 d5 b9 40 26 30 8c 40
       1.724613 3.2965233 5.807351 4.3808775
0000e0 72 49 0f c0 18 c6 92 bf fb 30 43 c0 ed f4 77 c0
       -2.2388577 -1.1466703 -3.0498645 -3.874324
0000f0 dd b5 1f 3f a8 a9 66 3f 30 d6 09 3f 57 b5 d3 40
       0.62386876 0.90102625 0.5384245 6.615886
000100 d5 7b 5c 3f e0 8c 27 40 9b 8c a5 bf 61 a3 58 c0
       0.8612645 2.6179733 -1.2933534 -3.3849719
000110 9b a4 f4 3f c1 8f ec 3f 61 f5 78 40 99 61 0d 3c
       1.9112734 1.848137 3.8899767 0.008629226
000120 f3 ab f1 3e 06 63 52 40 75 89 26 40 8a fa 4b 40
       0.472015 3.287294 2.6021397 3.1871667
000130 49 6d 13 40 49 16 d9 bf 88 08 77 bf 9f 9e 38 40
       2.3035452 -1.6959926 -0.9649739 2.8846815
000140 3b 03 0f 40 85 66 e0 40 2d d9 6d 40 f5 eb aa be
       2.2345722 7.0125146 3.7163804 -0.33383146
000150 7e 9f 15 c0 67 e2 b6 be 14 91 a6 bf f0 94 a9 3f
       -2.3378596 -0.35719606 -1.3013024 1.3248577
000160 23 0b 1b 40 92 2d be 40 d0 0d 9f 40 1a 46 81 c0
       2.4225547 5.943063 4.970436 -4.0398073
000170 97 6f 92 c0 7a be 78 c0 11 2f db bf 5d 55 c9 3f
       -4.576122 -3.8866258 -1.7123739 1.5729176
000180 e1 f5 b3 40 af 40 1a 40 40 5e 6b 41 7d 35 e2 40
       5.6237645 2.410198 14.71051 7.0690293
000190 f1 38 8c 40 2f d2 49 c0 db 03 fc c0 10 11 45 c1
       4.381951 -3.1534536 -7.8754706 -12.316666
0001a0 d1 74 5d bf c2 c7 79 c0 cb 5e 26 c0 92 4b f3 3e
       -0.8650637 -3.9028172 -2.5995357 0.47518593
0001b0 bc 49 31 40 dd 92 a7 40 31 53 df 40 dd d1 71 3d
       2.7701254 5.2366776 6.978905 0.05903803
0001c0 b1 79 3d 40 38 11 73 40 fb d0 56 40 b4 16 52 bf
       2.9605525 3.797926 3.3565052 -0.8206589
0001d0 a0 df 2f c0 b7 85 71 c0 6b a3 0c c0 69 71 0c c1
       -2.748024 -3.7737863 -2.1974742 -8.777688
0001e0 42 5d d9 c0 47 e3 b2 c0 b9 c2 90 c0 3d 07 2e c0
       -6.792634 -5.590244 -4.52377 -2.7191918
0001f0 d4 8f ed 3f c2 b4 6d 3d 6a ec 1e bf 5e 75 64 bf
       1.8559518 0.058033712 -0.6207949 -0.8924159
000200 80 ce 3c 3f 82 d0 b5 3f f5 25 aa 40 f8 62 e1 40
       0.73752594 1.4204257 5.3171334 7.043331
000210 67 6b 3a 40 5c e0 c9 be f0 c8 31 bf a3 3b 15 bd
       2.9128053 -0.39428985 -0.6944723 -0.036433827
000220 d7 2a 23 c0 a3 31 0c 3f 4b 81 06 bf ef 87 7e c0
       -2.5494897 0.5476324 -0.52541035 -3.9770467
000230 b5 19 80 bf 87 ad 00 40 a6 a6 39 40 20 cb bc 40
       -1.0007845 2.0105913 2.9007964 5.8997955
000240 82 40 cb 40 26 ba 41 40 d0 ba d2 3f a3 b9 5e c0
       6.3516245 3.0269866 1.6463261 -3.4800804
000250 c9 5c 88 bf 3b 98 db 3d 22 e6 81 40 77 45 de 40
       -1.0653316 0.10722395 4.0593424 6.9459796
000260 e9 7d 86 40 dc 3e a6 3f ee 41 4c bf a3 e7 fc c0
       4.20287 1.2987933 -0.797881 -7.903276
000270 1c 38 29 c1 54 47 ec c0 b2 da 69 c0 d8 1b 84 40
       -10.576199 -7.383707 -3.653973 4.128399
000280 6b c4 15 41 08 0b 7e 40 af 63 f2 40 7b 3c 17 41
       9.360454 3.9694233 7.5746684 9.452266
000290 82 1a 2f 41 33 d0 94 c0 6a ec 9a c0 f5 d1 ae 3f
       10.943972 -4.650415 -4.841359 1.3657824
0002a0 2b 66 fe 3f dc 91 31 c0 40 a8 02 3f a0 a9 40 40
       1.9874929 -2.7745275 0.5103798 3.010353
0002b0 1b 26 e2 3f a4 bc c7 40 0b 78 a4 40 fd 2e 96 bf
       1.7667879 6.2417774 5.1396537 -1.173309
0002c0 6c 2c 68 c0 4c ef 25 c0 b3 ae 01 40 d0 f1 00 3e
       -3.6277113 -2.5927305 2.0262878 0.12592244
0002d0 b0 e5 ac 3f 81 be f5 bf f7 72 84 40 55 83 72 40
       1.3507595 -1.9198762 4.139034 3.7892659
0002e0 b5 79 51 40 97 76 eb 3d 0a 3e 89 c0 e9 88 c5 bf
       3.2730534 0.114972286 -4.288823 -1.5432407
0002f0 ca 7d 0d 41 83 c9 53 40 93 30 0a c0 00 14 49 40
       8.84321 3.3091743 -2.1592147 3.1418457
000300 04 e6 62 40 97 6d 13 40 2d 78 bb 40 0d b0 cc bf
       3.545289 2.3035638 5.85842 -1.5991226
000310 fc 77 79 c0 fe 67 96 40 5a 20 c7 40 35 49 39 c0
       -3.8979483 4.7001944 6.222699 -2.8950932
000320 36 98 cf c0 94 1c 79 40 4c e0 82 40 b3 5d 2a 40
       -6.4873304 3.8923693 4.08988 2.661969
000330 9f ce 9f 40 b6 35 d8 40 6f 27 73 40 32 88 32 c0
       4.9939723 6.7565565 3.7992818 -2.7895627
000340 db 31 5b 3f 70 e5 a0 40 a3 ec 7d c0 5c fe 1b c1
       0.8562295 5.0280075 -3.9675682 -9.749599
000350 05 e3 19 c1 2f 6a dd c0 cd 83 d3 bf ad 19 a1 40
       -9.617925 -6.919212 -1.6524597 5.0343843
000360 fa b3 c3 40 6e 90 03 c1 f8 7f 88 c0 03 95 4b 3e
       6.11572 -8.222761 -4.265621 0.19881062
000370 bd a1 66 bf 22 d1 5a 40 ef fe a9 40 11 e7 46 c0
       -0.90090543 3.4190145 5.31237 -3.1078532
000380 63 eb 8f 40 96 eb 36 bf ea dc 8c 40 89 b1 21 41
       4.4974837 -0.71453226 4.401967 10.105844
000390 5c 25 ba 3e 7f 73 a0 c0 ac dd bd c0 f1 5c 23 c0
       0.36356628 -5.0140986 -5.9333096 -2.5525477
0003a0 1a a5 a6 bf 93 f9 c7 40 54 59 b9 bf e9 3f f5 be
       -1.3019135 6.2492156 -1.4480386 -0.47900322
0003b0 66 01 47 40 0c d1 44 40 a0 d3 84 bf 52 e5 33 40
       3.1094604 3.0752592 -1.0377083 2.8108716
0003c0 96 bc ab 3f 02 79 89 40 e6 21 08 40 39 ce 8a bf
       1.3416927 4.2960215 2.127069 -1.0844184
0003d0 18 a6 c4 40 4e 16 3d bf 35 aa 98 3f ac 8b b9 be
       6.145275 -0.7386216 1.1926943 -0.36239374
0003e0 17 1c ff 3f 9f 5b db 3e b1 5d 4b 3e 4d 96 a7 bf
       1.9930447 0.4284334 0.19859959 -1.3092743
0003f0 26 a3 d7 40 f9 91 ca 40 64 ad 10 c1 14 e8 f4 bf
       6.7386656 6.330319 -9.042332 -1.9133325

bias f4 [32]
000000 bc 8f 4d 3d ab 42 08 3d 63 29 5c bd 45 fd a1 3d
       0.050185904 0.033266705 -0.053750407 0.079096355
000010 30 29 a1 bd d4 fb 65 bd 1e 6e 46 bd 2f 87 ae bc
       -0.07869184 -0.056148365 -0.04844486 -0.021304695
000020 67 58 11 3d 3a 0a 8a 3c e1 0c 8d bd c4 45 a0 3d
       0.035484698 0.01685058 -0.06887222 0.07825807
000030 c2 4f 9c 3d 40 7c 21 3d e4 2a a1 bd 7e 32 3b 3d
       0.076324 0.039425135 -0.07869509 0.04570245
000040 45 31 be 3c c9 c2 23 bc 83 3c 89 bd ef 60 8b 3d
       0.023216853 -0.009995171 -0.06700995 0.06805598
000050 3a f6 bd bc 14 43 82 bd 90 dc 7d 3d fc 26 04 3d
       -0.023188699 -0.063604504 0.061977923 0.03226374
000060 e5 8f cb 3c fa c1 55 3d 13 3c df 3c 15 67 8d bc
       0.024848888 0.052186944 0.027250325 -0.017261067
000070 e0 32 5b bc ec 9b 88 3d 03 e6 17 bb c7 44 8a bd
       -0.013378829 0.06670365 -0.002317787 -0.067513995

weight f4 [32]
000000 5b 10 12 41 55 2b 82 40 7f ff 84 40 3e 64 c4 40
       9.128993 4.0677896 4.1561885 6.1372366
000010 74 2a 22 41 6d 80 a7 40 dc 18 a7 40 64 a5 b1 40
       10.135365 5.234427 5.2217846 5.5514393
000020 ed 9e ec 40 06 01 89 40 c5 af 0a 41 8a 79 7d 40
       7.3944 4.281375 8.6679125 3.9605432
000030 aa d6 a3 40 89 9c ad 40 f3 96 84 40 e5 f8 b2 40
       5.119954 5.4253583 4.1434264 5.5928826
000040 a0 28 da 40 fc 47 91 40 2d be 88 40 cd 0d 97 40
       6.817459 4.540037 4.273215 4.7204347
000050 0b a0 a1 40 e8 e3 91 40 46 1f bc 40 6d 1d 49 41
       5.0507865 4.5590706 5.8788176 12.569684
000060 22 65 b3 40 ec a5 87 40 d6 3b 8d 40 a1 19 e9 40
       5.6060953 4.239004 4.413554 7.2843785
000070 c2 26 c1 40 b4 72 a6 40 94 92 a2 40 83 8e e4 40
       6.035981 5.201502 5.080393 7.1423965

bias f4 [32]
000000 eb 88 88 40 40 8f b0 40 91 52 b4 3f b2 ed cb c0
       4.2667136 5.5174866 1.4087697 -6.3727655
000010 90 dd 42 40 3e 53 ce be 8a be 2d bf c4 7e ca 3e
       3.044773 -0.40297884 -0.67868865 0.3954984
000020 00 ce a1 c0 3c d4 7b 40 b1 30 2b c1 16 fd 45 40
       -5.0563965 3.9348288 -10.699388 3.0935721
000030 76 93 92 be 60 68 9b 3f 03 81 c0 3e 63 6e e7 40
       -0.2862813 1.2141228 0.37598428 7.232225
000040 96 53 f7 bf ee 2f b0 3f f2 c4 54 bf 5e 0a 8d 40
       -1.9322383 1.3764627 -0.83113015 4.4075155
000050 c0 1e a7 bf f9 cd 2c c0 44 4d 43 bf 50 3a ea bf
       -1.3056259 -2.7000716 -0.76289773 -1.8299046
000060 d5 05 52 3d 1e 2b d6 3f 64 0d e3 bf 85 c2 c6 bf
       0.051275093 1.6731908 -1.7738461 -1.5528113
000070 ff 31 64 c0 34 e0 58 bf 90 a8 58 3f 8b 27 d3 c0
       -3.5655515 -0.84717107 0.84632206 -6.598577

running_mean f4 [32]
000000 59 42 4d 43 64 f2 a9 42 c7 81 da 42 1f db f7 c0
       205.25917 84.97342 109.25347 -7.745498
000010 ef 8d fc 42 d5 78 6b c3 5d 9f b0 c2 b3 e2 d2 c2
       126.277214 -235.472 -88.31126 -105.44277
000020 6b 24 52 c3 8b 0a 22 42 02 b2 d1 c3 51 85 17 43
       -210.14226 40.510296 -419.3907 151.52077
000030 7e 0c 1d c2 f3 35 b9 42 07 16 c8 42 59 77 68 c2
       -39.2622 92.60537 100.04302 -58.11655
000040 87 3b c6 bf 1b 50 0d 44 91 83 00 c2 2e 6a 58 43
       -1.5486916 565.25165 -32.128483 216.41476
000050 49 c6 b5 c2 98 ff 20 c3 3a f6 34 c2 ba b9 5a 43
       -90.887276 -160.99841 -45.240456 218.7255
000060 c3 6c f6 c1 be 28 81 c3 a9 31 9a 42 af 33 b3 42
       -30.803106 -258.3183 77.09699 89.600945
000070 5f 2c 49 43 a6 3a d6 c2 15 00 7a 43 34 5c 36 c3
       201.17332 -107.11455 250.00032 -182.36017

running_var f4 [32]
000000 f8 fe 4a 47 46 ed ba 46 1c 9f fe 46 24 e8 e2 46
       51966.97 23926.637 32591.555 29044.07
000010 a0 11 43 47 d6 f4 bb 46 07 35 95 46 e5 e6 8b 46
       49937.625 24058.418 19098.514 17907.447
000020 e7 47 b0 46 38 e5 ea 46 d2 83 29 47 62 7d 60 46
       22563.951 30066.61 43395.82 14367.346
000030 1e 09 8e 46 78 d9 04 47 93 78 05 46 b6 f2 30 47
       18180.559 34009.47 8542.144 45298.71
000040 25 04 17 47 54 55 87 46 10 ed 7a 46 07 51 e3 46
       38660.145 17322.664 16059.266 29096.514
000050 91 d0 79 46 f4 a6 27 46 7e 53 18 47 83 2f 87 47
       15988.142 10729.738 38995.492 69215.02
000060 9e 64 c1 46 6d a6 65 46 19 b8 7c 46 fa 11 b2 46
       24754.309 14697.606 16174.024 22792.988
000070 6f 49 95 46 a0 ca 65 46 28 44 8e 46 0d 01 31 47
       19108.717 14706.656 18210.078 45313.05

weight f4 [32, 22, 7]
000000 ee c1 47 c0 db 1c e1 c0 1c 3e 01 c1 09 c5 cb bf
       -3.1212115 -7.0347724 -8.077663 -1.5919505
000010 37 15 8d c0 07 13 bf c0 1d 02 1c c1 5d 40 06 41
       -4.4088397 -5.9710727 -9.750516 8.390714
000020 51 e1 1c 41 96 a2 46 41 f9 85 09 40 37 de 85 40
       9.805009 12.414694 2.148802 4.183376
000030 6a 4b 63 40 e8 82 b2 40 17 65 18 bc ee 17 2a c0
       3.551478 5.57848 -0.009301445 -2.6577106
000040 2d b5 7b c0 23 c2 7e 3f 74 9d b8 be b8 5a ec c0
       -3.932933 0.9951498 -0.36057627 -7.386074
000050 ce 3b 7d c0 54 63 ae c0 0a bf 4b bf 29 e2 ea 40
       -3.9567752 -5.449625 -0.7958838 7.3401074
000060 df 92 35 41 84 06 38 41 f9 b2 b9 3f 73 b7 20 40
       11.348357 11.501591 1.4507743 2.5111969
000070 d5 65 01 c0 b7 42 13 be 82 ff 37 40 a1 71 65 40
       -2.0218403 -0.14380918 2.87497 3.5850604
000080 c8 34 07 40 d3 87 a1 40 56 29 84 40 7f 71 36 c0
       2.1125965 5.04783 4.130046 -2.8506773
000090 86 73 47 40 f1 71 ca 3e cd bd 69 3f 02 09 49 40
       3.116426 0.39540055 0.9130524 3.1411748
0000a0 f6 6b fe bf 32 3f 8d 40 70 f1 31 41 86 8f bf 40
       -1.9876697 4.4139643 11.121445 5.98627
0000b0 d5 af 0b 41 9c 53 30 41 ea 12 02 41 13 99 b4 40
       8.730428 11.020412 8.129618 5.643686
0000c0 3c 58 12 41 e9 0c 31 c0 a8 16 c6 bf 97 51 02 41
       9.146542 -2.766413 -1.5475664 8.144919
0000d0 57 dd 8a 3f 8a d4 dd 40 94 1d 2c 40 37 d7 f3 3f
       1.0848798 6.9321947 2.6893053 1.9050053
0000e0 cb c4 8d c0 17 b9 c5 bf ec 26 bd 3e 32 24 d9 c0
       -4.4302726 -1.544711 0.36943758 -6.7856684
0000f0 a2 f8 0b c1 0a d1 bd bf 81 b1 86 40 59 77 fa be
       -8.748201 -1.4829419 4.209168 -0.4891918
000100 d0 fe a0 c0 a2 b0 1a c0 30 28 86 c0 6a de cc bf
       -5.031105 -2.4170308 -4.1924057 -1.6005375
000110 2e 7e ec bf e0 cb 72 3e c1 a2 7f 41 41 8b 7f c0
       -1.8476007 0.23710585 15.977235 -3.9928744
000120 fc be 7d 40 35 42 a5 c0 7e 5a 49 40 4a 53 8d c0
       3.9647818 -5.164332 3.1461482 -4.416417
000130 0e 30 df c0 3e bc 94 3f 73 17 59 3f 37 0a fc c0
       -6.974616 1.1619947 0.84801406 -7.876247
000140 af c0 d2 40 9e d2 94 40 ab 3b 27 40 55 81 2f c1
       6.586021 4.65071 2.6130168 -10.969075
000150 37 af 99 be c1 3c 25 c0 ef c8 8b 40 79 e5 40 c1
       -0.3001649 -2.5818331 4.368278 -12.056024
000160 17 4e d0 3e 58 56 8e c0 32 ab 38 40 be 44 8d c0
       0.40684578 -4.44804 2.885449 -4.4146414
000170 f6 ea 01 c1 1d cc 25 c0 47 f8 48 40 df 4c 96 3f
       -8.1198635 -2.590583 3.1401536 1.1742209
000180 ce 3d 92 bf 38 ed 7d bd c0 71 f7 bd a6 14 07 c1
       -1.1425111 -0.061993808 -0.12082243 -8.442541
000190 bf 06 09 c1 67 0e 42 c0 63 ee e9 bf 8a ea f0 bf
       -8.564147 -3.032129 -1.8275875 -1.8821576
0001a0 91 bc b8 c0 43 46 97 c0 3b 10 b2 c0 9c 06 89 c0
       -5.7730184 -4.727327 -5.5644813 -4.282057
0001b0 8d 83 e8 c0 7c 76 66 c1 72 08 ea c0 43 c3 7d c1
       -7.2660584 -14.403927 -7.313531 -15.860171
0001c0 b9 42 c7 40 97 c3 9a 40 28 c1 bf 3f 2d e4 7f be
       6.226895 4.8363757 1.4980822 -0.24989386
0001d0 b1 43 f2 c0 8b ac 63 c0 3c ae 12 40 c3 ea 0f c0
       -7.570763 -3.5574062 2.2918844 -2.2487037
0001e0 93 7b a9 c0 05 77 32 40 54 f2 54 40 6a 74 2f 40
       -5.2963347 2.7885144 3.3272905 2.7414804
0001f0 da f3 6b 40 c4 6a ab 40 82 29 08 c1 96 fc 91 3d
       3.6867585 5.356783 -8.510134 0.07128255
000200 cb 9c 55 40 58 1c 1a c0 6e f0 06 41 5f 9d a0 3f
       3.337695 -2.40798 8.433699 1.2548026
000210 85 1c 81 40 57 74 48 c0 41 62 3e 40 6f ae 38 bf
       4.0347314 -3.1321008 2.974747 -0.72141165
000220 d1 69 a9 c0 aa 62 cf c0 8f 46 6f 3e e4 1c 89 3f
       -5.294167 -6.480794 0.2336676 1.0711942
000230 41 6a 04 40 35 17 99 3e 68 ee 8e 3f d6 aa 6d 40
       2.0689852 0.29900518 1.1166506 3.713552
000240 5e 40 1e c0 ee bf 03 be 8c ee 30 c0 a5 21 83 3d
       -2.4726787 -0.12866184 -2.7645597 0.064029016
000250 a1 72 a9 40 c5 51 af c0 74 14 a9 3f 33 9f d9 3f
       5.295243 -5.4787316 1.3209367 1.7001709
000260 c5 0b 57 c0 70 36 6c 40 96 e2 1b c1 b9 87 65 3f
       -3.3600934 3.6908226 -9.742819 0.8966022
000270 ec 02 d1 c0 06 3f aa 3e 88 b9 e5 3f d7 27 fa 40
       -6.5316067 0.33251208 1.7947245 7.8173633
000280 da 28 8f 40 fe 64 e1 40 98 f3 85 3c bd 5e fc c0
       4.473737 7.043578 0.016351506 -7.8865647
000290 75 18 a5 c0 c1 11 39 c0 f4 00 9e 3f d8 cc 63 c0
       -5.1592355 -2.8917086 1.2344041 -3.5593777
0002a0 4c 20 85 40 b7 ad b2 c0 6e 36 ee be 24 ff 2f bf
       4.1601925 -5.5837054 -0.46525902 -0.6874869
0002b0 49 1c fb 40 24 d5 c9 40 af c2 30 41 c5 d9 a5 40
       7.847203 6.307268 11.04753 5.182833
0002c0 d6 9d a7 40 43 51 a7 c0 1b 6c e4 bf 85 f6 a3 40
       5.238017 -5.2286696 -1.7845491 5.1238427
0002d0 7a b4 a9 40 42 bf e2 3e a9 97 d9 bf c5 20 89 c0
       5.303281 0.44286543 -1.6999408 -4.28525
0002e0 a0 51 b6 c0 e2 e2 f8 c0 6f 38 f6 c0 9a 72 0b c1
       -5.697464 -7.7776957 -7.694389 -8.715479
0002f0 86 15 a1 c0 12 91 4b c0 70 d2 6c c0 2c 9c a2 bf
       -5.0338774 -3.1807294 -3.700344 -1.270391
000300 1f 26 f7 c0 c1 fc 67 c0 bf bf 51 c0 27 f9 26 c1
       -7.7234035 -3.6248019 -3.2773283 -10.435828
000310 03 99 3a 3e 84 3e ac bf fa d9 29 bf 45 bd 95 3f
       0.18222432 -1.3456578 -0.6634823 1.1698385
000320 5e 5a 13 c0 88 77 b1 3f ce 95 13 c0 99 24 21 c0
       -2.3023906 1.3864603 -2.3060184 -2.5178587
000330 ac 11 7c 40 8f 66 c4 40 4e 82 40 40 71 37 27 c0
       3.9385786 6.1375194 3.0079532 -2.6127589
000340 4a 58 e5 3f 74 9c d4 3f 49 64 23 3f 29 13 a9 3e
       1.7917569 1.6610246 0.638249 0.3302243
000350 8b 4f 39 c0 92 93 33 c0 c1 6b 9b c0 e2 63 dd c0
       -2.89548 -2.805882 -4.8569036 -6.9184427
000360 7d 0a ae c0 0c d6 47 40 fd 5e 51 40 9f 52 63 40
       -5.4387803 3.1224394 3.2714226 3.5519178
000370 a1 5e cc bf 62 4f 03 c0 94 bd 52 c0 2c bd 62 c0
       -1.5966378 -2.0517201 -3.292821 -3.5427961
000380 22 f7 53 c0 e1 bb a5 c0 57 cc a5 3e 6b 1e 0d c1
       -3.3119588 -5.1791844 0.3238246 -8.819926
000390 79 a2 00 40 a9 5d 40 c1 10 d4 30 bf 40 2d 44 bf
       2.0099165 -12.022866 -0.6907358 -0.76631546
0003a0 76 35 a5 3e ac d9 83 c1 7c 6e b6 40 de b6 60 3f
       0.3226735 -16.481285 5.700987 0.87779033
0003b0 ff 15 b9 bf 58 ef b3 c0 5c 5c d4 bf c2 38 0a c1
       -1.4459838 -5.622967 -1.6590686 -8.638857
0003c0 79 08 05 41 e3 d6 ad c1 0e bb 93 40 54 21 1d c1
       8.3145685 -21.729925 4.616584 -9.820637
0003d0 78 6f cd 40 9c 66 80 c0 a0 17 cb 40 b5 93 79 bf
       6.419857 -4.0125256 6.346634 -0.9749101
0003e0 0d 76 5f bf d3 ac 46 3f 9a ee 63 bf 4e 2b 21 3e
       -0.87289506 0.7760746 -0.8903595 0.15739176
0003f0 ee fd 07 c1 73 9a a8 c0 2e a2 cb 3f 84 b7 84 40
       -8.499495 -5.2688537 1.5908868 4.147402

bias f4 [22]
000000 cf 0f a0 3d e7 5b 8f 3d 3d 4a 1d 3d bd 8e ee bc
       0.07815515 0.06999951 0.038400877 -0.029120797
000010 96 24 de bc 54 33 47 3d 9d 38 84 3d c2 d8 a1 3d
       -0.027117055 0.048632935 0.064561106 0.079026714
000020 10 23 18 3d a2 33 fc bc 25 6a 12 bd e6 36 9e 3d
       0.037142813 -0.03078634 -0.03574576 0.07725315
000030 74 29 6c bd 34 1c 8c bd 3d e4 23 bc 54 48 78 bc
       -0.05765672 -0.06841317 -0.010003147 -0.015153963
000040 ed f5 24 3d ad 89 61 bd 03 89 90 bc 9f 7a 81 bd
       0.040273596 -0.05506294 -0.017643457 -0.06322216
000050 36 9a 5b 3d 8a fb 95 3c
       0.053613864 0.01830842

weight f4 [22]
000000 91 7b b2 40 c4 70 0e 41 f9 ad c4 40 9b d6 76 40
       5.577584 8.902531 6.146237 3.8568485
000010 f9 86 8a 40 0d 75 9d 40 69 a4 0d 41 d7 38 cf 40
       4.328976 4.9205384 8.852639 6.4756885
000020 bc 22 c7 40 7c 7f c4 40 53 13 98 40 0a 46 1f 41
       6.22299 6.140562 4.752359 9.954599
000030 c1 05 c7 40 45 3f 37 40 03 b9 6d 40 19 85 94 40
       6.2194524 2.8632367 3.7144172 4.6412473
000040 5f c5 b1 40 f7 2e 78 40 7b f2 bc 40 f3 40 ba 40
       5.555343 3.8778665 5.9045997 5.8204284
000050 10 ce d6 40 3e 5d b8 40
       6.712654 5.761382

bias f4 [22]
000000 6d a1 d9 bf cf 02 93 c0 b5 c1 9f c0 73 0e 0b 40
       -1.7002388 -4.594093 -4.992396 2.172757
000010 6a 93 2c c0 60 79 44 40 6c f2 bc 3f f5 f1 89 40
       -2.6964974 3.0699081 1.4761481 4.310786
000020 18 86 04 c1 51 91 13 c0 2f 59 03 c0 ec a3 33 c0
       -8.282738 -2.3057444 -2.0523183 -2.80688
000030 74 11 49 c0 ec cf 46 3f 26 4c 24 3e e0 7c 4a c0
       -3.1416903 0.77661014 0.16044673 -3.1638718
000040 9f d9 51 c0 5c b5 7f bf de 3b 59 c0 0c d4 3f c0
       -3.2789075 -0.9988611 -3.394279 -2.9973173
000050 d4 44 2f c0 c5 fb d0 bf
       -2.738576 -1.6326834

running_mean f4 [22]
000000 8e ff 33 c2 61 46 b8 c2 58 fa 27 c2 92 03 2c 43
       -44.999565 -92.13746 -41.994476 172.01395
000010 ed e2 4d c3 15 fa 98 42 31 15 da 41 36 d1 65 c1
       -205.88643 76.48844 27.260347 -14.363577
000020 4d 91 30 c3 b9 bc 6f c3 ac c3 e1 c2 a2 23 de c2
       -176.56758 -239.7372 -112.88217 -111.069595
000030 80 dc 30 c3 97 74 85 42 48 a7 21 c1 5a e1 dd c2
       -176.86133 66.727715 -10.10334 -110.94014
000040 c2 75 29 c2 bc 47 00 c3 8d 70 7e c3 61 c8 71 41
       -42.364998 -128.28021 -254.43965 15.111421
000050 06 60 f0 c1 ce cd c7 c2
       -30.046886 -99.90196

running_var f4 [22]
000000 9e f6 e7 46 f5 72 62 46 fc 78 04 47 c9 84 8a 46
       29691.309 14492.739 33912.984 17730.393
000010 c7 50 85 46 dc b7 f6 46 d6 b6 b1 46 05 02 28 47
       17064.389 31579.93 22747.418 43010.02
000020 73 f6 b2 46 3d 76 17 47 eb 2a 99 46 6b 7e 5e 47
       22907.225 38774.24 19605.459 56958.418
000030 41 85 05 47 62 e2 85 46 6d e5 37 46 fa 95 f6 46
       34181.254 17137.191 11769.356 31562.988
000040 ec 5f f1 46 f1 12 4c 46 7d f4 cf 46 72 3a 6e 46
       30895.96 13060.735 26618.244 15246.611
000050 c0 61 dc 46 1e 9f 09 47
       28208.875 35231.117
