model/stead.pt (torch, 118306 bytes, 56 tensors)

weight f4 [8, 3, 1]
000000 03 85 88 41 1e b0 e2 be 35 58 69 bf 6d de 12 42
       17.064947 -0.44274992 -0.9115022 36.717213
000010 c8 ef d2 3d 6b 42 d5 bd 5b de 14 3e e7 92 6b bf
       0.10299641 -0.10413059 0.14537947 -0.9202103
000020 01 f7 85 41 e6 49 87 c1 86 16 21 bf 15 bf 58 3d
       16.745607 -16.911083 -0.62924993 0.052916605
000030 0b ea 0b 3f 48 00 37 41 38 ed b3 3f 9f ff 70 be
       0.54653996 11.437569 1.4056768 -0.23535012
000040 3d 68 ad bf 45 9f 41 c1 56 df 7d be ba bc 44 41
       -1.3547436 -12.101384 -0.24792227 12.296076
000050 9f cd b7 bf e5 12 28 be 7a d3 ee c1 a7 e1 52 bf
       -1.4359626 -0.16413458 -29.85326 -0.8237557

bias f4 [8]
000000 61 ca db bd 8a 92 ba 3e d9 57 9e be 9e 73 b8 be
       -0.1073196 0.36439925 -0.30926397 -0.3602571
000010 4c 2f 23 3e 22 c6 94 be cf bd 5a 3f 40 2a d3 be
       0.15936011 -0.29057413 0.85445875 -0.41243172

weight f4 [8]
000000 35 40 04 40 23 30 4b 40 2e da 8e 3f 24 6b 6a 40
       2.066419 3.174813 1.1160333 3.6627893
000010 65 c6 1a 3f 88 10 8b 3f 3b 0f 70 3f 8c c0 9e 3f
       0.60458976 1.086442 0.9377324 1.2402511

bias f4 [8]
000000 de 07 2f 3f 14 6f f2 3c e5 11 da 3d f1 59 00 3f
       0.6837138 0.029593982 0.10647944 0.5013724
000010 3a f8 f1 3e f5 af d0 3d ee da 88 3d 8b f3 8a 3e
       0.47259694 0.10189811 0.066823825 0.27138934

running_mean f4 [8]
000000 85 45 d9 bd 83 14 ba 3e d7 f7 9d be f7 61 ba be
       -0.10608963 0.36343774 -0.3085315 -0.36402866
000010 c6 1f 23 3e dc 99 94 be 0e e7 5a 3f 1c 54 d3 be
       0.1593009 -0.29023635 0.8550881 -0.41275108

running_var f4 [8]
000000 6e 39 23 41 20 78 3e 42 41 34 16 41 0e 55 22 41
       10.201521 47.61731 9.387757 10.145765
000010 15 c8 8f 40 d2 26 a1 40 d5 d9 a0 40 bd 8d ed 41
       4.493174 5.035989 5.026591 29.694208

weight f4 [11, 8, 7]
000000 50 cb 69 40 80 6d 00 40 a1 2d 73 40 4f b5 3a 40
       3.6530342 2.0066833 3.79966 2.9173162
000010 3e ce 85 bf a0 0a 17 40 4c 8b 91 3f 4c 52 52 3f
       -1.0453565 2.3600235 1.1370635 0.82156825
000020 80 99 ea bf 7c 1a 85 bf e7 55 19 be 28 cc 10 40
       -1.8328094 -1.0398707 -0.14974175 2.2624607
000030 1f b1 05 40 3b fc e4 3f 65 c6 73 3f 0b db 43 40
       2.0889356 1.7889475 0.952246 3.0602443
000040 82 4f 6a 40 3e 67 f0 40 1a ed d1 40 91 ee bd 40
       3.6611028 7.512603 6.560193 5.935372
000050 25 e4 1e 40 2f 71 c8 bd e3 2b ba bf 49 e6 66 c0
       2.4826748 -0.09787213 -1.4544643 -3.6078055
000060 76 09 a5 bd 54 ae 28 40 50 39 c7 be d6 75 96 bf
       -0.08058445 2.6356401 -0.38910913 -1.1754711
000070 15 7b f8 3f d6 a6 05 40 85 7d 3c 40 39 c9 99 bf
       1.9412562 2.0883079 2.945161 -1.2014533
000080 f3 87 5b bf 9d d5 62 40 64 bf 6b bf d2 a7 6f 40
       -0.8575432 3.544288 -0.92088914 3.744618
000090 50 64 7e 40 50 a6 a0 40 eb a3 c0 40 be b1 0a 40
       3.9748726 5.020302 6.0200095 2.1670985
0000a0 60 34 e8 bf b7 2d 26 c0 cd 75 53 40 5f 66 69 40
       -1.8140984 -2.5965402 3.304065 3.6468732
0000b0 1b 67 9c 40 d5 84 17 41 ae 93 2d 41 c0 72 0f 41
       4.887586 9.46993 10.848555 8.965515
0000c0 be ca 8d 40 63 cd 1a c0 3f aa 8d 3f c8 11 e1 bf
       4.430999 -2.4187858 1.106758 -1.7583551
0000d0 f4 09 ce 3f cf 58 1c 40 1a 2b a2 3e a9 5e fd bf
       1.6096787 2.4429204 0.3167351 -1.9794513
0000e0 47 d0 69 c0 6a cb 91 40 8a 85 43 40 8e 82 fa c0
       -3.6533372 4.556081 3.0550256 -7.828437
0000f0 aa 43 20 40 6a 2e e0 3f 03 1a 1c bf 04 b6 09 c0
       2.50413 1.7514164 -0.6097719 -2.1517344
000100 39 46 86 40 79 92 20 40 f9 d3 c4 c0 0e d0 aa 3f
       4.196072 2.50894 -6.1508756 1.3344743
000110 11 aa 98 3d 8f 2f 86 3e c1 c4 8f bf 2a 00 ab be
       0.074543126 0.2620816 -1.123192 -0.33398563
000120 5a 5b ab 3f a8 0d a2 3f b6 af a1 3e 25 21 29 c0
       1.3387253 1.2660418 0.3157937 -2.642648
000130 90 c1 89 3f b5 d7 74 40 e0 0b c9 c0 df e4 af bf
       1.0762196 3.8256657 -6.2826996 -1.3741721
000140 52 7f 95 40 d7 75 8f 3e 17 4f 40 bf fc b6 cd be
       4.671792 0.28019592 -0.7512068 -0.40178668
000150 93 17 0f c0 d7 81 b1 3f 65 8f cc bd 28 35 f5 be
       -2.2358139 1.3867749 -0.09988288 -0.47892118
000160 ad fe d2 3f 09 5d 3a 3e 50 9f 89 3e a0 ca bd 3f
       1.6483971 0.18199553 0.26879358 1.4827461
000170 5e 71 f7 be c6 a2 a6 bf fa 17 87 bf b6 41 2d be
       -0.4832868 -1.3018425 -1.0554192 -0.16919598
000180 da 0c 3d 40 e4 e4 ba bf f1 7b 94 3e 3a 4b 1e 3f
       2.9539094 -1.4601102 0.2900081 0.61833537
000190 cc 59 c2 3e 17 07 b8 bf 7a 32 a5 be 46 46 b6 bd
       0.37959135 -1.4377164 -0.32265073 -0.08900122
0001a0 47 1f 8f 3e a2 1a a2 be 2e fa c6 3c 24 1c 40 be
       0.2795355 -0.31660944 0.024289217 -0.18760735
0001b0 e2 d7 45 3f 3e 28 b0 3e cc 78 5a be 1b 9d 7b be
       0.77282536 0.34405702 -0.21335143 -0.2457165
0001c0 c8 12 b8 be 9a db 27 40 49 53 a8 c0 61 6d 6c 40
       -0.3595183 2.6227784 -5.2601666 3.694176
0001d0 bc bd 0f 40 60 7e a4 c0 0a b6 04 40 ae 1d e5 be
       2.2459555 -5.1404266 2.0736108 -0.44749206
0001e0 0f de 02 40 c8 bb 50 c0 69 7b d5 3f a2 2a af 3f
       2.0448034 -3.2614613 1.6678287 1.3684886
0001f0 77 45 4a c0 f9 0d d2 3f 31 9f 0d 3f 1a ec 89 be
       -3.1604898 1.6410514 0.5532103 -0.26937944
000200 15 cf fe be cd 10 c0 be fb ee e0 be b6 79 9c 3f
       -0.49767366 -0.37512818 -0.43932328 1.2224643
000210 a3 6a cb be 35 2f 1c 3f c3 2a 79 c0 4f 1d ef 40
       -0.39729795 0.6100953 -3.893235 7.4723277
000220 6a 40 b1 c0 15 6e 9b bf 3c a6 97 40 60 94 16 c0
       -5.539113 -1.2142969 4.7390423 -2.352806
000230 11 d4 e7 bf 8c 9d 1a 40 be cf 8e bf d4 51 06 40
       -1.8111593 2.415866 -1.1157148 2.0987444
000240 f6 89 05 3f 71 7d f0 bf dc e1 35 3f a6 dd d3 be
       0.52163637 -1.8788282 0.7104776 -0.41380042
000250 25 9f 33 bf e7 85 9e 3f 59 74 ba 3e ce 96 a4 3f
       -0.7016471 1.2384614 0.3641689 1.2858522
000260 b0 9a 0e c0 0c 0e 5c 3e a1 95 7f 3f a1 12 bb 3f
       -2.2281914 0.21489733 0.9983769 1.461506
000270 da 55 f7 bf 97 9a f3 bf e4 16 70 be 7c f9 eb bf
       -1.9323075 -1.9031552 -0.23446232 -1.8435512
000280 66 89 2d 40 f4 00 9c bf af 1d 86 bf 23 bc 10 40
       2.7115111 -1.2187791 -1.0477809 2.261483
000290 35 da 6a be ef e6 99 3e d3 2f dc 3f cc eb f0 bf
       -0.22934802 0.30059 1.7202095 -1.882196
0002a0 eb e4 75 c0 cb 3c 5d 3e 2d 84 39 40 82 e2 84 40
       -3.842097 0.21605222 2.8986924 4.15265
0002b0 77 a4 e2 be 45 00 c0 bf 51 bb e7 bf 34 31 71 c0
       -0.44266102 -1.5000082 -1.810404 -3.7686281
0002c0 80 2b 8a be 24 24 29 40 f8 5d 91 40 96 c0 81 3f
       -0.26986313 2.6428308 4.542721 1.0136898
0002d0 d8 fb c1 bf 1b 9f 3b c0 be d7 1c 3f 9b 24 59 be
       -1.5154982 -2.931586 0.61266696 -0.2120537
0002e0 2b 1c 59 bf 93 6b 07 bf 38 39 8c 3e 9c 67 57 3f
       -0.84808606 -0.5289852 0.27387404 0.8414247
0002f0 e1 54 0e bf b2 c8 ac 40 43 cd fd 3e 6a 1d 52 c0
       -0.55598265 5.399499 0.49570665 -3.2830453
000300 03 31 e6 c0 5b 2c 22 bf 4b c6 d9 3f c1 8a 67 40
       -7.193483 -0.6334893 1.7013639 3.6178439
000310 f7 e0 f6 3e 19 ce e2 be e6 9f 1e bf e3 b8 99 be
       0.4821851 -0.44297865 -0.61962736 -0.3002387
000320 c6 f3 c3 3e ec 2e 54 3f 1e 87 1c 3f 9f 1f 41 bf
       0.38271922 0.828841 0.6114367 -0.75438875
000330 9f d2 e0 3d 40 f0 51 3f 60 7a 25 3f 4d c9 59 bf
       0.10977673 0.8200722 0.64639854 -0.85072786
000340 0a 05 73 bf 70 dd 26 3f 21 51 e0 bd 2c 4f 1b bf
       -0.94929564 0.65181637 -0.10952974 -0.6066768
000350 d8 21 ce be 57 3e 01 3f 50 e9 b2 3e 06 6d b5 be
       -0.40260196 0.5048575 0.34943628 -0.3543474
000360 a3 22 77 be 7e 5e ea bc b3 f7 56 3f d3 f5 03 3e
       -0.24134307 -0.02860951 0.8397171 0.12886743
000370 55 f7 d5 3d 26 8c ae be 37 ef 06 3e 7c 6d 82 be
       0.104475655 -0.340913 0.1317719 -0.25474155
000380 65 ce 1f c0 51 89 f3 bf 32 cd 61 c0 91 7e 23 c0
       -2.4969723 -1.9026281 -3.5281491 -2.5546
000390 de c9 ae 3e ef a4 9d bf 7e 48 3c bf b9 0d 97 be
       0.34138387 -1.2315959 -0.73548114 -0.29502657
0003a0 f7 e8 bf 3f d8 47 83 3f 86 0c 78 3e e9 d2 28 bd
       1.499297 1.02563 0.24223527 -0.041216765
0003b0 c1 41 a6 be 96 94 17 bf 01 82 0d 3f d3 cb 22 3f
       -0.3247204 -0.592111 0.55276495 0.6359226
0003c0 2a b2 1e 40 0b 53 0c 41 3f ee da 40 74 ac 9b 40
       2.4796243 8.770274 6.841583 4.8648014
0003d0 9c af c6 40 8b fd 81 bf 1a 6d 75 3f c2 c2 bd 3f
       6.2089367 -1.01555 0.958696 1.482506
0003e0 4e 94 83 3e 19 bf 75 bf b0 6a 37 3f f1 51 b8 3f
       0.25699085 -0.95994717 0.7164717 1.4400007
0003f0 fa 29 ed 3f ce d4 66 3f 41 f8 67 40 13 ea 64 40
       1.8528435 0.90168464 3.6245272 3.5767868

bias f4 [11]
000000 ab a4 57 bc fa fb 77 bd be d0 df 3d 3b 46 64 bd
       -0.0131618185 -0.060543038 0.10928486 -0.05573104
000010 5e f8 00 3e 9e 66 87 3c 9f b7 cb b8 e4 be e7 3d
       0.12594745 0.016528424 -9.7139964e-05 0.11315706
000020 8a 98 03 bd 13 d6 5b be f7 ba 60 bd
       -0.032127894 -0.21468382 -0.054865804

weight f4 [11]
000000 ee 78 72 40 6f d6 7b 40 54 2c 6f 40 8d a1 d0 40
       3.788631 3.934963 3.7370806 6.5197206
000010 18 ed 7d 40 87 a1 ae 40 d5 f3 19 40 bf bb 81 40
       3.967596 5.4572177 2.4055073 4.054168
000020 8f a0 9d 40 86 49 12 41 d0 f1 89 40
       4.9258494 9.14295 4.310768

bias f4 [11]
000000 bd 88 89 40 34 d3 a7 3a f9 32 7f bd 68 0e be 3b
       4.2979417 0.0012804032 -0.06230447 0.005800057
000010 15 bc b8 40 3c 1e 35 be f2 c7 d1 40 d6 7d 71 be
       5.772959 -0.17687315 6.5556574 -0.23583159
000020 94 9e a1 be 1c 9d 29 be 31 69 ca 3e
       -0.31566298 -0.16563839 0.3953338

running_mean f4 [11]
000000 6e c2 4a 42 e9 05 bd bd 71 4b 9f bd c7 a6 0c bf
       50.689873 -0.09229643 -0.07778061 -0.5494198
000010 3d 75 27 42 f4 73 cb bf aa 5b 0d c2 d9 ae 3f c1
       41.86449 -1.5894761 -35.339516 -11.980187
000020 c9 15 e5 be 71 90 29 be bb 1e 3c 40
       -0.44743183 -0.16559006 2.9393756

running_var f4 [11]
000000 04 ad 08 45 ce 62 46 44 37 97 06 44 65 e1 b2 44
       2186.8135 793.5438 538.36273 1431.0436
000010 4a 95 e2 44 8e 1f 63 44 87 d7 01 45 93 e0 15 45
       1812.6653 908.49304 2077.4705 2398.036
000020 ae 05 0b 44 19 5d 02 45 dc d2 fb 43
       556.08875 2085.8186 503.64734

weight f4 [16, 11, 7]
000000 12 a7 7d 40 86 13 87 40 cc 9d d2 3f 78 ee e8 40
       3.9633222 4.221133 1.6454406 7.27911
000010 36 ae b4 40 9e 64 8c 40 4a 52 bb 40 b7 9d 7b 3d
       5.646266 4.3872824 5.853795 0.061429705
000020 74 86 0e 3f c3 e5 b9 3d b1 1e 91 3f db b5 96 3f
       0.5567391 0.09077027 1.1337491 1.1774248
000030 9e d6 a2 3f c3 59 b7 3f 12 b5 32 3f 9a 7e f6 3e
       1.2721746 1.4324268 0.6980754 0.48143464
000040 c6 5b 3e 3f 62 b5 cf 3f 60 e8 a6 3f c3 7b 2f 3f
       0.74358785 1.6227229 1.3039665 0.6854822
000050 08 e3 02 3f d5 f5 4b be 55 79 6d be df 20 4e 3e
       0.5112767 -0.19917996 -0.23190816 0.20129727
000060 17 ab 94 3f ff e0 b9 3f ce 67 b1 3f 96 91 80 3f
       1.1614712 1.4521788 1.3859804 1.0044429
000070 5f 3a a7 40 12 b9 b5 40 e6 f9 b7 40 68 4e 38 41
       5.2258754 5.6788416 5.749255 11.519142
000080 d5 bd 07 41 cf b2 00 41 36 20 cd 40 0e a4 b9 3f
       8.483846 8.043654 6.410182 1.450319
000090 a1 2c ff 3f 0e 51 45 40 97 bf a6 40 fb e5 67 40
       1.9935495 3.0830722 5.2108874 3.623412
0000a0 90 07 63 40 57 bf 05 40 3d fc b1 bf b5 bc 06 c0
       3.5473366 2.0898035 -1.3905102 -2.1052678
0000b0 fa a9 5e bf 31 c6 b3 3f e5 7e 1e 40 2e d7 4f 40
       -0.86978114 1.4044858 2.476495 3.2475085
0000c0 18 ea ee 3f ee 6f 97 40 e1 37 50 40 7e 28 b0 40
       1.866519 4.7324133 3.2534106 5.504943
0000d0 b1 98 15 40 53 5c 46 3e 06 f8 f4 3e 1e f0 c6 bf
       2.3374445 0.19371156 0.47845477 -1.5542028
0000e0 66 83 b3 3f 10 c2 b7 3f 5e 01 a8 3f bb dd 9f 40
       1.4024475 1.4356098 1.3125417 4.9958167
0000f0 a9 03 7c 40 17 8f 45 40 1a 0c 44 40 d9 03 dd be
       3.9377234 3.0868585 3.0632386 -0.43166998
000100 40 64 0e bf 7d f2 a7 be 46 e7 ba 3e f5 1b 27 3e
       -0.5562172 -0.3280219 0.36504573 0.16319259
000110 b6 c9 29 3e ae 61 8a 3d 99 84 50 bf 46 1a 43 bf
       0.16580853 0.06756912 -0.8145233 -0.76211965
000120 a5 06 38 40 49 e3 fa 3f 48 c4 36 3f 26 a0 ec 3e
       2.8754056 1.9600612 0.7139325 0.46215934
000130 57 3e b7 bf f0 97 32 40 ff 13 5b 40 6a 7b 26 40
       -1.43159 2.7905235 3.4230955 2.6012826
000140 ef 5d 18 40 0f ee 63 c0 05 4c d0 c0 dc 07 9f bf
       2.3807333 -3.561405 -6.5092797 -1.2424273
000150 3f 04 bf 3f bd 70 a6 3f ed 4e b5 be 94 3d 88 c0
       1.4923171 1.3003155 -0.35411778 -4.257517
000160 6c 44 d4 c0 2a 83 97 c0 89 2e 5b 3f 25 d9 92 3f
       -6.6333523 -4.734761 0.8561788 1.1472517
000170 de 89 ee 3f 17 4c b1 3e bf 25 30 c0 ec 83 d3 bf
       1.8635824 0.34628364 -2.7523038 -1.6524634
000180 28 6e e2 3e ff 52 5f 3f c9 8a 93 3f 44 a8 ce bf
       0.44224668 0.87236017 1.1526729 -1.61451
000190 46 d2 a8 c0 e7 07 17 c1 45 51 2d c1 8b 3f 95 c0
       -5.275668 -9.439429 -10.832341 -4.6640067
0001a0 f9 41 39 bd 27 87 19 c0 8e fa 0d c0 c4 f2 43 c0
       -0.045228932 -2.398874 -2.2184176 -3.0616922
0001b0 c1 41 26 bf 42 5c 38 3f 8e 92 a0 40 11 26 34 40
       -0.6494408 0.72015774 5.01789 2.8148234
0001c0 b4 f8 b2 be 9a 10 8f bf 6a f7 11 c0 a9 b9 87 c0
       -0.3495537 -1.1176941 -2.280726 -4.2414136
0001d0 95 24 8b c0 90 4b a7 be a3 62 dc 3e 1d 00 3c 40
       -4.3482156 -0.32674837 0.43044004 2.937507
0001e0 1d 71 dc 3e 54 13 84 c0 e5 d3 61 40 67 1b 77 be
       0.4305505 -4.1273594 3.528558 -0.24131547
0001f0 34 78 26 c0 47 c7 32 c0 89 8c 6f 3f e6 f1 53 3f
       -2.6010866 -2.793413 0.93573815 0.8279098
000200 fb dc 34 3f 3c 12 3a bf ec c8 99 bf b2 07 2d 3f
       0.7064969 -0.72684073 -1.2014441 0.6758987
000210 74 ec 9d 3d cb c6 4d bf d8 48 c4 bf 98 6e 43 c0
       0.077111155 -0.8038146 -1.533473 -3.053625
000220 ad 07 8f c0 66 bd b0 c0 4c ef 22 c0 ea 7d a9 bd
       -4.469687 -5.52312 -2.5458555 -0.08275969
000230 17 f8 6d c0 d9 e0 db c0 92 d4 1b c1 56 bb 59 c1
       -3.7182672 -6.871197 -9.739397 -13.608236
000240 c1 08 1f c1 8f bd 82 c0 42 e7 c8 be 0e e0 8c 3e
       -9.939637 -4.0856395 -0.39238936 0.2751469
000250 35 27 0c c0 c5 28 4f c0 ba 22 af bf 37 58 8b bf
       -2.189893 -3.2368634 -1.3682473 -1.0886296
000260 57 0d 0e 40 3e 95 37 3f 41 a5 bb c0 21 08 da c0
       2.2195642 0.717121 -5.8639226 -6.8134923
000270 14 0c 59 3e 63 9a cd 40 79 2c 83 40 83 4f 58 be
       0.21196014 6.425096 4.099179 -0.21124081
000280 ca d8 2f bf 75 fb 19 3e 9d 8f 50 3e 17 f7 33 3f
       -0.6869017 0.1503733 0.20367284 0.70298904
000290 30 b6 53 bd 70 f9 56 be f4 af fb bd d1 98 ac 3e
       -0.05168742 -0.2099359 -0.1228942 0.3371034
0002a0 b6 ff 60 3f f1 44 fa 3d b2 fc 58 be 36 e7 3a 3e
       0.87890184 0.12220181 -0.21190146 0.18252262
0002b0 0d 8c d3 3e 07 4e 83 3e d1 98 2e 3e 06 e7 06 bf
       0.41317788 0.25645468 0.17050482 -0.52696264
0002c0 fa 17 a7 bd 8d fc d5 bd fa 76 81 be 3a 90 79 be
       -0.0815887 -0.10448561 -0.25286084 -0.24371424
0002d0 b0 a5 1a 3d 19 95 74 3d fd c4 36 c1 06 a7 e2 c0
       0.03775567 0.059712503 -11.423093 -7.0828886
0002e0 f3 c3 b8 bf a0 cc 14 41 68 2e d6 40 35 82 ee 3f
       -1.4434799 9.299957 6.693165 1.8633486
0002f0 50 55 c4 bf 3f 83 7f c0 8a 28 3d c0 96 48 14 3f
       -1.5338535 -3.9923856 -2.9555993 0.5792326
000300 36 7b 4f 40 94 1a 09 40 dc 42 3f 3f 56 76 20 be
       3.2418952 2.1422472 0.74711394 -0.15670142
000310 91 a3 6f 3e df 74 17 3f f7 5f 91 3f 3a 8d 9d 3f
       0.2340224 0.59162706 1.1357411 1.2308724
000320 84 70 5d be b2 c4 92 be 73 a2 c9 bf 80 8d fe c0
       -0.21624953 -0.28665692 -1.57527 -7.954773
000330 fa 9e 31 bf 82 ee 98 3f bf 02 76 40 78 cf d5 3f
       -0.69383204 1.1947787 3.8439176 1.670394
000340 74 7c bd 3d 56 09 8c bf 11 16 89 c0 a3 d0 49 c0
       0.09252253 -1.0940349 -4.2839437 -3.1533592
000350 97 6c 57 3e 1a 4d 65 40 cd ff 0e 40 ce fb 37 3f
       0.21037517 3.582831 2.2343628 0.718686
000360 8b 0f 85 3d 36 5d d3 be 32 f8 51 3e 00 b1 e7 3c
       0.06497105 -0.41282052 0.20504835 0.028282642
000370 13 0b 47 bf ec 7a 0c bf 39 33 a3 be 24 f3 e4 3e
       -0.7775127 -0.54875064 -0.31875017 0.44716752
000380 13 e7 55 3f 37 58 e8 3f bd 32 60 be af 80 f1 bf
       0.83555716 1.8151921 -0.21894355 -1.8867396
000390 c3 7c c9 bf 00 76 35 3e 67 4e dc 3d 25 36 ab 3d
       -1.5741199 0.17720795 0.107571416 0.083599366
0003a0 88 86 ef be d6 d5 a6 bf 80 a5 98 bf 02 70 c9 bf
       -0.46782327 -1.3034008 -1.1925507 -1.5737307
0003b0 f7 a6 c9 bf af c9 c3 bf 7f ad 95 be e2 06 81 be
       -1.5754079 -1.5295924 -0.2923393 -0.25200564
0003c0 bd c1 ca be a8 d1 b1 be cc 07 d7 3d d1 f6 81 be
       -0.39600936 -0.34730268 0.10499534 -0.25383618
0003d0 06 df 13 bf b9 0f c9 3f b5 3b e4 3f cd eb b4 3f
       -0.5776218 1.5707923 1.7830721 1.4134461
0003e0 b9 45 0f 40 45 8a ba 3f 3d f2 80 3f 97 e1 c5 3f
       2.2386305 1.4573447 1.0073925 1.545947
0003f0 d4 c7 a4 bf 61 b4 e1 bf 48 d0 04 c0 d5 59 29 c0
       -1.2873483 -1.7633172 -2.0752125 -2.646108

bias f4 [16]
000000 e8 ef 9d 3d 6b 54 e2 bd 48 7a 1c 3b ca 58 b9 bc
       0.07711774 -0.11051258 0.0023876596 -0.022625346
000010 0e 20 7f bd af fb 41 3d b7 61 81 bc 46 a7 d0 3d
       -0.06228643 0.047359165 -0.015793664 0.10188155
000020 95 cf 96 bd 66 92 60 3d e8 71 d2 bd d4 c1 67 bd
       -0.07363812 0.054827116 -0.10275632 -0.056581333
000030 25 5f cd 3b e9 51 c6 3d 61 79 6b 3d 9d 3f c8 bd
       0.0062674456 0.09683592 0.057488803 -0.09777758

weight f4 [16]
000000 69 1e fe 3f 9d e3 ca 40 2d 36 79 3f 32 2b 91 3f
       1.985303 6.340285 0.9734829 1.1341307
000010 83 05 ed 3f e9 bc a7 40 8d 2b e9 3f 8b 83 b6 3f
       1.8517307 5.2418103 1.8216416 1.4258894
000020 22 ee 9d 3f 6a 9e 0b 40 b0 c0 65 40 ba bf 9a 3f
       1.2338297 2.1815438 3.5898857 1.208976
000030 47 02 b7 3f 25 9d 2d 40 ae a0 28 40 41 e5 3d 40
       1.429757 2.7127163 2.634807 2.9671175

bias f4 [16]
000000 3c 59 af bf 2f c8 a5 c0 cf 8c 9a be 83 65 b8 be
       -1.3699107 -5.1806865 -0.30185553 -0.36014947
000010 ef a3 75 3d 0b ee a1 c0 74 6b 5f 3f 23 55 ca 3f
       0.059970792 -5.060308 0.87273335 1.5807232
000020 29 b1 08 bf a8 c9 b0 bf 9b e4 3d bd 5e bb a1 bf
       -0.53395325 -1.3811541 -0.046360593 -1.2635305
000030 e9 d3 bd 3c 8c e2 09 c0 57 11 fc 3f fa e4 0d c0
       0.023172336 -2.1544523 1.9692792 -2.2171006

running_mean f4 [16]
000000 aa 91 0c 44 5f a9 83 c3 86 10 07 c2 8b 96 a9 c3
       562.276 -263.3232 -33.766136 -339.17612
000010 6c 8b 4d 42 ad bc b1 42 93 be 60 c2 db 90 de c2
       51.386154 88.86851 -56.186108 -111.28292
000020 af cc a5 c2 de e5 7e 43 29 a5 fe c2 d2 fa 4c 43
       -82.89977 254.89792 -127.32258 204.97977
000030 3f c5 35 c0 ea d3 82 c2 26 c2 0f c4 70 1c c0 c2
       -2.840164 -65.413895 -575.03357 -96.05554

running_var f4 [16]
000000 d3 6c d4 47 eb 27 41 47 59 fb 9e 45 05 59 85 46
       108761.65 49447.918 5087.4185 17068.51
000010 0c f5 cf 46 2a d6 d4 46 fc 21 c7 46 c2 ae c6 46
       26618.523 27243.082 25488.992 25431.379
000020 16 04 e1 45 29 59 d9 45 09 c2 0b 47 6d 95 89 46
       7200.5107 6955.145 35778.035 17610.713
000030 f5 d6 c6 45 22 e9 fe 45 c8 ed c6 47 24 19 0f 46
       6362.8696 8157.1416 101851.56 9158.285

weight f4 [22, 16, 7]
000000 fc 0a 7c 40 b1 eb f0 3f c2 00 6b 40 07 d5 89 bf
       3.9381704 1.8821927 3.6719213 -1.0768136
000010 1b 5c 87 bf 85 b3 84 bf b6 46 14 bf 83 1c ed c0
       -1.0574983 -1.0367285 -0.57920396 -7.4097304
000020 82 95 c8 c0 f0 92 a8 c0 89 fe a7 3f 8e f7 23 40
       -6.2682505 -5.2679367 1.3124553 2.5619845
000030 6e 4d 53 40 fb f7 3b 3f a4 26 e2 bd 7b 92 28 40
       3.301601 0.73425263 -0.11042526 2.6339405
000040 85 a6 14 3f ec 2b f0 3f ae fd 11 bf e7 31 12 c0
       0.5806659 1.8763404 -0.5702771 -2.2842958
000050 2e f3 47 40 34 09 3e 3f 29 5e c2 3f 9a fd b0 3f
       3.1242175 0.7423279 1.5184985 1.3827393
000060 0b 7d 14 40 20 c8 08 40 28 e0 85 3f aa 4d 4f bf
       2.320132 2.1372147 1.0459032 -0.8097788
000070 32 98 5c 3f 84 bc 4b bd 24 f8 68 bf b4 02 91 c0
       0.8616973 -0.04974033 -0.9100363 -4.53158
000080 16 27 42 c0 21 d4 07 c0 98 b7 6e 3f 60 36 3a 40
       -3.0336356 -2.1223223 0.9324889 2.9095688
000090 6c 31 4f 40 4b 21 9f 40 4b 54 02 41 68 d7 36 41
       3.2373915 4.972814 8.145579 11.427589
0000a0 79 0f 85 40 f0 b6 ae 40 9f df 90 3f c2 ca 90 3f
       4.1581388 5.459831 1.1318244 1.1311877
0000b0 4b 0a 4f 3f 5f 97 b3 40 08 26 47 40 94 9d 28 40
       0.8087508 5.612228 3.1116962 2.6346178
0000c0 44 b8 d4 3e 2a 50 9b be c7 d4 0a c0 ca 4f 03 c0
       0.41546834 -0.30334598 -2.169237 -2.051745
0000d0 75 af a3 c0 2c 04 ac c0 16 70 7e c0 e1 79 ed be
       -5.115168 -5.3755093 -3.9755912 -0.4638205
0000e0 ec c6 01 40 f1 c4 82 3d e5 f6 54 3e ca 43 fb 3f
       2.0277662 0.0638522 0.20797308 1.9630063
0000f0 b8 cb 4c c0 73 05 18 40 8b a3 53 40 32 36 ac bf
       -3.199934 2.3753326 3.3068569 -1.3454039
000100 15 50 8b be 1d bc e9 3e 42 fd 81 40 dd d7 27 40
       -0.27209535 0.45651332 4.0621653 2.6225502
000110 c1 64 29 40 8b 97 44 bf ae 82 3d c0 87 93 9b bf
       2.6467745 -0.76793736 -2.961101 -1.2154397
000120 06 60 8d bf 36 0c 25 40 96 e2 9f 3f 8f 72 ee 3e
       -1.1044929 2.5788703 1.2491024 0.46571776
000130 85 64 83 bf 65 7f 8d bf 76 4f 17 c0 3b cf 9a bf
       -1.0265051 -1.1054503 -2.364225 -1.2094492
000140 7d 2e d3 be 81 fd 2b 3f 13 ac 2a 3f 63 ae d4 3e
       -0.41246405 0.6718369 0.66668814 0.41539297
000150 03 32 25 c0 df 77 64 c0 13 bb 87 c0 19 f0 10 c0
       -2.5811775 -3.5698164 -4.241586 -2.2646544
000160 3a 33 19 bf 3e c0 d7 3f 9a f0 d8 3d 55 2e b4 3d
       -0.5984379 1.6855543 0.10592766 0.087979
000170 67 0b 06 3e a7 d5 32 c0 01 8d e2 bf 16 07 18 bf
       0.13090287 -2.7942903 -1.7699281 -0.5938581
000180 c3 a9 9d 3f 08 de 65 3f 38 9c b5 c0 ca 1d 66 c0
       1.2317432 0.8979192 -5.6753197 -3.5955682
000190 a1 00 98 c0 64 2b b1 3e 45 8f 81 3f ae 0c 35 40
       -4.750077 0.34603417 1.0121847 2.828899
0001a0 6a b4 fb 3f f5 b2 03 be e5 9c 33 c0 11 78 91 c0
       1.9664433 -0.12861235 -2.806451 -4.5459065
0001b0 33 26 69 bf 97 c7 12 bf 2c 7d ef bf b5 93 3d 3f
       -0.9107391 -0.573358 -1.8710074 0.7405351
0001c0 da bf 28 3f f1 78 d8 bf 4e be 29 c0 1c a6 8e c0
       0.6591774 -1.6911908 -2.6522403 -4.457777
0001d0 3f 4e 04 bf c4 eb 1c bd b7 68 7d 40 8c 15 80 c0
       -0.51681894 -0.03831078 3.9595163 -4.00263
0001e0 c4 f7 1c c0 0d bf fe be 5a fd 30 c1 70 8e 15 c0
       -2.4526224 -0.49755135 -11.061853 -2.3368187
0001f0 3d 71 f2 bf b6 c9 5e 3e f2 67 20 bf 03 d7 20 3f
       -1.8940808 0.21756634 -0.6265861 0.6282808
000200 86 82 9d bf e7 dd 8b 40 4d b3 76 be 32 22 03 40
       -1.2305458 4.3708377 -0.24091835 2.048962
000210 26 38 75 40 5e 0f 92 bf f4 82 08 3f c3 d6 0b 40
       3.831552 -1.141094 0.5332482 2.184983
000220 a8 ce 3a bf d2 b8 a6 bf a1 5e f7 bf d7 b0 9c c0
       -0.7297158 -1.3025153 -1.9325753 -4.896587
000230 e8 d5 86 40 48 f7 ff 3f f2 d3 07 3f df 31 19 c0
       4.2136116 1.9997339 0.5305778 -2.393669
000240 65 1b a7 c0 4d 16 81 c0 be f0 6e bf ed 86 cd be
       -5.222094 -4.0339723 -0.93336093 -0.40142003
000250 a5 7b f2 40 a0 02 20 41 ef 0e cc 40 57 62 08 c1
       7.5775933 10.000641 6.376823 -8.524009
000260 1a 94 a7 bf 16 fa f2 3f af 38 89 3f 34 38 5d bf
       -1.3092072 1.898257 1.0720423 -0.86413884
000270 ea 3d 99 bf c9 91 a3 3e 09 38 83 3f 80 0b 16 40
       -1.197202 0.31947163 1.0251476 2.344452
000280 19 ce 8c 3f ec d1 53 be f5 78 2f c0 6f fd 42 c0
       1.1000396 -0.20685548 -2.7417576 -3.0467184
000290 1c 18 d5 3e b3 96 f1 3f b8 06 3d 40 cf 5d bb 40
       0.41619956 1.8874115 2.953535 5.8552012
0002a0 64 e1 80 bf 89 f3 b6 bf 27 c4 3e 40 d3 be 12 40
       -1.0068784 -1.4293071 2.9807222 2.292897
0002b0 3a c2 3d 3f 5e 4a 0e 40 c2 d7 72 3f 83 f0 d9 bf
       0.7412449 2.223289 0.9486047 -1.7026523
0002c0 01 06 a3 bd 7e a5 09 40 0f 43 eb 3e 10 fe 40 3f
       -0.079601295 2.1507258 0.459496 0.7538767
0002d0 88 62 c2 3d f0 d2 35 c0 ec 3d 8f c0 25 98 4e c0
       0.094914496 -2.8409996 -4.476309 -3.2280362
0002e0 4c 14 39 c0 ca d4 a4 3d 43 20 25 40 c5 ff 2e 40
       -2.8918638 0.08048399 2.580094 2.734361
0002f0 bb 11 79 3f bd 20 c2 3f 64 62 1f be 63 84 f6 bc
       0.9729268 1.5166241 -0.15564877 -0.030092424
000300 1d f8 15 40 21 96 20 40 59 c9 88 40 78 88 79 40
       2.3432686 2.5091631 4.2745786 3.8989544
000310 f2 55 4d 3f 9d 0f 1f 40 ac eb a7 40 6e 3e 0f 40
       0.8020927 2.485328 5.2475185 2.2381854
000320 54 50 09 3e ec 8f c8 bf 00 ac 8c c0 77 23 2b 40
       0.13409549 -1.5668921 -4.395996 2.6740396
000330 f9 f4 9f 40 52 c2 18 40 f7 0f 03 3f 4c 2a c4 c0
       4.998654 2.3868604 0.51196235 -6.130163
000340 d8 c9 87 c0 1f 02 18 3f 14 b9 80 c0 35 88 a9 be
       -4.243389 0.59378237 -4.0225925 -0.3311173
000350 92 88 e2 3f 6a 98 7b 3f 51 d8 04 c0 39 33 34 c0
       1.7697928 0.9827944 -2.075703 -2.8156264
000360 c9 9e 05 c1 d8 a6 73 40 55 1b 6c 40 75 18 0a 3d
       -8.351266 3.8070583 3.6891682 0.03371473
000370 51 1a 69 c0 50 f0 95 c0 d5 7c 40 c0 b4 2a dd 3f
       -3.6422312 -4.685585 -3.0076191 1.7278657
000380 ee 60 f3 3f 91 2a d0 3f 70 23 aa 3f 94 e5 9e 3e
       1.9013956 1.626299 1.3292065 0.3103453
000390 a1 ba af be f8 56 40 bf 15 0e 32 bf b0 93 22 42
       -0.34322074 -0.75132704 -0.6955274 40.644226
0003a0 5a 1a 0c 41 52 b5 31 40 cb a1 b2 3f f4 e5 9d be
       8.7564335 2.776692 1.3955625 -0.30839503
0003b0 d0 de 9c bf aa 9a 50 c0 6b 7a 0c 3f 8c 1e a2 bd
       -1.2255497 -3.25944 0.54874295 -0.079159826
0003c0 d9 37 1a bf a2 77 c7 be cb 37 b1 bf 6d 78 60 bf
       -0.60241467 -0.3895846 -1.3845152 -0.87683755
0003d0 1f 70 9e be 0e ef 22 bf 82 4a 07 c0 3e 3d a1 bf
       -0.30944917 -0.6364602 -2.1139226 -1.2596815
0003e0 49 7e 53 bf c2 25 60 bd 8f 9d c8 3d 8e 49 99 bd
       -0.8261457 -0.05472351 0.09795677 -0.074847326
0003f0 4e d7 63 3f 16 ab 2a c0 9e 42 94 be 34 00 b2 bd
       0.89000404 -2.6666923 -0.28957075 -0.08691445

bias f4 [22]
000000 22 ca 0e bd d1 7d b0 bd 7b f2 98 3c 8f e7 97 bd
       -0.034860738 -0.086177476 0.018670311 -0.07417213
000010 60 cd 19 3d 45 3b 81 3d 6e c4 8f bd c2 5d 45 bd
       0.037549376 0.06310133 -0.07019888 -0.048185118
000020 aa f9 97 bd 4c 3d ac 3c cc 61 71 3c 71 40 42 bd
       -0.074206665 0.021025322 0.014732789 -0.047424737
000030 3c 92 80 3d 65 a0 22 3d 6d 0f b2 bd 02 bb 0d bc
       0.06277892 0.039703745 -0.086943485 -0.008650543
000040 f5 44 1e bd 85 75 97 bc a4 bf 66 3d 17 1e 33 bc
       -0.03863998 -0.018488655 0.056335106 -0.010932467
000050 67 43 82 bd 8b b4 82 3d
       -0.06360512 0.06382092

weight f4 [22]
000000 79 97 b7 3f 0c b2 ce 3f f8 90 96 40 f2 f7 c4 3f
       1.4343101 1.6148086 4.7051964 1.5388167
000010 83 79 b4 40 4f 76 f1 3f 25 1f cf 3f a3 b2 e3 3f
       5.639833 1.886423 1.618138 1.7788891
000020 9e d7 27 40 ea c8 3c 40 0a d5 dd 3f 37 79 24 40
       2.6225352 2.9497628 1.7330639 2.5698984
000030 c7 4f 74 40 29 19 fb 3f c9 f6 1d 40 f1 d1 46 40
       3.8173692 1.9617053 2.4681876 3.1065638
000040 54 f7 6d 40 9c a7 aa 3f 96 30 00 40 74 d0 c3 3f
       3.7182207 1.33324 2.0029655 1.529799
000050 01 f5 cc 3f e4 0a 08 40
       1.6012269 2.1256647

bias f4 [22]
000000 dd 4e ae 3f fa 86 89 3f 5b b2 0f c1 0a c5 d6 3f
       1.3617817 1.0744317 -8.981044 1.6778882
000010 c2 17 7f c0 98 a7 af be 86 6b 9c bf dc e3 1a be
       -3.985825 -0.3430755 -1.2220314 -0.15125984
000020 8e 53 e9 bd ef 1c 10 c0 c7 e5 b8 bf 7b 8f 5c 3f
       -0.1139289 -2.251766 -1.4445122 0.86156434
000030 29 86 90 c0 aa e9 0b bf 0c 02 a7 bd cf 97 ad 40
       -4.516377 -0.5465342 -0.08154687 5.4247813
000040 54 d9 6f 40 e0 33 20 bf ac 66 4a bf 8a c8 b3 3f
       3.7476397 -0.62579155 -0.79062915 1.4045575
000050 d5 c2 50 bf 27 e9 eb bf
       -0.8154729 -1.8430527

running_mean f4 [22]
000000 b1 92 12 c2 3b 68 07 c2 23 14 3a c0 d6 45 40 3f
       -36.643253 -33.851788 -2.907479 0.7510656
000010 d6 fa f4 42 d7 3c c6 c1 dc df a8 c1 c7 64 6f 42
       122.489914 -24.779707 -21.109306 59.848415
000020 a7 30 56 42 3a 9c 2a c1 01 e6 bc c1 e1 36 8d c2
       53.547512 -10.663141 -23.612307 -70.607185
000030 5d f6 15 c2 38 df 10 c1 76 4f c3 c2 55 56 35 c2
       -37.49059 -9.054497 -97.6552 -45.33431
000040 99 54 38 c1 09 b8 61 c1 fa e1 f5 c1 8c bd 84 c1
       -11.520654 -14.10743 -30.73534 -16.592552
000050 a2 13 2f c1 82 ca 1b c1
       -10.942293 -9.73694

running_var f4 [22]
000000 1d 4e 53 44 9b 31 b1 44 48 c2 29 44 59 88 09 44
       845.2205 1417.5502 679.03564 550.13043
000010 49 ec b6 45 78 b1 b2 44 5c 69 c8 43 2b 5c 42 44
       5853.5356 1429.5459 400.82312 777.4401
000020 f4 31 91 44 b6 ce c1 43 ce bf 84 43 38 68 c4 44
       1161.561 387.61493 265.49847 1571.2568
000030 e4 d9 3f 44 68 6e f4 43 34 65 a3 44 64 b4 40 45
       767.40454 488.86255 1307.1626 3083.2744
000040 ac 6e ae 45 67 90 2e 43 92 f8 0e 44 6f ac 58 44
       5581.834 174.56407 571.8839 866.6943
000050 0f 97 83 43 26 00 20 43
       263.18015 160.00058

weight f4 [32, 22, 7]
000000 0c 37 bc bf 29 ac 6a c0 3a 50 90 c0 f1 aa f8 bf
       -1.4704299 -3.6667578 -4.5097933 -1.9427167
000010 91 4e 02 40 7a d3 1e 3f cc 08 49 bf 13 4d 9b bf
       2.0360453 0.6204144 -0.7852905 -1.2132896
000020 15 dd 0a 3e ea b2 8b 3e 21 b9 2e bf 60 53 8f 3f
       0.13560899 0.27284938 -0.68251234 1.1197319
000030 cc 03 59 40 bb b1 24 bf 70 ab 44 41 7a e5 70 40
       3.3908567 -0.64333695 12.291855 3.7640061
000040 68 39 5b 40 e6 12 53 c1 38 d8 36 3e 2d 8a 7c c0
       3.4253788 -13.192114 0.17855918 -3.9459336
000050 ab 51 4e 3f 33 0b 17 3f 1d 42 15 bf 76 da ae bf
       0.80593365 0.59001464 -0.58304006 -1.3660419
000060 aa fa 0b c0 d1 b2 dc be 43 ba e1 bf 91 a0 89 bf
       -2.1871743 -0.43105176 -1.7634968 -1.0752126
000070 4f 98 a9 c0 6d d4 01 40 6d 37 b8 40 f1 c7 4e 40
       -5.2998424 2.0285904 5.756766 3.2309535
000080 c1 86 02 c0 2f 30 2f 3e 9b 0b df c0 45 38 aa 3f
       -2.0394747 0.17108224 -6.9701667 1.3298422
000090 7e df 1d c0 5f 0a 0a bf 78 2a 48 40 98 f7 08 c0
       -2.4667659 -0.53922075 3.127592 -2.140112
0000a0 01 fe 19 c0 99 5e c9 bf b3 70 ac bf 58 f0 c7 bf
       -2.4061282 -1.5731994 -1.3471893 -1.5620222
0000b0 f2 b8 73 3f 6a ef 67 40 31 90 2b 40 30 b5 34 40
       0.9520408 3.6239877 2.6806757 2.8235588
0000c0 58 e6 af c0 28 da db bf cb 60 4f c0 4a 92 87 40
       -5.496868 -1.7175951 -3.2402828 4.2366076
0000d0 01 3c 9d 40 c1 7a df 3f c4 11 93 be 00 c4 be 3e
       4.9135747 1.7459337 -0.28724492 0.3725891
0000e0 39 7a 07 40 46 79 a9 40 1d 17 a6 40 a5 e6 48 40
       2.1168349 5.296054 5.1903214 3.1390774
0000f0 60 8c e6 3e 0a 19 c8 be 09 fa d3 bf 3b 49 49 be
       0.45028973 -0.39081603 -1.656068 -0.19656841
000100 45 bd 5b bf 0b e6 34 c0 06 3a e3 3f 40 84 1e 3f
       -0.8583568 -2.8265407 1.7752082 0.6192055
000110 90 12 5f 3f 85 75 10 c0 d1 38 63 bd 18 eb f6 bf
       0.871377 -2.2571728 -0.055474106 -1.9290495
000120 49 81 e3 be 3a a7 8a 3f e4 e7 5b 40 ea bd 34 3f
       -0.44434574 1.0832283 3.4360285 0.70602286
000130 34 21 a3 c0 69 6c 90 40 74 60 99 40 5e fb 3e 3f
       -5.097803 4.5132337 4.793024 0.74602306
000140 7c 2c 23 3f 6f b4 1d c0 7d 14 7b c0 02 5e e4 bf
       0.6373975 -2.4641378 -3.9231255 -1.7841189
000150 63 c0 9b 40 06 29 90 40 38 57 60 bf b0 cc 36 c0
       4.8672347 4.5050077 -0.87633085 -2.8562431
000160 3e 57 c3 bf ef cf 51 40 79 7d 04 41 84 de 00 c0
       -1.5260999 3.2783163 8.280633 -2.0135813
000170 2a 2c 01 40 6a af a3 3f ec 3b 9e 40 04 74 9b 40
       2.0183206 1.2787907 4.9448147 4.857912
000180 67 99 bf 40 5d 20 0c bf fa 45 2c c0 52 e5 1e c0
       5.987476 -0.5473688 -2.691771 -2.4827466
000190 15 cb 9f bf 8f 8f aa 3f 0e 85 80 40 68 92 9f 40
       -1.2483851 1.3325061 4.016242 4.986622
0001a0 37 29 54 40 31 93 e8 3f fa 56 95 bf 9a a0 0c bf
       3.3150156 1.8169919 -1.1667168 -0.5493256
0001b0 b5 24 12 c0 2d 54 c2 3f cb 45 cd 3f e2 3b 56 bf
       -2.2834904 1.5181938 1.6036924 -0.83685124
0001c0 ee 57 38 3f c6 3d 7d bf 1a df 39 bf 9e cf 0d c0
       0.7200917 -0.98922384 -0.7260605 -2.215797
0001d0 22 f4 f4 3e 2c a3 18 40 23 64 75 c0 48 ef bb bf
       0.4784251 2.3849592 -3.8342369 -1.4682398
0001e0 d4 99 5d 3e 93 a3 2d 40 b9 53 33 40 a3 f5 02 40
       0.21640712 2.7131088 2.801985 2.0462425
0001f0 f1 77 b4 c0 8c 1a 84 c0 75 0c 5a 3f c6 34 c2 3f
       -5.6396413 -4.1282406 0.8517526 1.5172355
000200 38 2c 3d 40 7e 85 f8 3f c9 f4 b5 40 e2 d4 40 c0
       2.955824 1.9415739 5.686131 -3.0129933
000210 a8 ae ff bf 98 9d 96 3f 2c ce 6b 3f bd 34 09 40
       -1.9975176 1.1766844 0.9211147 2.143844
000220 ce 95 42 40 46 66 85 3f ff bb 3e 40 01 64 33 40
       3.0403934 1.0421836 2.9802244 2.8029788
000230 42 d8 dd bd 50 29 6d bf 91 9b d2 3f 7e 09 2e 40
       -0.108322635 -0.9264116 1.6453725 2.7193294
000240 3f df 3f 40 15 22 a2 bf 06 83 38 c0 15 23 c0 bf
       2.9980009 -1.2666651 -2.882997 -1.5010706
000250 95 26 25 c0 6d f8 16 bf 20 ad 15 3f 34 60 df 3f
       -2.5804799 -0.5897282 0.5846729 1.7451234
000260 cc a2 16 3f af fa af c0 b3 54 8e 3f a5 a8 f0 be
       0.5884216 -5.499351 1.1119598 -0.47003666
000270 41 77 8b 3f f4 c0 0f 40 66 d5 15 40 38 ce 29 40
       1.0895768 2.246152 2.3411498 2.6532116
000280 32 24 15 3f e0 c3 83 c0 30 f7 82 c0 52 df a3 c0
       0.58258355 -4.1176605 -4.0926743 -5.121011
000290 a8 6f 68 c0 f3 37 36 c0 c7 9f 58 c0 97 38 fc bf
       -3.631815 -2.8471649 -3.384752 -1.970477
0002a0 9a 5e 13 c0 cd 0c e0 c0 0e 4a f1 c0 14 b9 06 c1
       -2.302649 -7.0015626 -7.54029 -8.420185
0002b0 90 43 b0 c0 ed d6 97 40 af 1b 73 c0 7c b7 70 40
       -5.5082474 4.744986 -3.7985647 3.761199
0002c0 82 40 e8 bc 06 87 b3 bf e4 8a 32 c0 5d 28 3b c0
       -0.028351072 -1.4025581 -2.7897272 -2.9243386
0002d0 01 ba 2e c0 65 a8 71 c0 ce 51 cb 3f 1b 77 02 40
       -2.7301028 -3.775903 1.588434 2.0385196
0002e0 e9 18 e6 bf 20 13 fa bf f0 ff d2 bd 5f 5e 59 c0
       -1.7976352 -1.9537086 -0.103027225 -3.396385
0002f0 07 51 fa bf 97 8e 12 bf f0 db 4f c0 31 1f 26 c0
       -1.9555978 -0.57248825 -3.247799 -2.5956538
000300 cd 13 3e c0 ff 3b 21 c0 53 dd 41 c0 cb db b9 bf
       -2.9699585 -2.5192869 -3.0291336 -1.45202
000310 04 92 21 3f f6 5b db 3e fd 26 94 3f 7d 13 36 40
       0.6311343 0.42843598 1.1574398 2.8449395
000320 c0 d8 1e 40 3b ec d1 3f 71 43 29 40 65 5d f8 3f
       2.4819794 1.6400217 2.6447413 1.9403502
000330 51 ee 9c bf 64 6f ca bf eb 3b ca bf d1 06 4e bf
       -1.2260228 -1.5815244 -1.5799536 -0.8047915
000340 77 46 b5 bd d7 32 43 bf 15 0e 7e c0 3f 87 a9 c0
       -0.08851331 -0.7624945 -3.9696095 -5.2977595
000350 7c 2e 81 c0 19 41 b5 bd f7 8c f9 3e 58 fe b1 3f
       -4.0369244 -0.08850307 0.4874036 1.3905745
000360 d5 9f b8 3f 71 c6 cb bf fc e2 a6 bf 6e 6f 13 bf
       1.4423777 -1.5919935 -1.303802 -0.57591903
000370 3d 75 d3 3f fc 5e 09 40 e6 5b 8b 40 e9 a8 72 40
       1.6520153 2.1464224 4.354968 3.7915595
000380 bd 5d 85 3f 5f 25 45 bf 87 84 13 3e 14 71 ba 3f
       1.0419232 -0.7701015 0.14406024 1.4565759
000390 2d 57 6c 40 a1 09 6d 40 3e 84 06 40 13 fd 0a 3f
       3.6928208 3.7037127 2.1018214 0.5429241
0003a0 ad c3 5f bf 81 e6 f0 bf e0 a9 c5 be ba 7f 14 c0
       -0.8740795 -1.8820344 -0.38606167 -2.3202958
0003b0 c3 c0 e6 bf 90 b3 aa 3f cd 86 49 3f 5b 5f a7 be
       -1.8027576 1.3336048 0.78721315 -0.32689938
0003c0 54 88 b1 bf 1d 0c 81 c0 3b 65 88 c0 05 53 2e c0
       -1.3869729 -4.0327287 -4.262357 -2.723817
0003d0 26 5e 7b c0 4d d9 13 40 fc 21 8b 40 57 37 47 40
       -3.9276214 2.310138 4.3478985 3.1127527
0003e0 5e 2e 87 40 3d 7d 9f 40 60 d3 af 40 9b f5 d1 40
       4.22441 4.984038 5.4945526 6.561231
0003f0 af 57 8a 3e 07 0c 76 bf 35 b1 17 3e 46 37 84 bf
       0.27020022 -0.961121 0.14813693 -1.0329368

bias f4 [32]
000000 20 14 52 3d 31 e5 07 3d 1d b7 5a bd 1b b3 a2 3d
       0.051288724 0.03317756 -0.053397287 0.07944318
000010 9b 2f 9d bd 7e 77 67 bd 93 74 46 bd 89 b7 b2 bc
       -0.07675096 -0.05651044 -0.048451018 -0.021816032
000020 de ea 0f 3d 45 4e 85 3c 4e 69 8e bd 01 f5 9f 3d
       0.035136096 0.016272673 -0.06953679 0.07810403
000030 29 0b 9c 3d 20 c8 1f 3d fb b3 a0 bd 0e fe 3b 3d
       0.07619316 0.039009213 -0.078468286 0.045896582
000040 fa e9 c0 3c 71 71 1c bc f9 be 88 bd 1e 01 8b 3d
       0.023549069 -0.009548531 -0.0667705 0.067873225
000050 82 10 c6 bc 8f d5 88 bd eb e8 7c 3d 84 e9 fa 3c
       -0.024177793 -0.06681358 0.061745565 0.030628927
000060 ed 0e c7 3c 0f 4f 56 3d 2f 0c e3 3c 46 56 8e bc
       0.02429911 0.05232149 0.02771577 -0.017375123
000070 9d e5 65 bc bb 62 88 3d 53 65 24 bb 3b 1f 89 bd
       -0.014031795 0.06659456 -0.0025084808 -0.0669541

weight f4 [32]
000000 1d 95 3b 40 09 0f 0a 40 de 52 15 40 11 9c 93 40
       2.9309762 2.1571677 2.3331828 4.612801
000010 e4 4f 49 40 cf 89 31 40 d8 66 1d 40 8f 03 82 40
       3.1455011 2.7740362 2.459402 4.0629344
000020 54 40 2b 40 c5 28 4b 40 39 8b 80 40 ae 04 c6 40
       2.6758013 3.1743634 4.016995 6.1880713
000030 b3 51 19 40 4b fa 28 40 ee 20 84 40 8b 10 22 40
       2.3956115 2.6402767 4.1290197 2.5322597
000040 62 17 84 40 79 a8 22 40 7f 77 b8 40 82 15 4b 40
       4.1278543 2.5415328 5.764587 3.1731877
000050 aa f3 39 40 df 65 75 40 65 4a 21 40 12 bd bf 40
       2.905497 3.8343427 2.5201657 5.99183
000060 eb 23 29 40 13 29 4f 40 70 d8 08 40 46 a4 71 40
       2.6428173 3.236882 2.1382103 3.7756515
000070 e2 f8 5e 40 7a 78 5e 40 6c 59 45 40 09 6f 23 40
       3.4839406 3.4761033 3.0835829 2.553652

bias f4 [32]
000000 16 f4 9e bf 30 16 9b 3f 7e 50 da 3e a0 c6 f3 3f
       -1.2418239 1.2116146 0.42639536 1.904499
000010 a9 d3 04 bf 01 73 19 bf 93 d9 aa bc 0a be 44 3f
       -0.5188547 -0.5994111 -0.0208557 0.76852477
000020 aa 46 11 3e 31 30 6f bf dd fe d6 bf 33 be 34 40
       0.14187112 -0.9343291 -1.6796528 2.8241088
000030 0d d8 bd 3f c0 b3 be bf fe 83 ea bf 48 cc cd 3f
       1.4831558 -1.4898605 -1.8321531 1.6077967
000040 88 42 aa c0 34 1d d6 3e b1 b2 09 40 1d 6a e1 be
       -5.3206215 0.41819155 2.1515315 -0.4402627
000050 26 5b 1d be 33 48 48 c0 87 45 27 bf 41 ad 8a c0
       -0.15366802 -3.1294067 -0.65340465 -4.333649
000060 83 c1 e5 3e 9e d6 93 bf 41 1d fc 3f 44 1d ca 3f
       0.448742 -1.1549871 1.9696428 1.5790181
000070 d1 22 4c c0 cb 9a 28 3e 61 56 6c 3f 7a 1a 17 be
       -3.189625 0.16465299 0.92319304 -0.14756194

running_mean f4 [32]
000000 7c 78 a4 41 1a 64 a8 c2 b3 56 9c 41 49 c6 ba 41
       20.55883 -84.19551 19.542334 23.346819
000010 b1 bc cc 41 78 11 2b 3f c8 a2 ee bc 5c d9 3c c2
       25.592134 0.6682353 -0.029130355 -47.212265
000020 b0 b3 af 40 0c 85 b7 c0 ed cd ce c1 13 75 56 41
       5.4906845 -5.734991 -25.85055 13.403583
000030 5f 43 dd c1 06 3f cb c1 dc c7 9a c2 49 26 88 c2
       -27.657896 -25.405773 -77.39035 -68.074776
000040 26 44 a4 c1 a9 0a 5c 42 3f 54 04 42 4a 7e e6 c0
       -20.533276 55.01041 33.08227 -7.202916
000050 aa 03 a2 41 e0 25 28 c2 a5 08 00 c1 b9 0a ba c1
       20.25179 -42.036987 -8.0021105 -23.255236
000060 89 9c ab 41 ee 9b 41 42 c7 bc 6e c2 da c8 f8 c1
       21.451433 48.402275 -59.684353 -31.098072
000070 38 19 68 41 a8 55 e9 3f 7c 28 b1 41 d4 cd 85 c2
       14.506157 1.8229265 22.144768 -66.90201

running_var f4 [32]
000000 95 fa 02 45 cf ba c5 44 1b 1d 8e 44 48 79 4e 45
       2095.6614 1581.8378 1136.9095 3303.58
000010 4b 04 fb 44 40 70 1a 45 b2 a3 bf 44 1a 8f 93 45
       2008.1342 2471.0156 1533.1155 4721.8877
000020 87 67 f0 44 e7 d1 fd 44 60 ba 95 45 1b e7 80 45
       1923.2352 2030.5594 4791.297 4124.888
000030 56 54 ce 44 35 05 3b 44 38 fe d1 44 e7 4e 0b 45
       1650.6355 748.08136 1679.9443 2228.9314
000040 d3 4f 3c 45 a4 07 41 45 65 36 82 45 4d ae 1b 45
       3012.989 3088.4775 4166.7993 2490.8938
000050 0b 78 c5 44 92 15 26 45 92 ac c3 44 8d 85 b2 44
       1579.7513 2657.3481 1565.3928 1428.1735
000060 9a 33 07 45 c8 1a 8c 44 52 d6 e1 44 70 f1 86 45
       2163.225 1120.8369 1806.6975 4318.1797
000070 65 f8 bc 44 09 5c 12 45 f4 37 27 45 af 08 0c 45
       1511.7623 2341.7522 2675.497 2240.5427

weight f4 [32, 22, 7]
000000 8d 26 91 3e 53 bc cd 3f 9a 21 22 3e 7f a1 a8 40
       0.28349724 1.6073097 0.1583313 5.269714
000010 a9 b0 25 40 f1 8b 37 c0 89 f0 ee be 9c 4d 08 c0
       2.5889075 -2.8679163 -0.4666789 -2.129737
000020 7b 13 f6 bf 52 4e 3b 40 16 28 9a 40 5d 32 37 bf
       -1.9224695 2.9266553 4.8173933 -0.71561223
000030 27 ec a6 bf 8a 03 51 40 68 27 26 40 e1 c9 77 3f
       -1.3040818 3.265841 2.5961552 0.9679242
000040 8e 37 4d 40 ec 5c d9 bd 5f b7 61 bf a7 98 cc 3d
       3.2065158 -0.106134266 -0.8817043 0.099900536
000050 ff e4 2e 40 02 b0 e8 3f 0e f5 6e 3f 8a 47 8b 3f
       2.7327268 1.8178713 0.93342674 1.0881207
000060 b0 1f 4d 3f 77 8a 01 40 0a bb da bf c8 fa e9 bf
       0.80126476 2.0240762 -1.708833 -1.8279657
000070 fc 52 43 bf f6 54 29 3f ba 8a 2b 40 42 5c ad 3f
       -0.762985 0.66145265 2.6803422 1.354378
000080 11 af 08 40 59 27 79 c0 61 ff 11 c0 c7 64 83 40
       2.1356852 -3.8930266 -2.281212 4.106052
000090 a7 f3 91 40 32 28 8b 40 19 35 8a 3f fb 09 26 40
       4.5609927 4.3486567 1.0797454 2.5943592
0000a0 1c 18 07 3f 59 ce c9 3f 4d 97 0c c1 60 0e 7f bf
       0.52771163 1.5766097 -8.786939 -0.9963131
0000b0 4a 4a 05 3e c1 20 f6 3e b5 84 78 bf d3 73 88 3f
       0.1301662 0.48071864 -0.97077495 1.0660347
0000c0 f6 f9 7f 3d dc 59 87 40 ad a0 07 c0 e7 f8 b7 40
       0.06249424 4.229719 -2.1191819 5.7491336
0000d0 b0 4c 2b c0 c2 fa 9a 40 21 fa 48 c1 9b b8 18 40
       -2.6765556 4.84311 -12.561067 2.3862674
0000e0 97 6e 62 c0 68 c2 50 c0 e4 90 10 40 e6 c9 69 bf
       -3.5379999 -3.2618656 2.2588434 -0.913237
0000f0 10 dd 89 c0 92 32 78 40 74 19 81 3f 0d dc 84 c0
       -4.308235 3.8780866 1.0085893 -4.1518617
000100 c3 44 eb be b9 94 79 c0 1a 88 0b c0 72 71 82 3f
       -0.459509 -3.8997023 -2.180182 1.0190871
000110 c9 bc 51 c0 42 01 fb c0 c9 79 58 3f e3 94 08 40
       -3.2771475 -7.8439035 0.8456083 2.1340873
000120 cd 2d 97 3f fa 50 17 c0 ac 74 b7 c0 37 43 5c c0
       1.1810852 -2.3643174 -5.732992 -3.4416025
000130 86 a2 ba 3e 47 c8 ab 3f cb 54 2a 3f f5 c8 99 3f
       0.3645212 1.3420495 0.66535634 1.2014452
000140 24 d5 54 c0 cd 01 5c 40 1d 98 17 40 58 04 0a 40
       -3.325509 3.43761 2.3686593 2.1565151
000150 e4 33 69 3f 6f f7 a1 bf 7a 91 8e c0 1c a9 f4 bd
       0.91094804 -1.2653636 -4.4552584 -0.119463176
000160 97 33 4e 40 7a 3d 9a bf 43 2a 05 c1 6c e5 d2 bf
       3.2218988 -1.2050011 -8.322818 -1.6476264
000170 18 87 3d bf 3e 11 10 c0 9b 9a a2 3f b7 97 9b c0
       -0.7403426 -2.2510524 1.2703432 -4.86227
000180 ab 54 dd c0 71 56 81 40 bc 42 20 c0 40 89 e3 3f
       -6.9165854 4.041802 -2.5040731 1.777626
000190 1e 73 d8 bd ec 8f 82 bf ca bf e5 bf 55 16 d6 40
       -0.10568832 -1.0200171 -1.7949154 6.690226
0001a0 f5 12 82 c0 b7 a0 d5 3f 46 57 da 3f f8 18 5a 40
       -4.064814 1.6689671 1.7057884 3.407774
0001b0 8b a9 64 40 89 8f e3 be f2 d5 32 3e 2b e2 70 c0
       3.572848 -0.44445446 0.17464426 -3.7638042
0001c0 c2 09 9e bd 9c c9 07 40 08 42 1d 40 d7 e1 0a c0
       -0.07716705 2.1216803 2.4571552 -2.1700342
0001d0 67 9e 52 c0 80 84 57 40 91 ab 06 40 0b 55 74 3f
       -3.290918 3.3674622 2.1042216 0.95442265
0001e0 bf e4 32 40 fa a5 ae 3f ea 25 0c 40 d4 67 5e c0
       2.7952116 1.3644402 2.189814 -3.4750872
0001f0 15 89 c3 3f 1d 9e 80 c0 32 a7 80 40 1c 8d 48 40
       1.5276209 -4.019301 4.0204096 3.1336126
000200 0e 30 6d c0 92 eb 04 c0 c7 67 9c be 2d 2b 15 bf
       -3.706058 -2.076878 -0.30547926 -0.58269006
000210 3a 01 39 bf d4 b7 01 c0 44 39 27 40 dc 55 be 3f
       -0.72267497 -2.026845 2.6128702 1.4869952
000220 84 b2 80 be 2d d5 81 3e 3c ea 2b 40 b8 62 1e c1
       -0.25136197 0.25357953 2.6861715 -9.899101
000230 73 6e 10 3e 4c ca e0 3f ce be 83 3e 63 7f 47 c0
       0.14104633 1.7561736 0.2573151 -3.11715
000240 21 16 16 c0 e5 8b 97 40 49 ff aa 40 20 62 4a 40
       -2.3451006 4.735827 5.3436627 3.162239
000250 d4 b1 b9 3f c9 c6 d2 3f 73 0f 1a c0 31 12 28 40
       1.4507394 1.6466914 -2.407193 2.6261103
000260 3f 38 24 41 04 61 6a 40 5a 99 e2 3f 51 36 be bf
       10.263732 3.6621714 1.7703049 -1.4860326
000270 b9 0a 42 c0 c4 58 02 c0 a5 72 8c bf 70 51 83 3f
       -3.0319045 -2.0366678 -1.0972487 1.0259228
000280 0a 48 58 bf 4e 58 ff 3d c4 0a ba c0 c2 ff 75 3f
       -0.8448492 0.12468015 -5.813814 0.9609338
000290 98 51 24 c0 41 a4 10 3f 30 02 e9 3f 0b 80 16 3f
       -2.56748 0.5650063 1.8203793 0.5878913
0002a0 69 74 73 40 29 3a 9b bf e3 71 1f 3e cc 46 f4 3e
       3.80398 -1.2127124 0.15570788 0.47710264
0002b0 0a 14 6b be 95 40 34 bf f0 30 4d 40 e5 f9 ac 3f
       -0.22956863 -0.70411044 3.206112 1.3513762
0002c0 46 b2 ef 3e ce 94 a1 bf c3 63 d4 3f 9e 7e 85 be
       0.468157 -1.2623537 1.6592945 -0.26073164
0002d0 cf b7 a6 3e b6 77 40 3e f5 84 3f 3e e5 69 40 3f
       0.3256211 0.18795666 0.18703063 0.7516158
0002e0 17 fb 6e 3f 73 82 68 40 41 0f 98 40 13 e2 56 bd
       0.9335188 3.632962 4.751862 -0.052461695
0002f0 85 4a d2 be 33 95 46 bd 7b 4d a4 3f dc 13 29 c0
       -0.4107248 -0.04848213 1.2836145 -2.6418371
000300 12 13 66 c0 ae be 81 c0 98 b3 8e c0 bf b0 f7 3f
       -3.594914 -4.0545263 -4.459423 1.9350814
000310 aa 9d 63 40 57 41 69 40 21 99 79 40 df 4a 2c c0
       3.556498 3.644613 3.8999712 -2.6920698
000320 bb 03 c4 bf 0d 69 37 be c0 1b 71 c0 d3 49 a8 be
       -1.5313638 -0.17911167 -3.7673187 -0.32868823
000330 df ab 4e bf 8b 24 58 c0 b7 a3 47 c0 1e 44 8f be
       -0.80731004 -3.3772304 -3.1193674 -0.27981657
000340 85 d0 84 40 3f 8d 3a 3e 37 8d d8 40 80 7f c3 3f
       4.150454 0.18217944 6.767238 1.5273285
000350 be 4f 80 c0 db b2 b0 bf 05 4b d3 bf 01 a7 ea bf
       -4.009734 -1.3804582 -1.6507269 -1.8332216
000360 8c e5 ae bf 50 a5 cb c0 3d d3 7d c0 5f 64 cb c0
       -1.3663802 -6.3639297 -3.966018 -6.3560023
000370 58 6a a2 c0 5f 94 fe 3e 55 07 38 c0 8f 4b d8 bd
       -5.0754814 0.49722573 -2.8754475 -0.10561287
000380 1f dc 1f bf 8a 47 b3 bf e4 69 0d 40 21 87 89 c0
       -0.62445253 -1.4006207 2.209588 -4.297745
000390 b8 ad 96 3f a7 df e2 bf 59 d7 c1 3f aa 3c 5e 3d
       1.1771765 -1.7724503 1.5143844 0.054257073
0003a0 2f a5 84 40 36 57 5f 40 42 a5 21 40 4c 0d 5e be
       4.145164 3.489698 2.5257115 -0.2168476
0003b0 30 d0 07 40 da aa bd 3e 5e fd 5e c0 78 2b 65 40
       2.1220818 0.37044412 -3.4842143 3.5807781
0003c0 18 7e f1 40 a1 8a f6 bc a5 ee da be 44 fb 4a 3f
       7.5466423 -0.0300954 -0.42760196 0.7928965
0003d0 cb 9d 6f 3f 22 f6 a1 c0 45 1a 87 c0 9d d8 aa 3e
       0.9360015 -5.0612955 -4.2219567 0.33368388
0003e0 07 cf 13 c0 44 b1 07 be 97 43 b5 c0 bf d9 a3 c0
       -2.309511 -0.13251215 -5.6645007 -5.1203303
0003f0 a5 09 a9 40 e2 82 9c c0 e4 f1 a3 3f 4e d0 0c 40
       5.2824273 -4.890977 1.2808194 2.200214

bias f4 [22]
000000 8d f8 9f 3d 0f af 90 3d 44 4e 26 3d 34 9f ed bc
       0.07811079 0.0706464 0.040601984 -0.029006578
000010 a1 18 e0 bc 9b 57 45 3d 35 b0 7c 3d a4 e0 a3 3d
       -0.027355494 0.04817925 0.06169148 0.08001831
000020 d6 7a 17 3d 94 51 04 bd aa 2f 14 bd 11 85 9b 3d
       0.03698238 -0.03230436 -0.03617827 0.0759374
000030 63 67 73 bd ab 27 8b bd a1 b1 05 bc 41 75 78 bc
       -0.05942477 -0.067946754 -0.008160026 -0.015164674
000040 82 64 26 3d 5d 03 68 bd 48 05 96 bc 81 65 7f bd
       0.040623195 -0.056643832 -0.018313065 -0.06235266
000050 6b 4b 5b 3d 86 8f 92 3c
       0.05353872 0.017890703

weight f4 [22]
000000 9d 5a f2 3f 25 26 00 40 0b e2 6d 40 e0 20 37 40
       1.8933903 2.0023282 3.7169216 2.8613815
000010 12 31 68 40 67 8f 5b 40 34 66 54 40 05 a0 4a 40
       3.627995 3.4306276 3.318738 3.1660168
000020 e3 1f 80 40 4d 1c 40 40 18 01 32 40 e7 a2 10 40
       4.0038924 3.0017273 2.7813168 2.2599428
000030 6a 40 a2 40 aa 13 36 40 eb 29 85 40 c0 9e 1c 40
       5.070363 2.8449502 4.161367 2.4471893
000040 17 52 30 40 5a 50 72 40 65 df 30 40 dd f4 5b 40
       2.7550104 3.7861543 2.763635 3.4368203
000050 66 8f 4a 40 85 37 45 40
       3.1650023 3.0815136

bias f4 [22]
000000 9c b8 e5 bd 22 70 10 c0 18 1f 80 3e 83 47 5c bf
       -0.11216852 -2.256844 0.25023723 -0.8604662
000010 a0 71 27 c0 c8 73 b5 bf 07 37 7d 3f d8 63 32 c0
       -2.6163101 -1.4175959 0.9891209 -2.787344
000020 82 17 d4 3c 6c da 43 c0 b5 28 75 c0 18 fa 18 40
       0.025890116 -3.0602064 -3.8306096 2.3902645
000030 0d 99 45 bf cf 9f 97 bf f4 c6 77 3e 1c bf e6 be
       -0.7718666 -1.1845645 0.24196988 -0.4506768
000040 dc 74 c8 be b0 f1 05 c0 28 b2 e9 bf 12 42 38 bf
       -0.39151657 -2.0928764 -1.8257494 -0.71975815
000050 32 23 24 c0 7e 39 14 c0
       -2.5646482 -2.316009

running_mean f4 [22]
000000 86 29 9e c1 a8 5b d2 c1 1d 2e 88 c1 71 44 bd c1
       -19.770275 -26.294754 -17.022516 -23.658419
000010 24 aa 16 c1 5d 96 86 c2 ab 53 bc c0 97 ed 5b c2
       -9.416538 -67.29368 -5.8852134 -54.98202
000020 1e 41 1b 41 bf 91 9a c2 56 8a 77 c2 28 72 b8 c0
       9.703398 -77.28466 -61.885094 -5.763935
000030 c5 b0 31 c1 66 c9 44 c2 94 6d c6 c1 ed dd 94 c1
       -11.105657 -49.19668 -24.803505 -18.608362
000040 18 62 a6 c2 a2 14 a6 c1 31 9e 30 c2 ad 37 28 c2
       -83.19159 -20.760075 -44.154484 -42.05437
000050 d8 01 81 c2 b7 1f f6 c1
       -64.5036 -30.765486

running_var f4 [22]
000000 44 a7 06 45 d1 1f b3 44 65 87 71 45 48 f7 ed 44
       2154.454 1432.9943 3864.4622 1903.7275
000010 fc 7d 17 45 1f 99 c3 45 8c cb 2c 45 4e 2c 2a 45
       2423.874 6259.14 2764.7217 2722.769
000020 ff 37 2c 45 ce f4 0a 45 d9 2e 1c 45 59 65 17 45
       2755.4998 2223.3003 2498.928 2422.3342
000030 00 71 7d 45 f7 6e 31 45 b3 8d 75 45 e5 63 12 45
       4055.0625 2838.9353 3928.8562 2342.2434
000040 59 b7 22 45 a8 d5 72 45 c0 64 24 45 ad b2 43 45
       2603.4592 3885.3535 2630.2969 3131.1672
000050 27 02 df 44 fb ca 21 45
       1784.0673 2588.6863
