model/tlscedc.pt (torch, 119202 bytes, 56 tensors)

weight f4 [8, 3, 1]
000000 9a 1e cb 3f 40 a6 36 3f 70 fa 1f 41 64 6c af 41
       1.5868714 0.7134743 9.998642 21.927925
000010 28 df fc bf 42 ac af 3f 84 fa 31 c0 77 3a 00 3e
       -1.9755602 1.3724444 -2.7809153 0.12522303
000020 ed 2c e8 41 37 7d 0b c0 1e 02 52 41 55 81 50 40
       29.021936 -2.1795175 13.125517 3.2578938
000030 db 16 78 41 4a ac 31 c0 19 b9 1d 40 57 38 34 40
       15.50558 -2.7761407 2.4644225 2.8159387
000040 6c 7f 64 bc 2b 45 da c1 7e 0b 0f bc fc 7e 4c 42
       -0.013946395 -27.283773 -0.008730767 51.12401
000050 21 14 9c bf 2e 66 d7 c0 74 8a d3 bf 11 a9 8f 40
       -1.2193643 -6.731223 -1.6526628 4.489388

bias f4 [8]
000000 57 28 e3 be 1a d3 1e be e7 6e 25 3e 0e 13 98 bf
       -0.44366714 -0.15510216 0.16155587 -1.1880815
000010 0b 7a 03 be e8 4b 09 3f b2 4a 9d 3e e9 63 79 bf
       -0.12839524 0.5363145 0.3072105 -0.97418076

weight f4 [8]
000000 53 a0 a6 3e 0e 22 a3 3e 83 a4 13 40 95 86 ec 3e
       0.32544193 0.3186192 2.306916 0.46196428
000010 68 8c 36 3f cb b8 00 40 a8 6d e6 3e 7c fd 67 3f
       0.7130799 2.0112789 0.45005536 0.9062116

bias f4 [8]
000000 c2 ba c0 3e 7c 49 4c 3f 89 7f 2d bc 56 9f 21 40
       0.37642485 0.7979963 -0.010589489 2.52535
000010 a6 9a fe 3f 5d 88 3c 3d 14 53 15 bc 73 ac 0a 40
       1.9890945 0.046028484 -0.009114046 2.1667755

running_mean f4 [8]
000000 fa 72 ed be 58 ac 0e be 26 c2 b1 3d 30 07 93 bf
       -0.46376783 -0.13932931 0.08679609 -1.1486568
000010 6b 40 01 be af 75 1b 3f e7 6b 01 3f f5 fb 7f bf
       -0.1262223 0.60726446 0.5055527 -0.9999383

running_var f4 [8]
000000 f5 a9 1a 43 ad da fc 43 f8 e3 9f 44 9b 49 8c 43
       154.6639 505.7084 1279.124 280.57504
000010 f8 17 86 43 cd 78 8d 44 6b 70 73 45 71 8c a2 42
       268.18726 1131.775 3895.0261 81.2743

weight f4 [11, 8, 7]
000000 2a da 76 bf 5c d8 db be 9f 28 bb 3e 08 91 1f 40
       -0.9642664 -0.42938507 0.3655443 2.493227
000010 7a 9e 07 40 70 e4 b3 40 cd 33 67 40 93 02 b2 bf
       2.1190476 5.6216354 3.6125367 -1.3907036
000020 cc 2a c6 3f 05 07 14 c0 84 25 f5 3f e6 0e e3 3e
       1.548181 -2.3129284 1.9152074 0.44347304
000030 83 9a 37 40 d9 c2 4e 40 48 5f 62 be 12 37 68 c0
       2.8688056 3.2306426 -0.2210666 -3.6283612
000040 79 08 96 c0 ab 1c eb c0 1d 2f 3b c1 5d 8f af c0
       -4.6885343 -7.3472495 -11.699002 -5.4862504
000050 fd 92 df c0 ae c9 82 c0 39 c4 68 bf c4 b3 88 c0
       -6.986693 -4.087119 -0.9092441 -4.271944
000060 2b d9 21 c0 1e 75 85 c0 ab 35 05 40 dc 20 0a c0
       -2.52888 -4.1705465 2.0814006 -2.1582556
000070 1f d6 05 40 18 76 81 3f 6f 23 9e 40 07 b5 8f 40
       2.091194 1.0114164 4.9418254 4.490848
000080 fa 62 16 bf bd c3 af 3f 29 c2 44 bf 2c f5 f5 bd
       -0.58744776 1.373161 -0.76858765 -0.120096534
000090 97 6c 94 bf c5 25 2d c0 25 52 64 c0 6b 79 f3 c0
       -1.1595639 -2.7054303 -3.5675137 -7.6085715
0000a0 d8 12 e4 c0 a3 0f 67 c0 38 03 db 40 b4 97 86 40
       -7.1273003 -3.6103294 6.844143 4.2060184
0000b0 d8 4c e5 40 ed 55 5c 41 0d 6e 4c 41 94 42 ac 40
       7.1656303 13.770978 12.776868 5.383127
0000c0 3c fa 08 41 00 32 7f 40 4a 2d 39 40 43 77 0e 40
       8.561092 3.9874268 2.8933892 2.2260292
0000d0 9e cd e6 40 c4 8e e9 3f 5f 01 8e 40 81 2f 24 bf
       7.2125998 1.8246694 4.4376674 -0.64134985
0000e0 de c1 bb c0 7d 25 35 3e e5 2b 8a c0 70 53 12 40
       -5.8674154 0.17690082 -4.317858 2.2863426
0000f0 f5 db 90 c0 52 69 83 3f 87 8b bb c0 fc 6a fb 3f
       -4.52685 1.0266516 -5.860782 1.9642024
000100 88 80 0a c0 d0 e9 93 c0 2a 26 4d c0 90 de de 3f
       -2.164095 -4.6222916 -3.2054543 1.7411671
000110 c7 70 7b 40 46 17 b8 40 30 fb 2f c2 48 67 3f c0
       3.9287584 5.752841 -43.9953 -2.9906788
000120 51 1b 00 40 67 47 61 bf a6 5f 81 c0 35 7d 46 c0
       2.0016673 -0.87999576 -4.042926 -3.101392
000130 36 e0 bf c0 d2 6c 78 be 73 6c 4c 3f 4f 6f 20 c0
       -5.9961195 -0.24260262 0.7985298 -2.5067937
000140 66 35 a1 3f 5e 34 81 be 90 db b7 3f 65 16 16 3f
       1.2594421 -0.25235265 1.436388 0.5862792
000150 5c 72 86 bf 19 51 f3 3f ac 1f ad bf 08 a8 bf 40
       -1.050365 1.9009124 -1.352529 5.9892616
000160 dd 3d 21 c0 91 b0 1c 40 a2 a8 87 c0 8b 2d 57 40
       -2.5194008 2.4482768 -4.239335 3.3621547
000170 66 ce 1a c0 96 68 71 c0 de 34 d6 be c8 75 be 40
       -2.4188476 -3.7720084 -0.4183721 5.9518776
000180 f5 8d 88 3f 3f d0 e4 40 fb 8b 8d c0 d3 02 c8 3f
       1.0668322 7.1504207 -4.4233375 1.5625862
000190 a5 e0 14 c0 ca 73 29 40 5d e4 61 3f c3 1d 51 be
       -2.3262112 2.6476922 0.8823908 -0.2042151
0001a0 c3 b8 3f bf e7 5a f4 bf 72 ff 2c bf 7f 06 3b c0
       -0.748913 -1.9090241 -0.6757728 -2.9222715
0001b0 a8 bd 01 40 df 1a 1f bf 34 f7 1b 40 d6 36 a5 bf
       2.0272007 -0.6215038 2.436963 -1.290736
0001c0 fe ba c4 40 e2 96 fd 3e 6b 27 fb 40 56 c9 6c 40
       6.147826 0.49529177 7.848562 3.6997886
0001d0 fa 2a 0e 40 e9 ae 81 3e 87 93 77 40 a0 de 35 c1
       2.221373 0.25328758 3.8683794 -11.366852
0001e0 96 9f 7a c0 1a 49 c8 c0 00 03 4c 3f 7f a5 ae be
       -3.9159904 -6.2589235 0.7969208 -0.34110638
0001f0 88 13 1b 40 1c 46 e2 40 9a 99 13 3f 57 e9 b2 3f
       2.423067 7.0710583 0.5765625 1.397746
000200 e7 a1 3b 40 3b 09 e8 3e b7 bb 85 40 5b ac 64 3f
       2.9317567 0.45319542 4.1791644 0.89325494
000210 78 fd cc 3f e0 97 19 c1 ec 37 27 c1 d6 9a 65 c1
       1.6014853 -9.599579 -10.451153 -14.350302
000220 2b 92 6f bf c5 50 36 c1 56 42 62 c1 d1 69 4f c1
       -0.9358241 -11.394719 -14.141195 -12.963334
000230 0a 03 11 41 c6 65 93 40 80 3f 3c 41 e9 02 c4 40
       9.063242 4.6061735 11.765503 6.1253552
000240 71 47 58 c0 4b 5a ee be f9 c1 c4 bd 74 23 ce be
       -3.3793604 -0.46553263 -0.0960731 -0.40261424
000250 94 f6 7f 3e 17 71 b9 bf 86 e9 da 3f 79 04 a8 3e
       0.24996406 -1.4487637 1.7102516 0.32815912
000260 aa bb 6b 3f fc 9a 96 be 93 de 95 3f fe 1e 93 40
       0.9208323 -0.2941512 1.1708549 4.597533
000270 94 09 a8 40 f2 f6 23 41 44 17 89 40 73 a7 b6 40
       5.251169 10.247789 4.28409 5.7079406
000280 e4 36 13 41 f9 79 08 c1 eb 86 08 c0 74 ed 92 c0
       9.200901 -8.5297785 -2.1332347 -4.591486
000290 67 a7 13 41 e1 e3 0f c1 e9 00 a5 c0 04 31 cf bf
       9.22837 -8.9931345 -5.156361 -1.6186833
0002a0 82 35 89 bf 3d a4 c9 3f 88 17 5a 3f c3 8f 96 c0
       -1.0719454 1.5753247 0.85192156 -4.705049
0002b0 de f3 97 40 20 dc 20 c0 a6 56 a0 3f f9 07 93 3e
       4.748519 -2.5134354 1.2526443 0.2871702
0002c0 38 a9 7b be 8f a5 e7 bc a6 01 c9 3d 69 9b e3 bd
       -0.2457627 -0.028277187 0.098147675 -0.111136265
0002d0 96 b0 49 3e 60 da e2 be be 6d 3e c0 0b 75 c7 40
       0.19696268 -0.44307232 -2.9754481 6.2330375
0002e0 26 69 e3 bf 39 97 cd c0 73 f5 0a 41 96 1f 95 c0
       -1.7766464 -6.42471 8.684924 -4.6601057
0002f0 8e b3 4f 3f fb 0d cc bf 94 26 82 40 22 23 46 c0
       0.81133354 -1.5941767 4.0672092 -3.0958943
000300 1c 98 03 c0 8a 1b b1 40 9a 80 45 c0 62 6f 51 3f
       -2.056159 5.5346117 -3.0859742 0.8181058
000310 38 d0 47 3f 11 fb 2e c0 af f5 3d 40 67 d9 84 be
       0.7805209 -2.7340739 2.9681203 -0.25947115
000320 cc 06 28 c0 04 bd 10 40 85 b4 02 bf 85 04 84 40
       -2.6254148 2.2615366 -0.510567 4.1255517
000330 18 8b 17 c1 ca ba a3 40 7f be 8b 40 ca c5 f2 c0
       -9.471458 5.1165514 4.367004 -7.586644
000340 67 fd 78 40 7a 8a db be fa fe fc be 2e 13 9a 3e
       3.8904665 -0.42879087 -0.49413282 0.30092758
000350 98 35 8e bf 57 55 53 3e 08 62 1c 3f 27 b8 b9 bf
       -1.1110106 0.20638023 0.61087084 -1.4509324
000360 6c 6a b4 3e 55 46 10 c0 51 fd c3 40 a6 6d 85 c0
       0.35237443 -2.2542927 6.1246724 -4.169635
000370 6c f5 97 c0 47 af f1 40 2b 4c 4d c0 02 37 0d 3f
       -4.7487087 7.552646 -3.207774 0.5516206
000380 25 e2 16 40 2d 51 ff 3d 4f 5f c9 3f c2 31 a6 40
       2.3575528 0.12466655 1.5732211 5.193574
000390 95 db 16 bf 43 de 91 3f 1e 29 3b 40 96 04 4d 40
       -0.58928806 1.1395954 2.9243846 3.203405
0003a0 75 56 b3 bf c8 89 55 c0 5a 6d 8a c0 92 80 fb 3f
       -1.401076 -3.3365345 -4.3258486 1.9648612
0003b0 cb c3 4a 40 89 78 b6 40 62 98 c2 40 9c 24 9a bf
       3.1682003 5.702214 6.0811014 -1.2042422
0003c0 8c fb fd be fd 7f a1 c0 97 2d f4 3e ac 3a 5f 40
       -0.49605978 -5.0468736 0.47691032 3.487956
0003d0 fa 47 f8 40 71 1c 97 3f 55 50 a4 bf 0e a8 38 bd
       7.758786 1.1805555 -1.2837015 -0.045082144
0003e0 26 81 b3 3f b8 20 65 3f c4 90 93 3f e7 d6 d6 3f
       1.4023788 0.8950305 1.1528554 1.6784333
0003f0 1f 74 03 c0 ea c3 16 c0 54 64 4d bf 9d 61 9c 40
       -2.0539625 -2.3557076 -0.80231214 4.8869157

bias f4 [11]
000000 31 49 8f 3b af f5 ac bd 09 0e 06 3e 8f 3f a9 bd
       0.004372739 -0.08445298 0.13091291 -0.08264076
000010 00 30 d5 3d be fd 42 bc f7 fb 8d 3b 73 d2 d1 3d
       0.10409546 -0.011901317 0.004333015 0.10245218
000020 58 cc 8b bb 36 3d 49 be 43 0d bc bd
       -0.004266303 -0.19652256 -0.09182217

weight f4 [11]
000000 36 40 b7 40 3e 66 2b 41 ab c0 47 40 36 6f 16 40
       5.7265882 10.712461 3.1211345 2.3505378
000010 7f 4a f3 40 11 42 12 41 60 ee 73 3f 94 b8 d4 40
       7.6028438 9.1411295 0.95285606 6.6475315
000020 72 4a 82 40 b0 b9 b2 40 fc 62 68 40
       4.0715876 5.585167 3.6310415

bias f4 [11]
000000 3c 43 05 42 34 9f 5c c0 65 ad 94 41 f9 a5 ad bd
       33.31566 -3.447217 18.584665 -0.084789224
000010 41 69 a0 bf 0c 68 b0 bd 24 da d3 bd d0 b2 08 3c
       -1.2532121 -0.08613595 -0.103443414 0.0083434135
000020 8e 69 a1 40 52 10 bf bc 55 f7 5d bd
       5.044135 -0.023323212 -0.054190952

running_mean f4 [11]
000000 aa f5 c4 40 a2 2b 20 c2 c7 8b 23 c3 98 e4 ae 3e
       6.1549883 -40.04261 -163.546 0.34158778
000010 48 f7 c7 41 6a 05 8a 3e 33 ba 6a c3 6b 1a 5f bf
       24.995743 0.26957256 -234.72734 -0.87149686
000020 8a 96 21 c2 38 b3 38 c0 c0 d4 08 3f
       -40.39701 -2.8859386 0.5344963

running_var f4 [11]
000000 e0 c4 00 45 97 cb ce 45 55 c8 9d 44 80 22 2e 42
       2060.3047 6617.4487 1262.2604 43.53369
000010 7b 34 35 45 a2 dd bb 44 cd e1 9b 45 e2 37 fa 43
       2899.28 1502.926 4988.225 500.43658
000020 db 51 2c 44 d0 e7 37 44 15 1b 10 43
       689.279 735.6221 144.10579

weight f4 [16, 11, 7]
000000 97 49 82 bf 6c 62 09 c0 e7 a3 67 bf 4a 6b 0f 3f
       -1.0178708 -2.1466322 -0.9048447 0.56023085
000010 30 ae 41 3f ca 77 44 bf d2 d1 c8 be ea cb 1c c1
       0.75656414 -0.76745284 -0.3922258 -9.799784
000020 26 da c8 c0 7a 3f 1c c0 f1 b5 87 40 9a fc 7b 40
       -6.2766294 -2.4413743 4.2409596 3.9372926
000030 2a 34 47 c0 88 cb b7 c0 e5 63 45 c0 9b be 3c c0
       -3.1125588 -5.743595 -3.084222 -2.9491336
000040 3f 6f 3d 40 fc 1f 3f be 6d 90 80 40 2c 23 56 40
       2.959915 -0.18664545 4.01763 3.3458967
000050 9b 87 a6 bf fc 54 84 40 ae f7 ae c0 40 7f 5e c1
       -1.3010134 4.135374 -5.4677343 -13.906067
000060 5e 8e 9a c1 e4 08 9a c1 13 53 e2 bf 09 58 a9 40
       -19.319515 -19.254341 -1.7681602 5.2919965
000070 40 5c ad c0 ba 91 0a c1 ed 2b 57 c0 c3 b6 97 c0
       -5.417511 -8.660578 -3.362056 -4.74106
000080 63 37 97 40 80 d2 aa 3f f5 e1 e4 bf bb ce 28 c0
       4.725511 1.334549 -1.7881457 -2.6376178
000090 20 9c 88 c0 99 42 73 c0 b5 ae 54 c0 03 72 81 bf
       -4.269058 -3.8009398 -3.3231633 -1.0112919
0000a0 fb e2 85 3f 68 2c ce 3f 08 7b e4 3d c9 bd 29 c0
       1.0459894 1.6107302 0.11156279 -2.6522086
0000b0 13 76 60 c0 a6 e2 83 c0 d6 ff df 3f e1 c4 b1 40
       -3.5072067 -4.121417 1.749995 5.555283
0000c0 be 4d 21 40 50 33 d3 bf 02 f4 34 c0 18 4f 47 c0
       2.52037 -1.6500034 -2.827393 -3.1142025
0000d0 6c 1a 46 c0 f1 7f 6d bf b1 97 8c 3f bd c9 ae 3f
       -3.0953627 -0.9277335 1.0983793 1.3655316
0000e0 db 5c 5a 40 d5 73 bb 40 50 77 22 40 35 48 2e c0
       3.4119174 5.8578897 2.5385323 -2.7231572
0000f0 85 0d 97 c0 4b d4 8a c0 ad 2b 07 40 c9 61 39 c1
       -4.7204003 -4.3384147 2.1120408 -11.586373
000100 37 26 a6 c1 8f b0 dd c1 b2 a5 d0 c1 29 a5 66 c1
       -20.76866 -27.71121 -26.080906 -14.415322
000110 b9 a6 87 bf 89 b9 fe 3f af f7 50 c1 50 5c cf c1
       -1.0597755 1.9900371 -13.06047 -25.920074
000120 5d 7a 03 c2 2d 3d f8 c1 de 2c 4f c1 ea 4e 7b 40
       -32.869495 -31.029871 -12.948454 3.9266915
000130 d3 5d 3e 40 e9 4b 1d be b8 19 0f bf bd 66 cd bf
       2.9744766 -0.15360989 -0.5589862 -1.6046978
000140 ed 97 85 3f 48 ab 69 3f 09 ba 29 40 87 61 9e bf
       1.0436989 0.9127698 2.6519797 -1.2373513
000150 90 32 02 c0 57 c7 cd bf 38 a7 43 c0 f8 0d 2e 40
       -2.034336 -1.6076459 -3.0570812 2.7196026
000160 e6 95 01 41 8b 11 85 40 8d 18 a8 c0 6f 76 d3 c0
       8.099096 4.1583915 -5.252997 -6.608207
000170 91 72 8e c0 9d d2 8f be 2a 51 9f c0 39 e8 d8 bf
       -4.451485 -0.28090373 -4.9786577 -1.6945869
000180 87 81 5f 41 ed 74 88 40 2c e0 a7 40 d9 79 0f 41
       13.969123 4.264273 5.2461147 8.967248
000190 81 b2 ac 40 b2 ca 76 c0 b0 61 6f c1 4a 19 a1 c1
       5.39679 -3.8561215 -14.9613495 -20.137348
0001a0 da b2 9e c0 74 63 16 40 e5 f2 9e bf 3a d2 01 c0
       -4.9593325 2.3498201 -1.2417876 -2.0284562
0001b0 e0 ec 1a c0 13 6a 74 40 88 a7 5a 40 0a 63 f6 bf
       -2.4207077 3.8189743 3.4164753 -1.9248974
0001c0 07 8e 00 c1 f4 61 7b c1 7a e5 9e c1 c1 29 a1 c1
       -8.034675 -15.711414 -19.86205 -20.145388
0001d0 d0 e4 96 c1 32 c5 a0 c0 08 6c 4c 40 f6 15 92 3f
       -18.861725 -5.0240717 3.1940937 1.1412952
0001e0 4b 47 30 40 70 64 94 bd b7 50 1e c0 93 a5 da c0
       2.7543514 -0.072457194 -2.4736764 -6.8327117
0001f0 72 e4 4e 3f 00 f8 64 40 00 d2 42 be 9f c2 c2 c0
       0.8081733 3.5776367 -0.19025421 -6.0862575
000200 65 41 1d c1 5b 79 3a c1 6e f0 8c c1 9f 80 d0 c0
       -9.828465 -11.654628 -17.617397 -6.515701
000210 fb 68 63 be 38 a3 8d 3f a2 52 cc 3f da 74 6b 3f
       -0.22208016 1.1065435 1.5962718 0.91975176
000220 0b ec 1f c0 30 9e 8f c0 24 6b 3c c0 fd ab d0 40
       -2.498782 -4.48806 -2.9440393 6.5209947
000230 c2 b0 bb c0 c3 a2 4d c1 22 d6 ab c1 fa 69 c6 c1
       -5.865327 -12.852237 -21.479557 -24.801746
000240 5f 62 dc c1 f6 cf 57 c1 c9 9a 3d 3e 94 09 6f 40
       -27.548033 -13.488272 0.18516077 3.7349596
000250 21 e2 43 3f 5b e9 f5 c0 c0 f9 ae c1 99 c8 b6 c1
       0.7651692 -7.684736 -21.871948 -22.847948
000260 7d 00 6a c1 81 81 b5 3f f7 3e 0a c1 89 2f fa c0
       -14.625119 1.4180146 -8.640372 -7.8183026
000270 cc 72 45 41 ce 9b 3e c0 8e 30 12 41 f4 72 5f c0
       12.340527 -2.9782596 9.136854 -3.4913912
000280 45 77 57 c1 c4 85 7d 3f ae 03 cd c0 0d 56 71 c1
       -13.466619 0.99032235 -6.406699 -15.0835085
000290 af e7 ad c0 d8 8f 73 c1 d0 ab b4 bf c8 b8 b7 bf
       -5.4345317 -15.222618 -1.4114933 -1.4353266
0002a0 6f 1b a6 3f 04 40 12 3f 1f 5b 84 bc 7e f7 1f 40
       1.2977122 0.5712893 -0.016156731 2.4994807
0002b0 df a7 97 3f f0 0f 5c 3e 36 51 3d bf e4 52 e9 bf
       1.1848105 0.21490455 -0.73952043 -1.8228421
0002c0 80 21 6e c0 86 07 34 c0 05 12 5a c0 e0 60 25 bf
       -3.7207947 -2.8129592 -3.4073498 -0.64600945
0002d0 c1 b9 3b 3e 8e b9 c2 be 7e 4c e2 bf 21 7a 18 c0
       0.18332578 -0.38032192 -1.7679594 -2.3824542
0002e0 a8 74 fd c0 9e 0b 30 c0 95 ed 49 c1 28 79 be c0
       -7.9204903 -2.750709 -12.620503 -5.9522896
0002f0 2e 3a bc c0 b6 8a 25 bf 9d bd dc bf 5a e4 5c c0
       -5.882102 -0.6466478 -1.7245365 -3.4514375
000300 62 bd 4b c0 f2 26 81 be 82 4d 71 3f ea 83 bb 3f
       -3.183434 -0.25225025 0.9425889 1.4649632
000310 ae c9 19 3f a8 88 6e c0 e3 7a 15 40 94 50 2c 40
       0.60073364 -3.7270908 2.3356254 2.692418
000320 f8 3c 28 3f 7c 6f 8e 40 d3 ec fd c0 04 9a 26 40
       0.6571803 4.451109 -7.935159 2.6031504
000330 32 68 06 40 b9 d6 52 40 7c 82 78 40 d9 c7 b9 40
       2.1001096 3.2943556 3.8829641 5.8056455
000340 dc 29 9c 40 ea 57 52 40 39 8a 8b 40 4e 3d 8d 40
       4.88011 3.2866158 4.360623 4.4137335
000350 0f a3 9d be c8 59 3f c0 d1 b0 86 c0 3d 27 8a bf
       -0.30788466 -2.9898548 -4.209084 -1.0793225
000360 24 94 cc 40 a6 b5 6d 3f bb 3f f8 3e a5 a7 15 bf
       6.3930836 0.928553 0.48486122 -0.5845893
000370 3d 36 5f 3f ac 35 30 40 22 84 43 40 f1 cd 5a 40
       0.87192136 2.7532759 3.0549397 3.4188197
000380 59 52 0e c0 c0 e2 0e c0 80 b0 8c bf 5c 72 69 be
       -2.223776 -2.2325897 -1.0991364 -0.22797531
000390 19 46 db 3f 1a d7 76 3f e4 c3 87 3c fa 19 0e 40
       1.7130767 0.9642197 0.0165729 2.2203355
0003a0 8e 8e 62 40 16 ab 37 c1 b9 3e c1 40 c8 fb 23 41
       3.5399508 -11.479269 6.0389066 10.24897
0003b0 88 df 58 c1 c5 2a 53 40 f3 9c 25 3f 6e 9b 8c 40
       -13.554573 3.2994854 0.6469261 4.3939734
0003c0 d9 8c 95 40 28 7f af c0 77 09 a3 40 e4 96 c2 3f
       4.6734433 -5.484272 5.0949054 1.5202298
0003d0 63 18 34 c1 32 31 05 c0 33 4a 45 3d 59 15 e4 40
       -11.255954 -2.0811276 0.048166465 7.127606
0003e0 5c 3f b2 c0 f0 19 94 bf 46 ff 99 40 3e ee 54 c0
       -5.5702343 -1.1570415 4.8124113 -3.3270411
0003f0 31 39 46 3f 76 09 fb 3e 15 95 a2 bf 29 cf 34 3e
       0.7743102 0.49030656 -1.2701746 0.1765715

bias f4 [16]
000000 72 59 9b 3d bf 3d dd bd 6c fe 5d 3b 37 d9 52 bc
       0.0758542 -0.10802793 0.003387357 -0.012869171
000010 59 35 84 bd 25 39 2d 3d 4f 8f 87 bc 70 22 cc 3d
       -0.06455488 0.042290825 -0.016547827 0.09967506
000020 7f 13 94 bd 30 5c 5f 3d be e2 b3 bd 30 6c 77 bd
       -0.07230281 0.054531276 -0.08783482 -0.06040591
000030 41 14 bb bb c2 15 bc 3d ab bc 84 3d f3 60 b1 bd
       -0.0057092016 0.091838375 0.06481298 -0.0866107

weight f4 [16]
000000 51 5d 00 41 4c d5 1e 41 d1 ab 38 40 89 27 23 40
       8.022782 9.927074 2.8854868 2.549288
000010 9c 4e 97 40 ec 7a 37 40 27 5b 17 40 61 12 47 40
       4.728346 2.8668776 2.3649385 3.1104968
000020 1c 55 2d 40 04 83 b0 40 17 11 8d 40 42 8e c4 40
       2.7083197 5.515993 4.408336 6.1423655
000030 9c 46 ec 3f 7f fd 23 40 ee 4d 66 40 9b 96 e2 40
       1.8459048 2.5623472 3.5985065 7.0808845

bias f4 [16]
000000 f2 25 6c c0 1a 1d ed c0 a3 6e bb 3f a6 01 8e 3e
       -3.689816 -7.4098024 1.4643139 0.27735633
000010 68 a5 e9 be 58 64 d9 3d a0 51 b8 3e 63 9d ae 3c
       -0.45634007 0.10614842 0.35999775 0.021315282
000020 de 84 8d c0 0d 13 d9 40 4b 3e 76 3f 6f e5 4b bf
       -4.422469 6.7835755 0.961888 -0.7964696
000030 32 1a bf 40 5a 95 ab 3f 8a 8a 47 41 ec c0 a9 c0
       5.9719477 1.3404953 12.471323 -5.3048

running_mean f4 [16]
000000 49 76 d0 c3 2b da e8 c3 12 5e e4 c3 e7 3f 3f 41
       -416.9241 -465.70444 -456.73492 11.953101
000010 83 47 ac c4 6a 3c fa c0 99 9b 7c c2 c6 a2 b0 c1
       -1378.2347 -7.819875 -63.15195 -22.07948
000020 dd 33 f1 c3 d6 2e 8c 42 67 84 9d c3 cf 65 64 c3
       -482.40518 70.09148 -315.0344 -228.39769
000030 53 e9 4d c4 6c 2b f3 c3 5c 92 77 c3 0e eb f8 c2
       -823.6457 -486.33923 -247.57172 -124.45909

running_var f4 [16]
000000 48 19 12 48 19 fb a7 48 8d 46 b0 46 b8 c5 fe 45
       149605.12 344024.78 22563.275 8152.715
000010 c8 44 89 46 a9 5f 15 46 58 c3 79 46 b6 c8 55 46
       17570.39 9559.915 15984.836 13682.178
000020 d4 74 d7 46 9f 8a eb 47 ee f9 61 47 18 3e 86 47
       27578.414 120597.24 57849.93 68732.19
000030 33 c4 91 46 d0 fa 00 47 70 e2 cb 47 31 a8 8e 47
       18658.1 33018.812 104388.875 73040.38

weight f4 [22, 16, 7]
000000 6e 77 8a c0 28 7d 5f c0 bb d9 4b c0 d2 de e4 bf
       -4.327079 -3.492014 -3.1851642 -1.7880499
000010 fc b9 83 40 2a 1a db 40 5c 65 9a 40 0d 0c fc c0
       4.116453 6.846944 4.824873 -7.876471
000020 05 0f 3c c1 e2 86 74 c1 d6 8c 7f c1 4b 65 bc 40
       -11.753667 -15.28293 -15.971884 5.887365
000030 ca f0 97 41 08 28 0d 42 b2 74 c6 3f db d4 43 40
       18.992573 35.289093 1.5504363 3.0598667
000040 37 c6 74 40 ab ae ea 3f 29 87 f2 be 46 d8 34 c0
       3.824598 1.8334554 -0.47368744 -2.8257003
000050 fb be f3 c0 3e d7 a8 3e b4 43 15 3f f2 f7 ce 3f
       -7.617063 0.32976717 0.5830643 1.6169417
000060 a4 98 d0 3e b0 bb 19 bf 6b fe 24 c0 17 b2 de c0
       0.40741456 -0.60052013 -2.5780284 -6.9592395
000070 fe d7 9a c0 86 0c 0d c0 99 43 50 c0 20 1d a5 bf
       -4.838866 -2.2038894 -3.2541258 -1.2899513
000080 9e 95 d4 3f ed a6 86 3f 47 69 66 40 6c 54 18 3f
       1.660816 1.0519692 3.6001756 0.5950382
000090 d5 b6 44 3f 40 e1 15 40 bc e3 84 3f d5 6c ae be
       0.7684148 2.3418732 1.0381999 -0.34067407
0000a0 5f 7f e7 bf df 8f ef c0 20 50 02 40 98 77 b8 3f
       -1.8085746 -7.4863124 2.0361404 1.4411497
0000b0 45 0c 8c 3f 45 94 d7 bc 34 16 3c bf f1 1d 78 bf
       1.0941244 -0.026315818 -0.7347138 -0.96920687
0000c0 a7 0b 02 c0 ab 36 51 3f 67 b5 3d 3f 38 a5 fa 3f
       -2.0319612 0.8172404 0.74104923 1.9581671
0000d0 7b c0 7e 3f ff b2 97 3e 71 2d a0 bf 1d ca ba c0
       0.9951245 0.2962875 -1.2513868 -5.837172
0000e0 25 b6 9e c0 7a 0b 0a c0 ed 40 21 c0 7b ac e7 3f
       -4.9597344 -2.1569505 -2.5195878 1.8099512
0000f0 e0 b5 c1 40 b6 4e a5 40 fd ed d3 40 e5 ad 9a 40
       6.0534515 5.1658583 6.6228013 4.8337274
000100 78 a6 dc 3f ef d9 0b 40 62 33 f4 3e cb 27 3e c0
       1.7238302 2.1851766 0.47695452 -2.9711788
000110 9d 01 10 c0 f7 15 90 c0 9e 18 92 c0 69 33 80 c0
       -2.2500985 -4.5026813 -4.565505 -4.0062757
000120 d1 e5 c0 c0 07 a2 2d bf 58 53 03 40 71 5d 67 40
       -6.0280538 -0.6782536 2.051962 3.6150782
000130 8f 94 3b 41 f6 23 c4 c0 e4 5d a1 c0 4c 3b a4 c0
       11.723769 -6.12939 -5.0427113 -5.1322384
000140 22 1d c4 3f 31 36 ed 40 a5 9b 29 41 ed 23 40 41
       1.5321391 7.412865 10.600499 12.008771
000150 49 06 6f 40 e1 11 26 40 89 13 70 40 b5 e3 56 40
       3.7347586 2.5948412 3.7511923 3.3576481
000160 0c 09 0d bf 2c 25 a4 3e b8 e6 b9 3e b9 96 6a c0
       -0.5509193 0.3205961 0.36308837 -3.6654494
000170 d0 67 6c c0 aa eb 90 c0 4b e2 51 c0 5b 38 cc 3f
       -3.6938362 -4.5287676 -3.2794368 1.5954698
000180 30 a8 50 40 0a ad fb 40 3d 52 c3 bf 03 e2 a7 c0
       3.2602654 7.864873 -1.5259472 -5.2463393
000190 db d6 9c c0 7d a4 ab bf 8f c1 1f 40 c7 91 e6 40
       -4.9012275 -1.3409573 2.4961889 7.205295
0001a0 0a 0c 55 41 92 eb 84 c0 86 ea c3 c0 44 f4 e6 c0
       13.315439 -4.153756 -6.1223783 -7.2173176
0001b0 e1 1c b7 be 78 fe ca 40 a3 75 26 41 d0 b8 83 41
       -0.3576422 6.343563 10.40372 16.46524
0001c0 a7 cf db bf 3d 15 95 3e 52 f4 86 40 aa 01 7f 41
       -1.7172745 0.29117766 4.2173243 15.937906
0001d0 ad 4a 13 c1 cc cc 05 c1 a1 01 7f c0 0c b8 a5 3e
       -9.205731 -8.362499 -3.9844744 0.3236698
0001e0 52 23 79 40 81 f8 93 41 d4 23 d4 41 9e 39 dd c1
       3.8927808 18.49634 26.517494 -27.653133
0001f0 f4 71 9e c0 91 b7 02 c0 5b 7a 36 bf a5 5d 5e c0
       -4.9514103 -2.042454 -0.7128045 -3.4744656
000200 d3 b0 a9 c0 55 91 a5 40 b6 06 2d 3f ca 97 88 bf
       -5.302835 5.1739907 0.67588365 -1.0671322
000210 cf b0 4b bf 24 ff 1f c0 4c 0a ad c0 5d d9 e9 c0
       -0.79566664 -2.4999475 -5.407507 -7.3077836
000220 18 f5 9b 40 f6 6a b6 3f 17 a3 7a bf 6c 00 af be
       4.8736687 1.4251392 -0.97905105 -0.3418001
000230 43 33 75 c0 30 a0 2b c0 d0 77 90 3f 62 3e 8e be
       -3.8312538 -2.681652 1.1286564 -0.2778197
000240 58 a5 00 3e 37 59 ff 3f e8 2f d0 be 2f f0 1b c0
       0.12563074 1.9949101 -0.4066155 -2.4365346
000250 c1 3f 96 c0 5c 62 17 c1 74 13 c5 40 10 da d5 3f
       -4.6952825 -9.4615135 6.1586246 1.6707172
000260 7c e6 8a bf 44 28 13 bf 69 da 04 3f 8c 0b 0a 3e
       -1.0851588 -0.57483315 0.5189577 0.13480967
000270 99 b2 5e bf 36 9b 38 3d 19 95 82 bf 5e 0f 35 bf
       -0.8699127 0.045069896 -1.0201751 -0.70726573
000280 28 f7 98 be af e6 0d c0 5d 7a 86 c0 7a eb 16 c1
       -0.29876065 -2.2172048 -4.202437 -9.432489
000290 f1 c7 e1 40 e9 57 03 40 7d 3d ea bf e4 71 45 bf
       7.055657 2.0522406 -1.8300015 -0.7712691
0002a0 c4 7f c8 bd 47 b3 e2 3d 70 b7 15 40 4e 37 a6 40
       -0.09789994 0.11069351 2.3393211 5.194251
0002b0 f3 fd 2c c1 35 5e be bf 88 5a dc be f5 45 84 3f
       -10.811999 -1.48725 -0.4303782 1.0333849
0002c0 49 5a a7 bf 5b 6d b2 bf 01 f8 cf bf e7 7b 86 40
       -1.3074428 -1.3939623 -1.624756 4.202625
0002d0 ae 58 ad bf f4 19 89 3f 02 87 3c 40 3a 12 53 40
       -1.3542688 1.0711045 2.9457402 3.2979875
0002e0 e0 11 df 40 03 b4 dc bf c6 e0 13 c1 85 21 0c 3f
       6.970932 -1.7242435 -9.242376 0.54738647
0002f0 b8 5e 5c be b9 db 47 3e 30 1a 03 3f 74 b6 88 40
       -0.21520507 0.19517411 0.51211834 4.272272
000300 ed 76 80 40 2b f5 a6 c0 d5 3a 99 bf 72 b0 01 bf
       4.0145173 -5.2174277 -1.1971079 -0.5065986
000310 78 3e b7 bf d1 b9 ec bf e6 b8 5e bf d5 4b eb c0
       -1.4315939 -1.8494207 -0.8700088 -7.353007
000320 7f da 0f 41 31 c6 ba 3f 54 6e b5 3f d7 da bb 3f
       8.990844 1.4591733 1.4174294 1.467616
000330 0f 80 a5 3f cb ab 66 40 16 39 6a 40 69 33 d8 c0
       1.2929705 3.6042354 3.6597342 -6.7562757
000340 1a 82 74 c0 7e 78 20 c0 73 7c 29 bf 97 e0 64 3f
       -3.8204408 -2.5073543 -0.6620552 0.89405197
000350 01 8a 13 41 28 47 c4 40 e9 ce 34 c1 ee bb 4e c0
       9.221192 6.133686 -11.300515 -3.2302203
000360 1b 85 2b bf 95 08 da 3e 8c cd f6 3d 7d 8d 67 41
       -0.6699998 0.42584673 0.12050924 14.472043
000370 6f 7e a9 c0 8b b5 61 c1 64 f4 97 3f 43 f8 e2 3e
       -5.296684 -14.106822 1.1871457 0.44330034
000380 ed f3 c6 be 94 44 0d bf 48 ef c8 be 5f 7a 3a 40
       -0.38857976 -0.55182767 -0.39245057 2.913719
000390 10 b2 4b be 37 81 82 3f b1 24 d6 3e d6 24 a3 3f
       -0.19892144 1.0195683 0.41824868 1.2745616
0003a0 7b 7d 05 c0 b4 dd cb c0 24 1b a2 be c0 eb 60 c0
       -2.0857837 -6.3708134 -0.31661332 -3.514389
0003b0 ca a2 5a 3e 0f 7a 9e 40 21 85 c3 bf 0e 41 3f bf
       0.21351162 4.9523997 -1.5275003 -0.7470864
0003c0 07 c5 13 c0 e0 5f 2e c0 6b e2 05 3b 10 33 c2 3f
       -2.3089006 -2.7246017 0.0020429145 1.5171833
0003d0 25 58 a4 40 21 1e 31 3f 06 32 e0 3f 93 77 1e 40
       5.13576 0.691866 1.7515266 2.4760482
0003e0 32 24 ef 3f 46 c5 0b 40 aa d2 cc 3f 37 9f d9 3f
       1.8682921 2.1839156 1.600179 1.7001714
0003f0 d8 3c ec 3f b0 bf 11 40 a6 94 15 3f 4f c8 d8 3f
       1.8456068 2.2773247 0.58429945 1.6936129

bias f4 [22]
000000 6a 68 e8 bc 59 f3 c5 bd d6 22 97 3c 0e 20 84 bd
       -0.028370101 -0.096655555 0.018449228 -0.064514264
000010 1e 7c 18 3d e8 66 82 3d f4 2b 8a bd e9 f1 50 bd
       0.037227742 0.06367284 -0.06746665 -0.051011954
000020 63 b8 9e bd 20 d9 d0 3c e9 cd 7b 3c ef 89 49 bd
       -0.07750013 0.025494158 0.015368917 -0.04920381
000030 01 be 63 3d b6 2e 1b 3d 73 89 ae bd f9 04 95 bb
       0.055601124 0.037886344 -0.0852231 -0.004547712
000040 c7 b7 18 bd ae 6c 8c bc 24 56 53 3d f0 82 ec bb
       -0.03728464 -0.017141666 0.051595822 -0.0072177574
000050 e4 26 8e bd 1e 86 82 3d
       -0.069410115 0.06373237

weight f4 [22]
000000 e7 d8 6b 40 00 39 6f 40 c9 3f 0d 41 f1 4b 5a 40
       3.6851137 3.737854 8.828073 3.410885
000010 a6 aa a2 40 63 aa 2a 40 a3 9e b5 40 fe 07 61 40
       5.083331 2.6666496 5.675615 3.5161128
000020 f2 4d c2 40 b9 3f 5e 40 90 0c 41 40 72 3b ae 40
       6.072015 3.4726393 3.0163918 5.4447565
000030 82 7a 55 40 73 35 b5 40 5d 5c 29 41 c2 7e 85 40
       3.3356023 5.6627746 10.58505 4.1717234
000040 51 87 72 40 e4 a4 92 40 f0 58 51 40 1d 79 4d 40
       3.789509 4.5826283 3.2710533 3.2105172
000050 e6 bd 30 40 17 3a 64 40
       2.7615905 3.5660455

bias f4 [22]
000000 76 61 13 40 18 40 55 c0 a6 11 cc c0 1f 71 98 40
       2.3028235 -3.332037 -6.3771544 4.7638087
000010 20 48 1e c0 bc 4f 5c 3f 22 00 4b c1 76 fe bc bf
       -2.4731522 0.86059165 -12.687532 -1.4765155
000020 fd 6c fd bf 1c 2e b6 40 9f f4 00 41 ea 0d 73 c0
       -1.9798886 5.6931286 8.059722 -3.7977242
000030 e4 ff c6 bf fc 83 01 c0 bf f3 ae 41 ca 66 11 c0
       -1.5546842 -2.0236807 21.869017 -2.2718987
000040 5f ea ec 3f 57 4a 90 c0 aa 59 85 bf e3 ba da 3d
       1.8509024 -4.5090747 -1.0417988 0.10680177
000050 51 dc ed bf b6 17 42 c0
       -1.858286 -3.0326972

running_mean f4 [22]
000000 62 b5 56 43 8c ea e0 c1 8a 71 5d 43 85 09 c0 c3
       214.70853 -28.114525 221.44351 -384.07437
000010 2b 9b 2e c3 d2 e9 c5 41 d8 72 44 42 f5 48 92 c2
       -174.60612 24.73917 49.112152 -73.142494
000020 1c 3c 82 c3 d9 84 3c 43 c6 7b 9b 43 9d e3 aa c2
       -260.4696 188.51894 310.96698 -85.44456
000030 46 4c 90 c2 1e 55 ce c2 ac 61 c2 c2 86 4c 38 41
       -72.14897 -103.166245 -97.190765 11.5186825
000040 7f 74 35 bf e9 43 3d c2 3a bd 8d c2 15 3c 8c 43
       -0.70880884 -47.31632 -70.86958 280.4694
000050 21 01 75 c2 7a 42 2c c2
       -61.251102 -43.06492

running_var f4 [22]
000000 fc 40 55 46 13 58 8f 45 20 96 c0 46 bb 4c 38 46
       13648.246 4587.0093 24651.062 11795.183
000010 83 4c 7b 46 4b 5c b2 46 a4 7c 7c 45 47 b1 02 46
       16083.128 22830.146 4039.79 8364.319
000020 22 44 23 47 95 14 09 47 97 36 83 46 9d 82 b0 46
       41796.133 35092.582 16795.295 22593.307
000030 46 70 1b 46 00 96 93 46 eb 5e 87 48 e4 8b 04 46
       9948.068 18891.0 277239.34 8482.973
000040 85 ac f8 47 85 b9 0b 46 01 cc e5 45 24 1b 28 46
       127321.04 8942.38 7353.5005 10758.785
000050 00 90 8c 45 0a c5 9d 45
       4498.0 5048.63

weight f4 [32, 22, 7]
000000 50 d8 7a c0 0c 05 3b c0 70 68 90 c0 23 1b 18 40
       -3.9194527 -2.922183 -4.5127487 2.3766563
000010 8b 7b df 40 28 a0 84 40 6d 34 e3 bf 95 17 60 c0
       6.983831 4.1445503 -1.7750374 -3.5014393
000020 36 e7 c2 bf 6f 40 24 3e f3 9f 63 40 6f 9c ab 40
       -1.522681 0.16040204 3.5566375 5.362846
000030 e0 9c b5 40 0e a9 ff 3f 96 d1 19 c0 9e e9 82 c0
       5.6754 1.9973466 -2.403417 -4.0910177
000040 7a aa 0a c0 e8 85 48 3f 21 8c fe 40 5b a5 8b 3f
       -2.166655 0.78329325 7.9546056 1.0909837
000050 60 a0 17 40 e7 b0 82 40 d7 19 da 3e b9 4b b6 3e
       2.3691635 4.0840945 0.4259784 0.35604647
000060 f6 60 15 bf c2 5c 04 3f 0e 24 03 40 e2 d4 c4 3f
       -0.58351076 0.5170404 2.0490756 1.5377467
000070 6b 0d 29 c0 26 b9 10 c0 5c 53 f5 bf bf df c5 bf
       -2.641444 -2.2613006 -1.9166064 -1.5458907
000080 8c 09 1c 40 74 d0 c0 40 b2 a4 77 40 ad 09 e1 c0
       2.4380827 6.025446 3.8694272 -7.032431
000090 81 6f c2 c0 03 98 09 c0 da 7c 6b 3f 43 22 0e 41
       -6.0761113 -2.149903 0.91987383 8.883365
0000a0 87 63 05 40 2c 1f ce bf 92 ea dd c0 5b fd 33 c0
       2.0841997 -1.6103263 -6.934884 -2.8123386
0000b0 ff e7 63 bf bd 33 0f c1 16 58 c6 3e 6c 6b 11 41
       -0.8902587 -8.950131 0.3873908 9.088726
0000c0 fc 0a ec 40 fd b5 48 c0 c5 88 96 3e d3 9c 37 bf
       7.376341 -3.1361077 0.29401222 -0.7172367
0000d0 fe 13 bf 3f 7b f0 40 40 f0 2f ab 40 f0 c2 84 40
       1.4927976 3.0146778 5.3496017 4.148796
0000e0 3c f7 06 c0 74 2e 4c bf 83 35 2d c0 d0 a9 67 c0
       -2.10884 -0.7975838 -2.706391 -3.6197395
0000f0 c1 04 56 3f 3b 26 c7 3f cc 4d ca 3f d8 b0 de 40
       0.83601004 1.5558542 1.5804992 6.9590874
000100 89 ba 84 3f 25 cd 30 40 ad 8f 5c bf 3f 73 30 c0
       1.0369426 2.762521 -0.8615673 -2.757034
000110 1d 8a 21 40 28 20 02 40 e8 a1 67 40 b1 f3 98 be
       2.5240548 2.0332127 3.619257 -0.29873422
000120 8e 75 61 3c aa f3 1c 40 92 dd f6 3f 57 a2 30 40
       0.013760937 2.452372 1.9286368 2.7599084
000130 ea 39 11 40 d4 d0 1b c0 a4 27 bb bf 36 d7 1e 40
       2.2691598 -2.4346209 -1.4621472 2.4818854
000140 2a a8 cb 3f bf ce c8 40 e8 a9 3a 40 d0 18 98 bf
       1.5910695 6.2752376 2.9166203 -1.1882572
000150 e2 dd 07 c0 45 ed d5 3e ed 19 00 bf c0 f5 97 3f
       -2.1229177 0.41782585 -0.5003956 1.1871872
000160 ac 59 e8 3f 8a a3 9c 40 bf 38 8b 40 95 db 86 c0
       1.8152366 4.8949633 4.350677 -4.2143044
000170 42 87 7e c0 a1 2a 4b c0 2e 00 bd bf d1 7d a1 3f
       -3.9770055 -3.1744769 -1.476568 1.2616521
000180 21 12 92 40 0c ca ca 3f bf e5 6c 41 47 95 e5 40
       4.564713 1.584291 14.80609 7.1744723
000190 c8 30 93 40 8d 56 41 c0 52 91 fd c0 2f 95 4a c1
       4.5997047 -3.0209076 -7.9239893 -12.661422
0001a0 50 c1 90 bf 1e af 5c c0 18 f1 ba bf 0c cb f1 3f
       -1.1308994 -3.4481883 -1.4604826 1.889009
0001b0 23 f8 54 40 ce ea a9 40 6f 13 d5 40 69 e3 9f 3e
       3.327645 5.3099127 6.6586223 0.31228188
0001c0 1c d3 5a 40 23 cc 85 40 f1 c7 68 40 ac de 1c bf
       3.419135 4.181169 3.6372035 -0.6127727
0001d0 e3 06 23 c0 35 1c 62 c0 96 55 ca bf 70 c1 02 c1
       -2.5472953 -3.5329716 -1.5807369 -8.172226
0001e0 1b bc c3 c0 e7 6b ab c0 66 61 8b c0 48 b5 04 c0
       -6.116712 -5.3569217 -4.3556395 -2.0735645
0001f0 b5 5c 19 40 d3 64 9e 3e b5 ff 65 be 84 67 81 be
       2.3962834 0.30936298 -0.22460826 -0.2527429
000200 41 d7 38 3f 57 bc a5 3f 34 d9 9a 40 0d 56 d8 40
       0.7220345 1.2948102 4.839014 6.7605042
000210 87 bd 4b 40 60 02 de 3e 4c 74 bf be 09 58 1e be
       3.1834428 0.43361187 -0.37393415 -0.1546327
000220 1b a1 35 c0 a2 17 c8 3e 37 eb 84 bf cd 43 7f c0
       -2.837958 0.3908053 -1.0384282 -3.9885132
000230 cf 80 64 3e 93 84 30 40 4e 44 52 40 bd 6a c3 40
       0.22314762 2.7580917 3.285419 6.1067796
000240 32 7b cb 40 50 7f 57 40 d9 1d 34 40 ae db 1d c0
       6.3587885 3.3671455 2.8143218 -2.4665332
000250 01 8b 27 bf 09 a7 cd 3e 51 57 7d 40 8d b4 e4 40
       -0.6544648 0.401665 3.9584544 7.14704
000260 9d 88 8a 40 9b de e0 3f 02 39 6b bf e4 f9 f9 c0
       4.3291764 1.7567934 -0.9188386 -7.811754
000270 bd 1e 1f c1 d2 40 e5 c0 b0 0c 61 c0 49 c8 84 40
       -9.945004 -7.1641626 -3.5163994 4.149449
000280 19 6a 14 41 fd 3c 7c 40 73 84 e6 40 b4 20 16 41
       9.275903 3.9412224 7.203668 9.382984
000290 b3 58 26 41 28 ec b1 c0 b4 6a c9 c0 2a 11 c5 3f
       10.396655 -5.5600777 -6.2942753 1.5395863
0002a0 09 90 51 40 7e 15 cc bf bb 6c cf 3f 3a 39 7f 40
       3.2744162 -1.5944059 1.6205057 3.9878678
0002b0 dd ed e3 3f 40 62 d7 40 8f fb 88 40 16 2b f2 bf
       1.7806965 6.7307434 4.280708 -1.8919399
0002c0 ec e1 7b c0 b6 87 1e c0 4a 47 0a 40 84 0b 3a 3f
       -3.9356642 -2.4770331 2.1606011 0.7267382
0002d0 bb 4a f6 3f 79 8d 0f c0 e2 bf 6f 40 ae 30 48 40
       1.9241556 -2.2430098 3.7460866 3.1279712
0002e0 7d 8e 36 40 ac c4 8f be ba b2 93 c0 07 53 df bf
       2.8524468 -0.28079736 -4.615567 -1.7447213
0002f0 3c e2 0c 41 a7 d4 a2 40 60 3b ed be 08 c1 92 40
       8.805233 5.0884585 -0.46334362 4.5860634
000300 8d 4b 99 40 7d 92 3b 40 18 50 ad 40 cf f1 fe bf
       4.7904725 2.930816 5.416027 -1.9917544
000310 3c f0 81 c0 a8 ec 8a 40 5d 47 bf 40 3d b5 38 c0
       -4.0605755 4.3413887 5.9774613 -2.886062
000320 7d c3 c8 c0 f6 98 85 40 d8 fa 9a 40 95 03 2a 40
       -6.2738633 4.174922 4.8431206 2.6564686
000330 c6 6c 9d 40 87 90 e7 40 c3 41 8e 40 36 14 23 c0
       4.919528 7.2363925 4.4455276 -2.5481086
000340 c8 2f eb 3e 9c 5d 9e 40 28 2d 8e c0 18 42 24 c1
       0.45934892 4.948927 -4.443012 -10.266136
000350 36 e1 1f c1 73 27 f6 c0 f6 a5 03 c0 10 d8 90 40
       -9.992483 -7.6923156 -2.0570045 4.526375
000360 9e 82 bf 40 e5 dd c2 c0 df 6b 08 c0 a6 13 fc 3f
       5.9846945 -6.0895867 -2.131584 1.9693496
000370 64 4b f1 bd 0d 2d 70 40 50 d1 c6 40 5e ba 3b c0
       -0.11781958 3.7527497 6.213051 -2.93325
000380 ad 94 78 40 d2 87 c2 bf a7 c9 67 40 4d 4a 11 41
       3.8840744 -1.5197699 3.621683 9.08064
000390 b2 84 01 bf ca 35 a3 c0 58 9e b7 c0 4d ae 53 c0
       -0.505931 -5.100316 -5.738079 -3.3075135
0003a0 64 ac 10 c0 9a e6 a7 40 50 81 29 c0 b5 c9 d6 bf
       -2.260522 5.2468996 -2.6485176 -1.6780306
0003b0 22 bf 1e 40 f2 50 14 40 fb f4 ac bf e2 cc 1b 40
       2.4804158 2.3174405 -1.3512262 2.43438
0003c0 05 22 e4 3f d7 30 a1 40 6b 03 22 40 88 f1 e1 bf
       1.7822882 5.037212 2.5314586 -1.7651834
0003d0 6c 55 bc 40 61 fe 1e bf a1 6a 90 3f 77 fe 14 bf
       5.8854275 -0.621069 1.128254 -0.5820078
0003e0 56 0c 95 3f b2 1c 16 3f bc 02 0b 3f 43 08 81 bf
       1.164439 0.58637536 0.5430105 -1.0080646
0003f0 48 cc d2 40 f1 ce ce 40 c7 a0 0c c1 93 60 0c c0
       6.5874367 6.4627614 -8.789252 -2.1933944

bias f4 [32]
000000 9d 83 4d 3d 8c 44 08 3d 2a 3b 5c bd c6 fb a1 3d
       0.050174344 0.033268496 -0.05376736 0.0790935
000010 2b 2c a1 bd f9 f3 65 bd 42 68 46 bd ba 9b ae bc
       -0.078697525 -0.056140874 -0.04843927 -0.02131449
000020 25 5c 11 3d 93 07 8a 3c 31 f9 8c bd e3 48 a0 3d
       0.035488266 0.016849315 -0.06883467 0.07826402
000030 51 57 9c 3d 8b 7b 21 3d f2 2b a1 bd 8d 30 3b 3d
       0.07633842 0.03942446 -0.0786971 0.0457006
000040 a0 2d be 3c 3a a5 23 bc d7 37 89 bd 3d 60 8b 3d
       0.023215115 -0.009988124 -0.06700104 0.06805465
000050 74 df bd bc eb 37 82 bd 44 e9 7d 3d 01 1e 04 3d
       -0.02317784 -0.06358322 0.061990038 0.032255176
000060 a8 9d cb 3c f8 b8 55 3d 5c 2d df 3c ef 80 8d bc
       0.02485545 0.052178353 0.027243309 -0.017273394
000070 f0 28 5b bc 73 99 88 3d d7 d2 18 bb 57 4a 8a bd
       -0.0133764595 0.06669893 -0.002331903 -0.067524604

weight f4 [32]
000000 73 9c 1c 41 e9 53 88 40 28 b2 8a 40 64 c4 c8 40
       9.788196 4.260243 4.3342476 6.2739735
000010 dd 44 2d 41 aa 25 9a 40 54 d1 ac 40 f2 c6 c0 40
       10.829312 4.8170977 5.4005527 6.0242853
000020 9e 57 fc 40 45 e6 45 40 57 97 e7 40 1f 8f 78 40
       7.8856955 3.0921795 7.237224 3.8837354
000030 36 3c 95 40 93 13 8c 40 45 76 6e 40 07 64 ba 40
       4.6636 4.3773894 3.7259686 5.8247104
000040 7d f3 e1 40 01 29 72 40 8d d2 83 40 41 3b a7 40
       7.0609727 3.7837527 4.119452 5.225983
000050 58 34 a3 40 8b 3a 7c 40 00 00 96 40 f6 ab 3b 41
       5.1001396 3.9410732 4.6875 11.729483
000060 ba e5 b9 40 e9 22 66 40 89 c0 86 40 85 3b f8 40
       5.809293 3.5958807 4.211003 7.7572656
000070 65 1b b4 40 2c 4b 98 40 d5 93 8e 40 19 74 ed 40
       5.628344 4.7591763 4.455546 7.420422

bias f4 [32]
000000 62 5d 98 40 e9 d2 ba 40 5a 11 4e 40 2e 92 cd c0
       4.7613993 5.838246 3.219809 -6.424094
000010 ae 00 5a 40 98 bc 4d bf 73 30 54 bf 72 6f 59 3f
       3.4062915 -0.80365896 -0.8288643 0.8493568
000020 76 aa a5 c0 8a cc 7d 40 5b 10 3e c1 2a c7 25 40
       -5.177058 3.965609 -11.878993 2.590281
000030 e5 77 9e be 36 29 1d 40 3a 1d 04 be e7 3b cf 40
       -0.30950847 2.4556403 -0.12901774 6.4760623
000040 55 c4 18 c0 67 28 7a 3f 80 44 44 bf 76 73 90 40
       -2.3869832 0.977179 -0.7666702 4.5140944
000050 2b b4 ba bf cb 6c 46 c0 49 39 c2 bf 83 b1 d0 bf
       -1.4586233 -3.1003902 -1.5173732 -1.6304172
000060 15 7a 87 bd 99 90 08 40 77 cc 48 bf 3a ef 36 bf
       -0.06615082 2.1338255 -0.7843699 -0.7145878
000070 83 a3 6c c0 5d 8c 9e be 16 4b bb 3f 7d b1 c4 c0
       -3.69748 -0.30966464 1.463229 -6.146666

running_mean f4 [32]
000000 7c de 41 43 81 83 12 42 fe 71 2d c2 23 95 91 40
       193.86908 36.62842 -43.36132 4.549455
000010 1f 2f 2f 43 ff 42 69 c3 f0 0b e4 c2 40 82 08 c3
       175.18407 -233.2617 -114.023315 -136.50879
000020 5a 13 45 c3 32 7c 1f 42 1b 07 e4 c3 15 2f 0f 43
       -197.07559 39.871284 -456.0555 143.18391
000030 3b de 77 c2 74 98 44 c2 7b d2 f9 42 45 7d 5f c2
       -61.967022 -49.14888 124.911095 -55.872334
000040 00 93 ec c1 50 55 ed 43 b6 e9 a6 c1 09 09 8a 43
       -29.571777 474.6665 -20.864117 276.0706
000050 30 03 0a c3 a5 bf eb c2 03 36 30 41 a4 fe 35 43
       -138.01245 -117.874306 11.013186 181.99469
000060 86 d6 a6 c2 2b 1f 34 c3 3b 8e 7b c2 82 ff 88 42
       -83.41899 -180.12175 -62.888897 68.49904
000070 a0 de 90 43 31 76 1d c3 02 ab a0 43 6b 6c 05 c3
       289.73926 -157.46169 321.336 -133.42351

running_var f4 [32]
000000 81 3e 28 47 b4 fe b7 46 32 4c 0c 47 32 66 33 47
       43070.504 23551.352 35916.195 45926.195
000010 61 a4 4f 47 8c 96 b8 46 b7 20 cb 46 f6 52 c4 46
       53156.38 23627.273 26000.357 25129.48
000020 1b ae 93 46 67 87 1d 47 b3 8a 11 47 4a d6 09 46
       18903.053 40327.402 37258.7 8821.572
000030 55 54 4e 46 27 92 da 46 42 27 27 46 39 0b 8e 47
       13205.083 27977.076 10697.814 72726.445
000040 bc 4a 14 47 d7 b4 98 46 1e 4e 48 46 04 cc 03 47
       37962.734 19546.42 12819.529 33740.016
000050 79 1f 5d 46 04 61 ff 45 33 dd bd 46 c7 b6 6b 47
       14151.868 8172.127 24302.6 60342.777
000060 98 cb b7 46 8a d8 44 46 ef 81 9f 46 b8 63 ed 46
       23525.797 12598.135 20416.967 30385.86
000070 9d cf b6 46 ec b8 45 46 86 24 89 46 a8 06 0f 47
       23399.807 12654.23 17554.262 36614.656

weight f4 [32, 22, 7]
000000 f5 e5 99 c0 cf be e8 c0 f1 4f 08 c1 14 ef 52 bf
       -4.809321 -7.273292 -8.519517 -0.82396054
000010 f8 c7 86 c0 48 aa ad c0 98 bc 0f c1 a0 4c 16 41
       -4.2119102 -5.4270363 -8.983543 9.393707
000020 bd 8e 1e 41 5f 57 4b 41 73 fc c7 3f 49 7e 98 40
       9.909848 12.708831 1.5623916 4.7654157
000030 80 10 73 40 ce 08 c4 40 81 56 f7 be 50 16 18 c0
       3.797882 6.126075 -0.48308185 -2.3763618
000040 92 94 84 c0 05 00 bf 3f 25 c2 9b 3f cd d5 e1 c0
       -4.143136 1.4921881 1.2168623 -7.0573487
000050 ef 17 80 c0 78 e7 a4 c0 b0 e5 ce be 32 f9 f1 40
       -4.0029216 -5.1532555 -0.40409613 7.5616693
000060 c7 e7 32 41 9b 10 2b 41 55 30 8b 3f d7 47 05 40
       11.181586 10.691554 1.0874125 2.0825098
000070 85 10 13 c0 e4 72 53 be 14 ba 41 40 1e 94 85 40
       -2.2978833 -0.20649296 3.0269823 4.1743307
000080 e8 0c 00 40 45 f9 a5 40 3c 43 83 40 a1 86 67 bf
       2.0007877 5.1866784 4.1019573 -0.904398
000090 ec 2c 84 40 2b 28 bc 3e 02 e2 02 3f 73 bc 52 40
       4.1304836 0.36749396 0.5112611 3.292752
0000a0 3b b7 0c c0 b1 7f 4d 40 90 d2 43 41 18 a2 dd 40
       -2.1986835 3.2109187 12.238907 6.926037
0000b0 eb 60 09 41 6e fa 31 41 85 fd 0a 41 c7 44 c8 40
       8.586162 11.12364 8.686894 6.2583957
0000c0 39 21 0a 41 fb e5 e8 bf d5 1f 9b bf aa f3 09 41
       8.633111 -1.8195184 -1.2119089 8.621988
0000d0 99 50 2a 3f 66 74 f7 40 7d 8a 17 40 2e 85 ad 3f
       0.6652923 7.732959 2.3678277 1.3556268
0000e0 fd 7d 92 c0 7d 2f 37 c0 a7 5c 86 bf 1e e8 03 c1
       -4.5778794 -2.8622735 -1.0497025 -8.244169
0000f0 06 0e 07 c1 da de d4 bf 7b c0 83 40 aa 41 80 bf
       -8.440924 -1.6630509 4.117246 -1.0020039
000100 a1 1c 9e c0 46 fa 1a c0 d8 e8 8c c0 4d ce a7 bf
       -4.9409947 -2.4215255 -4.4034233 -1.3109833
000110 08 84 9b bf e5 6f 57 3f 6c 04 7d 41 9f 11 b4 c0
       -1.2149668 0.8415511 15.81358 -5.627151
000120 08 54 87 40 19 44 b5 c0 e0 78 61 40 91 4f 98 c0
       4.2290077 -5.6645627 3.5230026 -4.7597127
000130 d8 b2 de c0 e8 a3 04 40 60 ef 87 3f 65 df fd c0
       -6.9593315 2.072504 1.0619926 -7.93352
000140 db 70 c3 40 bc 8d 82 40 9d 64 24 40 0f 20 42 c1
       6.1075263 4.0798016 2.568641 -12.132827
000150 1e 1f 25 bf 35 b0 77 c0 f9 41 95 40 ce 3f 46 c1
       -0.64500606 -3.8701298 4.6643033 -12.390577
000160 05 09 6e be ae 8f 81 c0 d5 49 3e 40 8d 23 a7 c0
       -0.23245628 -4.048789 2.9732563 -5.2230897
000170 ff 1d 05 c1 a3 78 15 c0 00 b3 83 40 1e bc c6 3f
       -8.319823 -2.335488 4.1156006 1.5526159
000180 58 7a 27 bf 60 6a ce 3e 88 f1 81 be 7e 53 01 c1
       -0.65421057 0.40315533 -0.25379586 -8.082884
000190 a7 e2 05 c1 89 20 52 c0 3b 89 df bf f4 d2 d4 bf
       -8.367835 -3.2832358 -1.7463754 -1.6626878
0001a0 ca 7b a6 c0 2c 54 9b c0 57 a6 a9 c0 b5 a5 88 c0
       -5.202611 -4.854025 -5.301555 -4.270228
0001b0 a3 d6 db c0 f3 39 7d c1 90 e2 f0 c0 cf aa 82 c1
       -6.869951 -15.826648 -7.5276566 -16.333403
0001c0 1b e4 c8 40 7b 7e 7f 40 2b 72 1f 3f 86 46 7b bf
       6.277845 3.9920948 0.6228358 -0.98154485
0001d0 e8 dd e5 c0 46 18 5e c0 24 0f 1b 40 b9 b1 90 bf
       -7.183338 -3.4702315 2.422799 -1.1304237
0001e0 b6 d8 94 c0 0b f3 4f 40 e2 9e 43 40 59 55 af 3f
       -4.651454 3.2492092 3.0565724 1.3697921
0001f0 37 68 49 40 72 9d 91 40 8a d4 19 c1 c5 8d 7a 3e
       3.1469858 4.5504694 -9.614389 0.24468143
000200 37 e2 34 40 f9 02 17 c0 98 2d 07 41 9a 24 e1 3f
       2.826307 -2.3595564 8.448631 1.7589295
000210 7a 4b 8e 40 80 f7 49 c0 5f 0f 2d 40 92 cb 7d bf
       4.4467134 -3.1557312 2.7040632 -0.9913875
000220 25 7b b2 c0 03 b2 f8 c0 d0 c7 ca bd 84 5e 0e 3f
       -5.5775323 -7.77173 -0.099013925 0.5561297
000230 37 cd 8c 3f b0 d2 a1 3d b6 b6 bf 3e 85 8d 77 40
       1.1000127 0.079015136 0.37444085 3.8680127
000240 61 3a 2d c0 1c ff 5b 3d 8a 60 54 c0 8b 6e a0 3e
       -2.7066882 0.053710088 -3.3183923 0.31334338
000250 d5 01 a0 40 59 3c ca c0 9f 28 cf 3e c1 97 5c 3f
       5.0002236 -6.3198667 0.4046068 0.8616906
000260 f8 91 53 c0 0f 13 5a 40 fb da 25 c1 b1 47 50 3f
       -3.3057842 3.4074132 -10.365962 0.8135939
000270 76 1c e4 c0 65 d0 86 3f 7a 3c f7 3f c9 c7 d9 40
       -7.128474 1.0532347 1.9315331 6.805638
000280 de bf 78 40 2d 9d db 40 ee 2c 9d 3c 40 d5 e6 c0
       3.8867106 6.8629365 0.019186463 -7.2135315
000290 f6 75 b3 c0 f1 92 6c c0 31 c2 9a 3f 5c 61 43 c0
       -5.6081495 -3.6964686 1.2090513 -3.0528173
0002a0 d1 e3 97 40 8f 97 bd c0 f8 99 b5 bf 0f 87 74 bf
       4.7465596 -5.924751 -1.4187613 -0.95518583
0002b0 c5 44 16 41 a9 3d c7 40 84 cf 20 41 3d 8f 8d 40
       9.391789 6.226277 10.050663 4.423735
0002c0 a8 91 9e 40 d3 fc b7 c0 2a 9e e3 bf 56 bc 9a 40
       4.9552803 -5.7496123 -1.7782643 4.83549
0002d0 40 8b a9 40 d7 68 05 3f 3f 10 bb bf 9e c7 7e c0
       5.2982483 0.521131 -1.4614333 -3.9809337
0002e0 8c 30 ba c0 73 b6 e2 c0 6b 87 08 c1 bf 23 0e c1
       -5.818426 -7.0847716 -8.533061 -8.883727
0002f0 d5 fc a6 c0 90 b9 f6 bf 1f 82 17 c0 d6 f2 c0 bf
       -5.2183633 -1.9275379 -2.367317 -1.5074108
000300 86 1a ed c0 af f5 60 c0 7e 4b 15 c0 04 f4 32 c1
       -7.4094877 -3.5149953 -2.3327327 -11.184574
000310 c3 00 01 3f 7c cf 87 be 1d 95 f2 be 98 e4 af 3f
       0.5039179 -0.26525486 -0.4737939 1.3741636
000320 35 db c3 bf 95 0e 1d 40 cc f2 04 c0 e2 a5 03 c0
       -1.5301272 2.454015 -2.0773191 -2.0569997
000330 f5 0c 7a 40 bb 15 c6 40 5d 3c 38 40 23 8a 08 c0
       3.9070408 6.1901526 2.8786843 -2.1334312
000340 fd 38 06 40 d5 1e 0c 40 d0 9b fc 3e 0b 34 7c be
       2.0972283 2.1893818 0.49337626 -0.24629228
000350 d7 24 08 c0 c4 30 23 c0 a7 6f 87 c0 21 62 e0 c0
       -2.1272485 -2.5498514 -4.2323794 -7.0119786
000360 c0 ff aa c0 71 e8 48 40 47 fa 6d 40 2d 70 6d 40
       -5.3437195 3.139187 3.7184007 3.7099717
000370 c8 f5 fa bf 84 39 18 c0 d3 97 4f c0 fa 69 5e c0
       -1.9606256 -2.3785105 -3.2436416 -3.4752183
000380 9d 1d 49 c0 47 bb b8 c0 1f 1f 23 3f ef 95 07 c1
       -3.1424325 -5.772861 0.6371936 -8.474105
000390 f7 ce 10 40 97 18 44 c1 e9 03 34 be 0c 1a 33 bf
       2.2626321 -12.256003 -0.17579617 -0.6996162
0003a0 36 d4 68 3f 16 2d 7a c1 8e b9 b1 40 a8 64 fc 3e
       0.9094881 -15.636007 5.5539007 0.49295545
0003b0 e7 63 8f bf 21 f0 c0 c0 b8 e0 07 c0 3c 47 0e c1
       -1.1202363 -6.0293126 -2.1230907 -8.892391
0003c0 71 bf 04 41 02 5b bb c1 82 15 8e 40 b9 0a 21 c1
       8.296739 -23.419437 4.4401255 -10.065118
0003d0 88 9a c4 40 21 24 8a c0 af fc cc 40 40 66 68 bf
       6.1438637 -4.3169103 6.405845 -0.9078102
0003e0 ed 92 f3 be 4f 88 55 3d f4 6a 85 bf 08 6a 88 bb
       -0.47573033 0.052131947 -1.0423265 -0.0041630305
0003f0 13 a4 07 c1 7c 26 9e c0 e1 e4 d7 3f 7e 8b 84 40
       -8.477557 -4.942198 1.6866723 4.142028

bias f4 [22]
000000 4b 06 a0 3d 54 59 8f 3d 9a 45 1d 3d 5b ad ee bc
       0.078137 0.0699946 0.038396455 -0.029135397
000010 09 fc dd bc 6c 21 47 3d 07 35 84 3d 6b c8 a1 3d
       -0.027097719 0.048615858 0.06455427 0.07899555
000020 dc 56 18 3d a9 63 fc bc ae 6e 12 bd b1 2e 9e 3d
       0.03719221 -0.03080924 -0.035750084 0.077237494
000030 e1 2b 6c bd 93 11 8c bd 4e 02 24 bc 34 f2 77 bc
       -0.057659034 -0.068392895 -0.010010315 -0.015133429
000040 fe f2 24 3d c2 90 61 bd 9a 1e 8f bc b5 7a 81 bd
       0.040270798 -0.055069692 -0.017470647 -0.06322233
000050 94 92 5b 3d f5 1c 96 3c
       0.053606585 0.018324355

weight f4 [22]
000000 2f 30 9e 40 82 cf 0b 41 6f 9d c6 40 14 90 96 40
       4.943382 8.738161 6.206718 4.7050877
000010 65 99 96 40 a1 46 b5 40 ec 6f 16 41 0b cd d4 40
       4.706225 5.6648717 9.402325 6.6500297
000020 ce c8 d4 40 09 24 b4 40 bb 61 81 40 39 f0 1b 41
       6.6495123 5.629399 4.04318 9.746148
000030 d2 a9 c2 40 81 b2 36 40 02 a5 82 40 52 27 a7 40
       6.08323 2.854645 4.0826426 5.22355
000040 72 3c b7 40 01 7d 85 40 ac d9 d6 40 ba 7e cb 40
       5.7261286 4.1715093 6.7140713 6.3592196
000050 d6 73 d6 40 ef 1c c6 40
       6.70164 6.191032

bias f4 [22]
000000 53 a2 21 c0 99 ef 96 c0 46 3f ac c0 fc ac cb 3f
       -2.5255325 -4.7167478 -5.382724 1.5912166
000010 c7 27 0c c0 06 d6 1a 40 07 64 5c 3f 16 b0 6c 40
       -2.1899278 2.419313 0.8609013 3.6982474
000020 c7 1e ef c0 59 f7 26 c0 c1 e9 05 c0 4e e0 2c c0
       -7.472507 -2.608847 -2.0923922 -2.7011905
000030 21 21 4c c0 6f 8a 50 3f 09 ab 95 bd ec bd 35 c0
       -3.189522 0.8146123 -0.07308013 -2.839717
000040 74 ba 22 c0 21 bd 8c bf 21 9f 19 c0 6a bc 4a c0
       -2.5426302 -1.0995218 -2.4003375 -3.16775
000050 37 e0 24 c0 41 92 8d bf
       -2.576185 -1.1060258

running_mean f4 [22]
000000 40 3d 78 c2 f5 ed d9 c2 a7 cb 53 c2 01 cb 30 43
       -62.059814 -108.96476 -52.94888 176.79298
000010 14 bd 4b c3 76 af f7 42 f8 a8 7e 42 14 55 18 41
       -203.73859 123.8427 63.66501 9.520771
000020 7f aa 31 c3 71 df 82 c3 7b f0 de c2 ba 60 c9 c2
       -177.666 -261.74564 -111.46969 -100.68892
000030 03 ac 3f c3 f0 4b 9b 42 70 f9 ce 3e 54 64 ee c2
       -191.67192 77.648315 0.4042468 -119.19595
000040 ff 52 b1 c2 87 e4 dc c2 d1 a4 8d c3 e2 2e 80 41
       -88.6621 -110.44634 -283.28763 16.022892
000050 40 90 4d c2 a7 a1 c1 c2
       -51.39087 -96.81573

running_var f4 [22]
000000 8e a6 f4 46 7d f5 aa 46 f6 60 0d 47 f6 27 a7 46
       31315.277 21882.744 36192.96 21395.98
000010 8a 3c c2 46 6c 88 3d 47 75 eb f4 46 e7 5d 41 47
       24862.27 48520.42 31349.729 49501.902
000020 7a 1e f6 46 fe 87 16 47 81 4e c7 46 74 ce 6a 47
       31503.238 38535.992 25511.252 60110.453
000030 79 2e 23 47 45 40 82 46 53 52 60 46 4b 80 28 47
       41774.473 16672.135 14356.581 43136.293
000040 e3 6b 42 47 f5 ca 9c 46 cd 88 e3 46 57 be 9a 46
       49771.887 20069.479 29124.4 19807.17
000050 69 a3 e3 46 4e 7b 0f 47
       29137.705 36731.305
