model/tlscedc.pt (torch, 119202 bytes, 56 tensors)

weight f4 [8, 3, 1]
0	0x3fd6c522	1.677891
1	0x3f471a9e	0.7777499
2	0x411e41d2	9.891069
3	0x41afdd63	21.983099
4	0xbff78b27	-1.9339341
5	0x3faff475	1.3746477
6	0xc02cee56	-2.7020469
7	0x3e094eac	0.13408917
8	0x41e8dcc2	29.107792
9	0xc00410ca	-2.0635247
10	0x41539658	13.224205
11	0x404de9f9	3.2174056
12	0x4176d6f8	15.427483
13	0xc034e6e2	-2.826592
14	0x40203998	2.5035152
15	0x4032a75f	2.7914655
16	0xbd1486ea	-0.036261477
17	0xc1da80c9	-27.312883
18	0x3d3d1dac	0.046170875
19	0x424cdab4	51.213577
20	0xbf90985a	-1.1296494
21	0xc0d288cf	-6.5792003
22	0xbfd749ed	-1.6819435
23	0x4095104c	4.6582394

bias f4 [8]
0	0xbee3a304	-0.4446031
1	0xbe1e8205	-0.15479286
2	0x3e2b72eb	0.16743056
3	0xbf987d59	-1.1913253
4	0xbe040b4d	-0.12894936
5	0x3f0969c4	0.5367701
6	0x3e9d600e	0.30737346
7	0xbf79416f	-0.9736547

weight f4 [8]
0	0x3eaf0c23	0.34188947
1	0x3e9a5670	0.30144072
2	0x40149758	2.3217373
3	0x3ee4e82d	0.44708386
4	0x3f2fff2b	0.6874873
5	0x400236ee	2.0346026
6	0x3ee2b8c0	0.44281578
7	0x3f6204a1	0.88288313

bias f4 [8]
0	0x3ec3be7e	0.38231272
1	0x3f425ac7	0.75919765
2	0x3c0dd7c3	0.008657399
3	0x402d2b8a	2.7057824
4	0x3ffabaa2	1.9588206
5	0x3d34b87a	0.044121243
6	0xbb8eab7c	-0.0043539386
7	0x400aaeb8	2.166914

running_mean f4 [8]
0	0xbee9fb8a	-0.45699722
1	0xbe1cd8d4	-0.15317088
2	0x3e0b1fae	0.13586304
3	0xbf9c792a	-1.2224476
4	0xbe017803	-0.12643437
5	0x3f10f26d	0.5661991
6	0x3e4ded48	0.20110047
7	0xbf7990e2	-0.974867

running_var f4 [8]
0	0x431613e0	150.07764
1	0x43f8c109	497.5081
2	0x449e8ac3	1268.3363
3	0x438c6f18	280.86792
4	0x4382ad84	261.3556
5	0x448bbec9	1117.962
6	0x4572d42e	3885.2612
7	0x429fd47c	79.91501

weight f4 [11, 8, 7]
0	0xbf606f25	-0.87669593
1	0xbebb3ae5	-0.3656837
2	0x3ee2dbc1	0.44308284
3	0x401ff948	2.49959
4	0x400809e6	2.1256042
5	0x40b4e6db	5.6531806
6	0x40675850	3.6147652
7	0xbfbb2ae9	-1.462247
8	0x3fbde924	1.4836774
9	0xc016187c	-2.3452444
10	0x3ffee496	1.9913509
11	0x3f05be7e	0.52243793
12	0x403c9071	2.946316
13	0x4055bb39	3.3395522
14	0xbd80c3e1	-0.06287361
15	0xc061df27	-3.5292451
16	0xc093a1e7	-4.6135135
17	0xc0ec669a	-7.3875246
18	0xc13c41a8	-11.766029
19	0xc0b04ead	-5.509604
20	0xc0e0569f	-7.010574
21	0xc085ee5d	-4.185347
22	0xbf837b77	-1.0272053
23	0xc0898ac3	-4.2981887
24	0xc022509a	-2.5361695
25	0xc08249bb	-4.0715003
26	0x400bcc49	2.1843436
27	0xc0082e3d	-2.1278222
28	0x400135cc	2.0189085
29	0x3f70a3d2	0.9399997
30	0x409c596e	4.8859167
31	0x40928391	4.5785604
32	0xbf00a115	-0.5024579
33	0x3fb89247	1.441964
34	0xbf3186e2	-0.6934644
35	0xbdc70582	-0.097178474
36	0xbf92f13b	-1.1479868
37	0xc02c9577	-2.6966226
38	0xc0630c1b	-3.5476139
39	0xc0f1a4f5	-7.5513864
40	0xc0e30339	-7.0941434
41	0xc0640b80	-3.563202
42	0x40d98ab3	6.798181
43	0x4085b24b	4.1780143
44	0x40e58dde	7.173568
45	0x415caf8a	13.792856
46	0x414d9757	12.849448
47	0x40ac9454	5.3931065
48	0x4109819e	8.594145
49	0x408133ff	4.037597
50	0x403b25ff	2.924194
51	0x400b409b	2.1758182
52	0x40e4269a	7.129712
53	0x3fd84e71	1.6898938
54	0x408ac975	4.337092
55	0xbf3a892d	-0.72865564
56	0xc0ba1ff9	-5.816403
57	0x3e6b41ae	0.22974274
58	0xc088a10f	-4.2696605
59	0x40142820	2.314949
60	0xc0910fa6	-4.53316
61	0x3f84054f	1.031412
62	0xc0bac720	-5.8368073
63	0x3ffc93ce	1.9732606
64	0xc0099558	-2.1497402
65	0xc092c2f2	-4.586297
66	0xc04c6036	-3.1933722
67	0x3fdd2203	1.7276005
68	0x407b29bf	3.924423
69	0x40b7db7a	5.7455416
70	0xc22fbef6	-43.936485
71	0xc03c1392	-2.9386945
72	0x3ffba004	1.9658208
73	0xbf5b2503	-0.8560335
74	0xc07e1583	-3.970063
75	0xc04aeae9	-3.1705878
76	0xc0c1f92b	-6.061666
77	0xbe747b69	-0.23875202
78	0x3f5550e6	0.83326566
79	0xc01ff899	-2.4995482
80	0x3fa60d5d	1.2972828
81	0xbe7a4a05	-0.24442299
82	0x3fbf69b9	1.4954139
83	0x3f2e54ff	0.68098444
84	0xbf85628b	-1.0420698
85	0x3ff55d73	1.9169143
86	0xbfa726eb	-1.3058752
87	0x40c029b5	6.005091
88	0xc02221a2	-2.5333028
89	0x401c50d1	2.4424326
90	0xc0881368	-4.252369
91	0x40560546	3.3440719
92	0xc01bee22	-2.4364095
93	0xc0723796	-3.7846427
94	0xbecab489	-0.39590862
95	0x40bff46d	5.998587
96	0x3f89ea35	1.0774599
97	0x40e4a44a	7.145055
98	0xc0902189	-4.5040936
99	0x3fc098c0	1.5046616
100	0xc018d974	-2.3882723
101	0x4025b978	2.589445
102	0x3f5a5b3c	0.8529546
103	0xbe512165	-0.20422895
104	0xbf42c255	-0.7607778
105	0xbff2cd24	-1.8968854
106	0xbf30508d	-0.6887291
107	0xc03d0002	-2.9531255
108	0x40002fe8	2.002924
109	0xbf27b711	-0.6551371
110	0x4017ca3d	2.3717186
111	0xbfae9878	-1.364028
112	0x40c4cbec	6.149893
113	0x3f0077d5	0.5018285
114	0x40f9ef54	7.810465
115	0x406b3b66	3.6755004
116	0x4010e0ef	2.2637289
117	0x3e660ab4	0.2246502
118	0x4072ddaf	3.7947805
119	0xc1345eb6	-11.273123
120	0xc078f3e5	-3.8898861
121	0xc0ca4c02	-6.3217783
122	0x3f416cb8	0.75556517
123	0xbeab1953	-0.33417758
124	0x4019bc4a	2.4021173
125	0x40de8d9f	6.9547877
126	0x3f055eb4	0.5209763
127	0x3fb0b4d8	1.3805189
128	0x4039afa4	2.9013453
129	0x3ee1a303	0.4406968
130	0x4085c6cd	4.1805177
131	0x3f5ce0be	0.8628043
132	0x3fc9ae1c	1.5756259
133	0xc119cf17	-9.613059
134	0xc127dde2	-10.491671
135	0xc166fd70	-14.436874
136	0xbf58b70f	-0.84654325
137	0xc133d399	-11.23916
138	0xc160b8a8	-14.045082
139	0xc14efdd5	-12.936971
140	0x4113663d	9.2124605
141	0x4095b07d	4.677794
142	0x413b9965	11.72495
143	0x40c23432	6.0688715
144	0xc057eb98	-3.3737545
145	0xbf00e69c	-0.5035188
146	0xbe80dab0	-0.25166845
147	0xbed2f376	-0.4120137
148	0x3e50c964	0.20389324
149	0xbfc26cc8	-1.5189447
150	0x3fd5b4d5	1.669581
151	0x3e9906d9	0.29888037
152	0x3f695e8b	0.91159886
153	0xbe8aef20	-0.27135563
154	0x3f9f0fe6	1.2426727
155	0x409391f3	4.611566
156	0x40a50498	5.1568108
157	0x4124cc82	10.299929
158	0x408eb9da	4.460187
159	0x40ba4756	5.821208
160	0x41124724	9.142368
161	0xc10a4700	-8.642334
162	0xc00a99bc	-2.1656332
163	0xc0914f1f	-4.5409083
164	0x41149bc5	9.28803
165	0xc10fb141	-8.980775
166	0xc0a4d060	-5.1504364
167	0xbfc51399	-1.5396606
168	0xbf8afc72	-1.085829
169	0x3fca3bb9	1.5799476
170	0x3f59bf7c	0.85057807
171	0xc096cca7	-4.712482
172	0x409809e1	4.751206
173	0xc02067e3	-2.5063407
174	0x3fa14c24	1.2601361
175	0x3eb78240	0.3584156
176	0xbe4352a3	-0.19074492
177	0xbc50c8fe	-0.012743233
178	0x3d9a226a	0.07526095
179	0xbe04ce09	-0.12969221
180	0x3e4076e0	0.18795347
181	0xbee40d75	-0.44541517
182	0xc040d946	-3.0132613
183	0x40c6ce92	6.212716
184	0xbfe363c6	-1.7764823
185	0xc0cd954d	-6.424475
186	0x410af6f0	8.685287
187	0xc094f65a	-4.655072
188	0x3f543c38	0.82904387
189	0xbfd054e5	-1.6275908
190	0x40833c21	4.10109
191	0xc04613b2	-3.094952
192	0xc0004f76	-2.00485
193	0x40b31405	5.596194
194	0xc04584af	-3.0862234
195	0x3f616f73	0.88060683
196	0x3f564efb	0.83714265
197	0xc02ca2d2	-2.6974378
198	0x403dee88	2.9676838
199	0xbe9c1fd9	-0.30493048
200	0xc02a4811	-2.6606486
201	0x400f86d0	2.2426033
202	0xbf0855b5	-0.5325578
203	0x4084779e	4.1396017
204	0xc117a5ba	-9.477961
205	0x40a3625e	5.1057577
206	0x408b7b20	4.35878
207	0xc0f2f5a0	-7.5924835
208	0x4078ec81	3.889435
209	0xbed57d32	-0.4169708
210	0xbf0ae533	-0.5425598
211	0x3ea8e256	0.3298518
212	0xbf8d7d4a	-1.105386
213	0x3e6871c6	0.22699651
214	0x3f25c8e1	0.6475964
215	0xbfb79eae	-1.43453
216	0x3edc4978	0.43024802
217	0xc012bccd	-2.2927735
218	0x40c362d7	6.1058154
219	0xc0847646	-4.1394377
220	0xc09749e3	-4.7277694
221	0x40f1e25c	7.5588818
222	0xc04cda47	-3.2008226
223	0x3f0b4afd	0.544113
224	0x4013ae80	2.3075256
225	0x3dcf3c04	0.10118869
226	0x3fc26a67	1.5188721
227	0x40a4440e	5.1333075
228	0xbf1e6bc7	-0.61883205
229	0x3f96004e	1.1718843
230	0x403bc077	2.9336221
231	0x404b45d2	3.1761365
232	0xbfb69f97	-1.4267453
233	0xc056faf4	-3.359067
234	0xc08b1099	-4.345776
235	0x3ffab1ea	1.9585545
236	0x404cea37	3.2017953
237	0x40b8adda	5.771222
238	0x40c1a41b	6.0512824
239	0xbf9affed	-1.2109352
240	0xbf0664ed	-0.5249775
241	0xc0a2c2d3	-5.0862823
242	0x3eef20c5	0.4670469
243	0x4060757a	3.5071702
244	0x40f7a369	7.7386975
245	0x3f960310	1.1719685
246	0xbf9febce	-1.2493837
247	0xbd145634	-0.036215022
248	0x3fb5f081	1.4214021
249	0x3f61b6d6	0.8816961
250	0x3f954b24	1.1663556
251	0x3fd85004	1.6899419
252	0xc0059af1	-2.0875819
253	0xc0190ea6	-2.391519
254	0xbf55849e	-0.8340548
255	0x409b6847	4.856479

bias f4 [11]
0	0x3b9883dc	0.0046543907
1	0xbdad2982	-0.084551826
2	0x3e05dcba	0.13072482
3	0xbda952fb	-0.082677804
4	0x3dd4aba6	0.10384302
5	0xbc53a798	-0.012918375
6	0x3b93ccf0	0.0045105144
7	0x3dd0f50e	0.102029905
8	0xbb6e760e	-0.0036386284
9	0xbe4889ed	-0.19583865
10	0xbdbf361f	-0.09336495

weight f4 [11]
0	0x40b97575	5.795588
1	0x412c35a1	10.763093
2	0x40491101	3.1416628
3	0x401c5ec7	2.4432847
4	0x40f3264b	7.5984244
5	0x410f960f	8.974135
6	0x3f718816	0.94348276
7	0x40d1750a	6.545537
8	0x4084152a	4.1275835
9	0x40b73b4e	5.7259893
10	0x406d5608	3.708376

bias f4 [11]
0	0x4204fcd3	33.2469
1	0xc05b337b	-3.425017
2	0x4195246b	18.642782
3	0xbdb2838f	-0.08716499
4	0xbf9c40aa	-1.2207234
5	0xbda54e25	-0.080715455
6	0xbdcd485b	-0.10023566
7	0x3aec433a	0.0018025406
8	0x409bfea4	4.874834
9	0xbc80ff4a	-0.015746731
10	0xbd5c6ba2	-0.053813584

running_mean f4 [11]
0	0x3fe40300	1.7813416
1	0xc221965a	-40.396828
2	0xc330b422	-176.70364
3	0x3f7e8965	0.994284
4	0x41cbfb25	25.49763
5	0x3e4620b5	0.19348414
6	0xc3661279	-230.07216
7	0xbf72d1a6	-0.9485115
8	0xc2353aeb	-45.307537
9	0xc0492999	-3.143164
10	0x3f152638	0.5826144

running_var f4 [11]
0	0x4501d0e4	2077.0557
1	0x45d2ff9c	6751.951
2	0x4494d07b	1190.515
3	0x42421eea	48.53019
4	0x4539bd3a	2971.8267
5	0x44acd1c6	1382.5554
6	0x4594bec8	4759.8477
7	0x43efb1fd	479.39053
8	0x44290d09	676.2037
9	0x44373487	732.82074
10	0x4311824d	145.50899

weight f4 [16, 11, 7]
0	0xbf88739f	-1.0660285
1	0xc00c3e06	-2.1912856
2	0xbf6c1dca	-0.92232955
3	0x3f197acd	0.59953004
4	0x3f3e78e7	0.7440323
5	0xbf4b9acd	-0.7953308
6	0xbece3c34	-0.40280306
7	0xc11cc94c	-9.799145
8	0xc0c9370a	-6.2879686
9	0xc01d5f78	-2.458952
10	0x40876159	4.2306333
11	0x407dacea	3.9636788
12	0xc0495d57	-3.146322
13	0xc0b9a4b7	-5.801357
14	0xc0431f1a	-3.0487733
15	0xc03b0af9	-2.9225447
16	0x403d8305	2.9611218
17	0xbe434f78	-0.19073284
18	0x407e82e4	3.976739
19	0x40514a5e	3.270164
20	0xbfb11185	-1.3833472
21	0x407d470e	3.9574618
22	0xc0b79f3c	-5.738188
23	0xc16128ef	-14.072494
24	0xc19d10bf	-19.633177
25	0xc19a173e	-19.261349
26	0xc005ebf4	-2.0925264
27	0x40a0b471	5.0220265
28	0xc0ad3f1c	-5.413954
29	0xc10ad42d	-8.676801
30	0xc057a42a	-3.3693948
31	0xc0981bf2	-4.7534113
32	0x40974c09	4.7280316
33	0x3fab6b75	1.3392168
34	0xbfe12925	-1.7590681
35	0xc0204080	-2.5039368
36	0xc0834e16	-4.103282
37	0xc06e37d0	-3.7221565
38	0xc04bfeea	-3.1874337
39	0xbf80e4d5	-1.0069834
40	0x3f8a43d8	1.0801954
41	0x3fcd35b4	1.6032014
42	0x3cf0867a	0.029360998
43	0xc02e0a2b	-2.7193706
44	0xc063580d	-3.5522492
45	0xc0852cd8	-4.161724
46	0x3fe0056b	1.7501653
47	0x40b2ce97	5.5877185
48	0x40206fd0	2.5068245
49	0xbfd15fdb	-1.6357378
50	0xc03ee26e	-2.9825702
51	0xc045b574	-3.0892
52	0xc04c21b7	-3.1895578
53	0xbf7d0ca4	-0.98847413
54	0x3f8ad123	1.0845073
55	0x3fa80f39	1.3129646
56	0x4057eb42	3.373734
57	0x40ba439a	5.820752
58	0x401f90ee	2.4932208
59	0xc02e6cc5	-2.7253888
60	0xc09519e3	-4.65941
61	0xc089e638	-4.309353
62	0x400b396a	2.1753793
63	0xc138be19	-11.546411
64	0xc1a627ef	-20.769499
65	0xc1dced6b	-27.615927
66	0xc1d18f21	-26.194887
67	0xc1640b6e	-14.25279
68	0xbf65572b	-0.8958613
69	0x3ff233ac	1.8922019
70	0xc15420d2	-13.258013
71	0xc1cc101a	-25.507862
72	0xc203b855	-32.93001
73	0xc1fa2ffd	-31.273432
74	0xc151b625	-13.106969
75	0x4082dff4	4.089838
76	0x40492fe8	3.143549
77	0xbe0d6db5	-0.13811381
78	0xbf082cb7	-0.5319323
79	0xbfc7fe95	-1.5624567
80	0x3f8bd704	1.0924993
81	0x3f73e128	0.95265436
82	0x4029eb56	2.6549888
83	0xbf9eb714	-1.2399621
84	0xc00528de	-2.0806193
85	0xbfd35c42	-1.651253
86	0xc046bc94	-3.10526
87	0x402b545b	2.6770236
88	0x41014946	8.080389
89	0x40849252	4.1428614
90	0xc0aa14ac	-5.3150234
91	0xc0d18ad4	-6.548197
92	0xc08cdcec	-4.401968
93	0xbe768fba	-0.24078265
94	0xc09ef89c	-4.967848
95	0xbfd88f4f	-1.6918734
96	0x415f9bf1	13.975572
97	0x40886c40	4.263214
98	0x40a139ba	5.0382967
99	0x410cff14	8.812275
100	0x40a07b57	5.015056
101	0xc08249f9	-4.07153
102	0xc1751962	-15.318697
103	0xc1a4435d	-20.532892
104	0xc0a6591a	-5.1983767
105	0x401902f3	2.390805
106	0xbf9cf4bb	-1.2262186
107	0xc00126d0	-2.017994
108	0xc01bd329	-2.4347632
109	0x407505ed	3.8284867
110	0x405abebe	3.417892
111	0xbff66274	-1.9248796
112	0xc0fd8eb6	-7.923671
113	0xc1794883	-15.580203
114	0xc19d1518	-19.6353
115	0xc1a1aefd	-20.210443
116	0xc1968811	-18.816439
117	0xc09d9c30	-4.925316
118	0x404f9ce2	3.2439504
119	0x3f8e6a71	1.1126233
120	0x402fdfb1	2.748028
121	0xbd50df9b	-0.050994497
122	0xc01bcc54	-2.4343462
123	0xc0d88a6b	-6.7668967
124	0x3f6660d3	0.8999149
125	0x4069471e	3.6449656
126	0xbe773d23	-0.24144416
127	0xc0c690fb	-6.205198
128	0xc11c25ee	-9.75926
129	0xc13a3a99	-11.639306
130	0xc18d16fa	-17.636219
131	0xc0d11443	-6.5337234
132	0xbe762df1	-0.24040963
133	0x3f8a29db	1.0794023
134	0x3fc94af3	1.5725998
135	0x3f678be4	0.9044783
136	0xc020e570	-2.5140038
137	0xc08f5661	-4.4792943
138	0xc03bd87b	-2.935088
139	0x40d0e13e	6.5274954
140	0xc0bc42f2	-5.883172
141	0xc151418c	-13.078503
142	0xc1ac3e5e	-21.530453
143	0xc1c70bb2	-24.88071
144	0xc1dd5ecb	-27.671286
145	0xc1574fb4	-13.456959
146	0x3e32454a	0.17409244
147	0x405f91e6	3.49328
148	0x3f252d1b	0.6452195
149	0xc0f60660	-7.688278
150	0xc1b077b7	-22.058455
151	0xc1b88127	-23.063063
152	0xc1687057	-14.527427
153	0x3f954b25	1.1663557
154	0xc10863d9	-8.524377
155	0xc0f7c517	-7.742809
156	0x41479ca1	12.4757395
157	0xc03d1a96	-2.9547477
158	0x41146f3d	9.277158
159	0xc05fd853	-3.4975784
160	0xc1588320	-13.532013
161	0x3f88e001	1.069336
162	0xc0cf5f35	-6.480372
163	0xc1712581	-15.071656
164	0xc0ae0fcb	-5.439428
165	0xc17460cd	-15.273633
166	0xbfbf36b1	-1.4938565
167	0xbfc239fa	-1.5173943
168	0x3fb51b59	1.4148971
169	0x3f2b029e	0.6680087
170	0x3d437118	0.047715276
171	0x4020e3da	2.513907
172	0x3f95d4d1	1.1705571
173	0x3e28c2c2	0.16480544
174	0xbf48b331	-0.78398424
175	0xbfd94eac	-1.6977134
176	0xc063a57d	-3.5569756
177	0xc03551f5	-2.8331273
178	0xc0538136	-3.3047614
179	0xbf1b534f	-0.60673994
180	0x3eaba5af	0.33524844
181	0xbe65c5f2	-0.22438791
182	0xbfe7fb57	-1.8123578
183	0xc019c01c	-2.4023504
184	0xc0fc8514	-7.891245
185	0xc031e7a4	-2.7797632
186	0xc148d508	-12.55201
187	0xc0bc6a31	-5.887963
188	0xc0b923bb	-5.7856116
189	0xbf2b190d	-0.668351
190	0xbfce373e	-1.6110609
191	0xc05ddd35	-3.4666264
192	0xc044fc43	-3.0778968
193	0xbeb7ffe2	-0.3593741
194	0x3f8a49e8	1.0803804
195	0x3fc6fa5b	1.5545152
196	0x3f0ffec9	0.56248146
197	0xc070f03d	-3.764663
198	0x40154fab	2.3329875
199	0x402dc115	2.7149098
200	0x3f305ab5	0.6888841
201	0x408e4ccd	4.446875
202	0xc0fdd408	-7.9321327
203	0x4017f9a9	2.374613
204	0x3fef1292	1.8677542
205	0x405133ca	3.268786
206	0x406b0553	3.6722
207	0x40b3d8dd	5.6202226
208	0x40929f22	4.5819254
209	0x404d3087	3.2060869
210	0x408a928c	4.330389
211	0x408d933f	4.4242244
212	0xbe683a57	-0.22678505
213	0xc03e243a	-2.970961
214	0xc08533b5	-4.162562
215	0xbf82275a	-1.0168259
216	0x40d09469	6.5181165
217	0x3f6ee744	0.93321633
218	0x3ee7de67	0.45286867
219	0xbf248f90	-0.6428156
220	0x3f67cd94	0.9054806
221	0x4031c949	2.7779105
222	0x4040a0b8	3.0098095
223	0x405c1c52	3.4392285
224	0xc0123065	-2.2842038
225	0xc00fc411	-2.246342
226	0xbf7f0357	-0.9961447
227	0xbe614a06	-0.22000894
228	0x3fceab8d	1.6146103
229	0x3f75b921	0.9598561
230	0x3c8ba8c4	0.017048247
231	0x400e2f2c	2.2216291
232	0x406074f1	3.5071375
233	0xc137e238	-11.492729
234	0x40c22be9	6.06786
235	0x412402a3	10.250644
236	0xc1591615	-13.567891
237	0x4053d952	3.3101392
238	0x3f2527ec	0.6451404
239	0x408c6dbc	4.3883953
240	0x4095fcc1	4.6871037
241	0xc0afcad6	-5.4935102
242	0x40a36a27	5.106708
243	0x3fc98da9	1.5746356
244	0xc13315b4	-11.192799
245	0xc00ab68c	-2.1673918
246	0xbad1a8ed	-0.0015995778
247	0x40e24191	7.0705037
248	0xc0b2080d	-5.5634828
249	0xbf94b42e	-1.1617486
250	0x409b16f1	4.8465505
251	0xc0535dcf	-3.3026006
252	0x3f4f2b29	0.8092523
253	0x3eda4547	0.4263098
254	0xbf9b6538	-1.2140265
255	0x3e297dac	0.16551846

bias f4 [16]
0	0x3d9b6440	0.075874805
1	0xbddd5023	-0.108063005
2	0x3b5e3e00	0.0033911467
3	0xbc5124f5	-0.012765159
4	0xbd842854	-0.064530045
5	0x3d2d44dd	0.042302
6	0xbc87ac6a	-0.016561706
7	0x3dcc0f91	0.099639066
8	0xbd9411ea	-0.07229979
9	0x3d5f8ab7	0.05457565
10	0xbdb3dd76	-0.08782475
11	0xbd77144f	-0.060322102
12	0xbbbbe668	-0.0057342537
13	0x3dbc1d1c	0.0918524
14	0x3d84b2c3	0.064794086
15	0xbdb14b35	-0.08656923

weight f4 [16]
0	0x4100e01e	8.054716
1	0x411f95b7	9.974051
2	0x403a146d	2.9074967
3	0x4020b3db	2.5109775
4	0x409b1d2a	4.84731
5	0x403667a3	2.8500755
6	0x401729a4	2.3619165
7	0x40448db0	3.071148
8	0x402f8d2e	2.742992
9	0x40af4a54	5.4778233
10	0x408dfe98	4.4373283
11	0x40c1a3af	6.051231
12	0x3fec6b4c	1.8470244
13	0x4027efb5	2.6240056
14	0x4063ebe6	3.561273
15	0x40e326bf	7.0984797

bias f4 [16]
0	0xc06ea4eb	-3.7288158
1	0xc0eba8f2	-7.364373
2	0x3fb492b8	1.4107275
3	0x3e884d99	0.26621702
4	0xbf4ddd2b	-0.804156
5	0x3e0248ec	0.1272313
6	0x3eac4bb5	0.3365151
7	0x3d14c4a9	0.036320362
8	0xc08c6a05	-4.387942
9	0x40d8a326	6.7699156
10	0x3f683936	0.90712297
11	0xbf31f7f2	-0.6951896
12	0x40bf6e10	5.9821854
13	0x3f9e853b	1.2384409
14	0x4146c4ca	12.423044
15	0xc0a908eb	-5.2823386

running_mean f4 [16]
0	0xc3d5e2b1	-427.77103
1	0xc3e3e832	-455.81403
2	0xc3dcac13	-441.34433
3	0x40edec72	7.435113
4	0xc4ab788b	-1371.767
5	0xc186037a	-16.751698
6	0xc277e9b4	-61.978226
7	0xc16da38d	-14.852429
8	0xc3f5f13f	-491.88474
9	0x42796fc9	62.359165
10	0xc3a005e4	-320.04602
11	0xc362b41e	-226.70358
12	0xc448139b	-800.30634
13	0xc3f2745d	-484.9091
14	0xc36bb04d	-235.68867
15	0xc2eedef2	-119.43544

running_var f4 [16]
0	0x48182b67	155821.61
1	0x48aa8d44	349290.12
2	0x46b25c8a	22830.27
3	0x4603156a	8389.354
4	0x468698f9	17228.486
5	0x4616ea9d	9658.653
6	0x46835e44	16815.133
7	0x46588d46	13859.318
8	0x46e248a8	28964.328
9	0x47e717d2	118319.64
10	0x476f7eeb	61310.918
11	0x47833e1a	67196.2
12	0x469428c0	18964.375
13	0x470bd51d	35797.113
14	0x47d25585	107691.04
15	0x478ecae7	73109.805

weight f4 [22, 16, 7]
0	0xc08981ed	-4.29711
1	0xc05c8b77	-3.4460123
2	0xc047fd52	-3.1248364
3	0xbfe4968d	-1.7858444
4	0x408474f8	4.1392784
5	0x40dd1f6f	6.910087
6	0x409cce7e	4.9002066
7	0xc0fd05f4	-7.9069767
8	0xc13b692f	-11.71318
9	0xc173b71b	-15.2322035
10	0xc17e6b66	-15.90122
11	0x40bc3bda	5.882306
12	0x4198f473	19.11936
13	0x420d6e23	35.357555
14	0x3fd24e16	1.643008
15	0x403c22a8	2.9396152
16	0x406d5062	3.7080312
17	0x3fd663d9	1.6749221
18	0xbec884f5	-0.39163938
19	0xc039c0fc	-2.9024038
20	0xc0f6042b	-7.688009
21	0x3ef2d4fc	0.4742812
22	0x3f29f1aa	0.66384375
23	0x3fdf4af2	1.7444746
24	0x3f052c03	0.5202028
25	0xbefdffa4	-0.496091
26	0xc023519c	-2.551856
27	0xc0daeee2	-6.8416605
28	0xc09aa4b4	-4.8326054
29	0xc00bb798	-2.1830807
30	0xc05355d2	-3.302113
31	0xbfb5648a	-1.4171307
32	0x3fd9bd9b	1.7010988
33	0x3f8be20b	1.0928358
34	0x40616a99	3.5221312
35	0x3f05e665	0.5230468
36	0x3f4c51d6	0.7981237
37	0x4020d9a7	2.5132844
38	0x3fa17a74	1.2615495
39	0xbe683216	-0.22675356
40	0xbfdf5e92	-1.7450736
41	0xc0eed648	-7.4636574
42	0x400d3ec7	2.2069566
43	0x3fc940f5	1.5722948
44	0x3f8c30ad	1.0952355
45	0x3e16c401	0.14723207
46	0xbf2bf6cb	-0.6717345
47	0xbf51b1e4	-0.81912065
48	0xc0010e48	-2.0164967
49	0x3f641175	0.8908914
50	0x3f4bb415	0.7957166
51	0x3ffb54c4	1.9635243
52	0x3fa0fd16	1.2577236
53	0x3ebb3db9	0.36570528
54	0xbf988d2b	-1.1918081
55	0xc0b95525	-5.7916436
56	0xc09fe66e	-4.9968786
57	0xc00d58b8	-2.20854
58	0xc024b868	-2.5737553
59	0x3fe23e1d	1.7675205
60	0x40c0bc1d	6.022963
61	0x40a546c4	5.1648884
62	0x40d0c8e7	6.524524
63	0x409b315c	4.8497753
64	0x3fdcb944	1.7244039
65	0x4008f3f5	2.13989
66	0x3ef4c591	0.4780698
67	0xc03a7939	-2.9136488
68	0xc00e5b4f	-2.224323
69	0xc08f6b91	-4.4818807
70	0xc09305ec	-4.594473
71	0xc080e3a5	-4.0277886
72	0xc0bfd19f	-5.9943385
73	0xbf181c00	-0.59417725
74	0x3ffd67c8	1.9797297
75	0x406509ab	3.578715
76	0x413c5984	11.771854
77	0xc0c15d7b	-6.042661
78	0xc09ee96b	-4.9659934
79	0xc0a1ca8c	-5.055975
80	0x3fc1694c	1.5110259
81	0x40f0a032	7.519555
82	0x412a5fbf	10.6483755
83	0x41407974	12.029652
84	0x406ee41a	3.7326722
85	0x40242704	2.5648813
86	0x40730858	3.7973843
87	0x4055a96b	3.3384655
88	0xbf0188a0	-0.505991
89	0x3ea9e7ee	0.3318476
90	0x3e9bb78c	0.30413473
91	0xc068eb12	-3.6393476
92	0xc06972c7	-3.6476305
93	0xc08fa221	-4.488541
94	0xc0521bef	-3.282955
95	0x3fcc84c9	1.5978023
96	0x404f5460	3.2395248
97	0x40fcdb41	7.9017644
98	0xbfc93aa8	-1.5721025
99	0xc0a8c925	-5.274554
100	0xc09d1667	-4.9089847
101	0xbfb51d86	-1.4149635
102	0x401ac7f0	2.4184532
103	0x40e56081	7.1680303
104	0x4154bb4e	13.295729
105	0xc082e9f1	-4.0910573
106	0xc0c3f15a	-6.123212
107	0xc0e8a860	-7.2705536
108	0xbeb12448	-0.34597993
109	0x40cd58bc	6.417082
110	0x4126a750	10.415848
111	0x41836d44	16.428352
112	0xbfdec226	-1.7402999
113	0x3e881e34	0.26585543
114	0x4088fa5a	4.2805605
115	0x417ddd56	15.866537
116	0xc11305f4	-9.188953
117	0xc1072216	-8.445822
118	0xc0850536	-4.156886
119	0x3e91aeb5	0.28453603
120	0x4079092d	3.891185
121	0x4193bece	18.468166
122	0x41d415f2	26.510715
123	0xc1de2bba	-27.77135
124	0xc09f3729	-4.9754834
125	0xc006c4d7	-2.1057642
126	0xbf4ef516	-0.8084272
127	0xc061ee88	-3.5301838
128	0xc0b0505b	-5.509809
129	0x40a80cd5	5.2515664
130	0x3f286195	0.657739
131	0xbf8a0b20	-1.0784645
132	0xbf6208be	-0.8829459
133	0xc031de7f	-2.779205
134	0xc0b0b079	-5.521542
135	0xc0e87422	-7.2641764
136	0x409b1f64	4.847582
137	0x3fb6fcb4	1.4295869
138	0xbf7a46bb	-0.97764176
139	0xbedbfed6	-0.42967862
140	0xc071b2ea	-3.776545
141	0xc02acc11	-2.6687052
142	0x3f995461	1.1978875
143	0xbeaeb3e8	-0.34121633
144	0x3e0d6626	0.13808498
145	0x3ffd6029	1.9794971
146	0xbef56ead	-0.47936
147	0xc01e7ffa	-2.476561
148	0xc096b503	-4.709596
149	0xc117b1ec	-9.480938
150	0x40c17eb3	6.046716
151	0x3fce1b75	1.6102129
152	0xbf9b6ff2	-1.2143538
153	0xbf12a464	-0.5728209
154	0x3f2d32c8	0.6765561
155	0x3e7ab33a	0.24482432
156	0xbf63a2d9	-0.8892036
157	0x3cfe4c80	0.031042337
158	0xbf6d0dec	-0.9259937
159	0xbf4ac310	-0.7920389
160	0xbe838e2b	-0.25694403
161	0xc0075008	-2.1142597
162	0xc0877e5a	-4.234174
163	0xc1168f74	-9.410023
164	0x40dc286f	6.8799357
165	0x4005f7d4	2.0932512
166	0xbffb4f32	-1.9633543
167	0xbf2b1608	-0.6683049
168	0xbdd3bf14	-0.1033918
169	0x3dae7ef9	0.08520312
170	0x40164293	2.3478134
171	0x40a7ad94	5.2399387
172	0xc12e8b76	-10.909048
173	0xbfbb9630	-1.4655209
174	0xbee97756	-0.4559886
175	0x3f80696e	1.0032175
176	0xbfac0991	-1.344042
177	0xbfb54df1	-1.4164411
178	0xbfd6287b	-1.6731104
179	0x408621e8	4.191639
180	0xbfaa4b21	-1.3304178
181	0x3f865c62	1.0496943
182	0x403d07e2	2.9536061
183	0x4052c9f5	3.2935765
184	0x40df2bbd	6.974089
185	0xbfd6e8b2	-1.6789763
186	0xc11435e9	-9.263162
187	0x3f13caca	0.57731307
188	0xbe000808	-0.12503064
189	0x3e350a03	0.176796
190	0x3f063f81	0.5244065
191	0x4085febe	4.1873465
192	0x40813504	4.0377216
193	0xc0a5d176	-5.181819
194	0xbf9cfb6c	-1.2264228
195	0xbf1d513b	-0.6145207
196	0xbfc03347	-1.5015649
197	0xbff71c81	-1.9305574
198	0xbf745656	-0.9544424
199	0xc0e9758f	-7.2956004
200	0x410f54b2	8.958178
201	0x3faccf1c	1.3500705
202	0x3fa6867d	1.3009793
203	0x3fac727a	1.3472435
204	0x3fadaa4a	1.3567593
205	0x4062c26d	3.5431168
206	0x4063e060	3.5605698
207	0xc0da5880	-6.823303
208	0xc0738cc7	-3.8054674
209	0xc014c263	-2.3243644
210	0xbf30145a	-0.68781054
211	0x3f5808d3	0.84388465
212	0x41127f08	9.1560135
213	0x40c5f523	6.186174
214	0xc134fc55	-11.3116045
215	0xc04ba28e	-3.1817966
216	0xbf242702	-0.6412202
217	0x3ef3100a	0.47473174
218	0x3e158121	0.1460004
219	0x41668fc3	14.410098
220	0xc0ab6710	-5.356331
221	0xc161096c	-14.0648
222	0x3f98c9a5	1.1936537
223	0x3f10da2b	0.565829
224	0xbf0df3fe	-0.5545043
225	0xbf26efed	-0.6520985
226	0xbf0b4abf	-0.5441093
227	0x4033900a	2.8056664
228	0xbe8eeebc	-0.27916515
229	0x3f77f3b0	0.9685621
230	0x3edf73b7	0.4364297
231	0x3fa0f05b	1.2573351
232	0xc00b8479	-2.1799605
233	0xc0ceca7c	-6.4622173
234	0xbeb3f1bf	-0.35145375
235	0xc063b02b	-3.5576274
236	0x3e131c17	0.14366184
237	0x409bdd05	4.87073
238	0xbfa5cbe4	-1.2952847
239	0xbf2f4979	-0.68471485
240	0xc0114238	-2.2696667
241	0xc02b1fb9	-2.6738112
242	0x3d664990	0.0562225
243	0x3fc35371	1.5259839
244	0x40a5f70a	5.186406
245	0x3f60adb5	0.87765056
246	0x3fe065b7	1.7531041
247	0x402d7940	2.7105255
248	0x3fe1b1cb	1.7632383
249	0x4009a826	2.150888
250	0x3fd8e637	1.6945256
251	0x3fc4df44	1.5380635
252	0x3fec3353	1.8453163
253	0x40157063	2.3349845
254	0x3f1a33e1	0.6023541
255	0x3fe2e562	1.7726252

bias f4 [22]
0	0xbce815d9	-0.02833073
1	0xbdc5ec68	-0.096642315
2	0x3c96b8e7	0.018398715
3	0xbd8413c4	-0.064490825
4	0x3d1882fa	0.037234284
5	0x3d82649f	0.06366848
6	0xbd8a32b3	-0.06747951
7	0xbd50ca33	-0.050974082
8	0xbd9ec4e2	-0.07752396
9	0x3cd0dd5e	0.025496181
10	0x3c7bb4f4	0.015362967
11	0xbd498b02	-0.049204834
12	0x3d63d1de	0.055620067
13	0x3d1b1afb	0.037867527
14	0xbdaeb0b3	-0.085297965
15	0xbb940257	-0.0045168805
16	0xbd18b847	-0.037285116
17	0xbc8c97e4	-0.01716227
18	0x3d5347b6	0.05158206
19	0xbbeb3d90	-0.0071789697
20	0xbd8e1e49	-0.0693937
21	0x3d82906f	0.06375205

weight f4 [22]
0	0x406e7f1f	3.7265089
1	0x406edc55	3.732198
2	0x410c39dc	8.764126
3	0x405b2c08	3.4245625
4	0x40a2eb15	5.0911965
5	0x402c4cfa	2.6921983
6	0x40b56c1e	5.669448
7	0x40646fc9	3.5693228
8	0x40c1a398	6.05122
9	0x405c547a	3.442656
10	0x40407807	3.007326
11	0x40ad9e2f	5.4255595
12	0x405737f5	3.3627903
13	0x40b67b90	5.7025833
14	0x412922a7	10.57096
15	0x4086a3bb	4.2074866
16	0x406ffcc8	3.7498035
17	0x40922ede	4.568221
18	0x404e9eb8	3.2284374
19	0x404ef900	3.2339478
20	0x4034254f	2.8147771
21	0x40648e59	3.5711882

bias f4 [22]
0	0x4016e396	2.3576407
1	0xc05395bf	-3.3060148
2	0xc0cf963c	-6.487089
3	0x40982f02	4.7557383
4	0xc01e0903	-2.4693
5	0x3f594601	0.8487244
6	0xc14b7e2b	-12.718303
7	0xbfbfced7	-1.4984998
8	0xbffe66ea	-1.9875157
9	0x40b4f5e4	5.655016
10	0x41021c47	8.131904
11	0xc072efeb	-3.7958934
12	0xbfc14533	-1.5099243
13	0xc00afdd4	-2.1717424
14	0x41ae0edf	21.757261
15	0xc013afc5	-2.3076031
16	0x3ff383b1	1.9024564
17	0xc0903d3f	-4.5074763
18	0xbf87ec75	-1.0619036
19	0x3e0a7c68	0.1352402
20	0xbfee8747	-1.8635033
21	0xc041f997	-3.0308588

running_mean f4 [22]
0	0x4356b4a9	214.7057
1	0xc2017c38	-32.371307
2	0x43538af5	211.5428
3	0xc3be04f6	-380.03876
4	0xc32e4827	-174.28185
5	0x415de382	13.868044
6	0x424a0b1a	50.51084
7	0xc292c7f1	-73.39051
8	0xc37c79f4	-252.47638
9	0x433dd733	189.84062
10	0x43989fba	305.24786
11	0xc2a214e2	-81.04079
12	0xc292c386	-73.38188
13	0xc2c9e629	-100.94953
14	0xc2c69c51	-99.305305
15	0x411ca84e	9.79109
16	0x3d07202b	0.032989662
17	0xc22df621	-43.49036
18	0xc29df5a5	-78.979774
19	0x438cb4d4	281.41272
20	0xc271a526	-60.411278
21	0xc21fd77a	-39.960426

running_var f4 [22]
0	0x464acc2f	12979.046
1	0x459129ed	4645.2407
2	0x46b1f6c8	22779.39
3	0x4636aea2	11691.658
4	0x4679d5fa	15989.494
5	0x46b2cf99	22887.799
6	0x456e3b5b	3811.7097
7	0x46047810	8478.016
8	0x4721cfb3	41423.7
9	0x4708cbd5	35019.832
10	0x468371ec	16824.96
11	0x46b141ca	22688.895
12	0x4617d2fd	9716.747
13	0x468f0fca	18311.895
14	0x48864a09	275024.28
15	0x45f70767	7904.9253
16	0x47f1f2ca	123877.58
17	0x4610ae73	9259.612
18	0x45ef0cdd	7649.608
19	0x462c4bc8	11026.945
20	0x458c1618	4482.7617
21	0x459ba98f	4981.195

weight f4 [32, 22, 7]
0	0xc07b6123	-3.9278038
1	0xc03adb04	-2.9196177
2	0xc0921f80	-4.566345
3	0x40171cd4	2.3611345
4	0x40de5dee	6.948966
5	0x40837af3	4.1087584
6	0xbfe3ecc0	-1.7806625
7	0xc05f6189	-3.490328
8	0xbfb4e965	-1.4133726
9	0x3d5d79f1	0.05407137
10	0x405f201e	3.4863353
11	0x40a979bd	5.2961106
12	0x40b7527e	5.72882
13	0x4007dbed	2.1227982
14	0xc0178115	-2.3672535
15	0xc0820625	-4.06325
16	0xc0010c09	-2.0163596
17	0x3f3b4b54	0.73161817
18	0x40fdcccb	7.931249
19	0x3f92b798	1.1462278
20	0x40222935	2.533765
21	0x40835d08	4.1051064
22	0x3ef240a7	0.4731495
23	0x3ea9da91	0.33174565
24	0xbf0d16dc	-0.55113006
25	0x3f08fe92	0.53513443
26	0x4001126a	2.016749
27	0x3fc5902c	1.5434623
28	0xc02a90df	-2.6650922
29	0xc011fabc	-2.2809286
30	0xbfee6432	-1.8624327
31	0xbfc13d5a	-1.5096848
32	0x401ed908	2.4819965
33	0x40bf0baa	5.970174
34	0x4074e03d	3.8261864
35	0xc0e080d3	-7.0157256
36	0xc0c370bd	-6.107512
37	0xc00a091a	-2.1568055
38	0x3f6dce28	0.92892694
39	0x410e6ac6	8.901068
40	0x4003b13e	2.057693
41	0xbfca504b	-1.5805753
42	0xc0dc1b8b	-6.878362
43	0xc032f12c	-2.79597
44	0xbf5eeb4d	-0.8707779
45	0xc10f72d8	-8.965538
46	0x3ed1f924	0.41010392
47	0x4111a378	9.102409
48	0x40ef1686	7.4714994
49	0xc044cda6	-3.0750518
50	0x3eb81bf8	0.35958838
51	0xbf16b2ca	-0.5886656
52	0x3fc8a26a	1.5674565
53	0x403ec3be	2.9806972
54	0x40aefdbe	5.4684744
55	0x408b1cc5	4.347262
56	0xc007c034	-2.1211061
57	0xbf553bef	-0.83294576
58	0xc02ec38c	-2.7306852
59	0xc0676940	-3.615799
60	0x3f55c1b1	0.83498675
61	0x3fbecf5f	1.4907035
62	0x3fc145a8	1.5099382
63	0x40e02c27	7.0053897
64	0x3f8809d4	1.0627999
65	0x4030b06d	2.7607682
66	0xbf68907f	-0.90845484
67	0xc02f923b	-2.7433002
68	0x4021232b	2.5177715
69	0x40020703	2.031678
70	0x4063cdfd	3.5594475
71	0xbe975ab4	-0.29561388
72	0x3c461f1e	0.01209238
73	0x402068cf	2.506397
74	0x400069d5	2.0064595
75	0x40346a16	2.818975
76	0x401496c1	2.3217013
77	0xc013a2e0	-2.306816
78	0xbfb05693	-1.377642
79	0x40242c19	2.5651915
80	0x3fda6d1b	1.7064546
81	0x40ccb222	6.3967447
82	0x403d440f	2.957279
83	0xbf87087d	-1.0549465
84	0xc00e314a	-2.2217584
85	0x3e6bbbfb	0.23020928
86	0xbf0b13b5	-0.54326946
87	0x3f9ba276	1.2158954
88	0x3fed8968	1.8557558
89	0x40a06a88	5.0130043
90	0x408d73ae	4.420371
91	0xc084f359	-4.1547055
92	0xc08359b6	-4.104701
93	0xc04e1075	-3.2197545
94	0xbfc69ca6	-1.5516555
95	0x3fa7e93f	1.3118056
96	0x40945f81	4.636658
97	0x3fd2aaa5	1.6458327
98	0x416cb6e5	14.794652
99	0x40e4d1d8	7.1506157
100	0x4092df80	4.5897827
101	0xc040fed7	-3.0155542
102	0xc0fd46c1	-7.914887
103	0xc14a570a	-12.64625
104	0xbf8fbc8b	-1.1229414
105	0xc05a9b4f	-3.4157293
106	0xbfbf81de	-1.4961507
107	0x3fdecc7f	1.7406157
108	0x4060263a	3.5023332
109	0x40a96944	5.2941
110	0x40d7257e	6.7233267
111	0x3e4a31a4	0.19745499
112	0x405c0997	3.4380853
113	0x4085a759	4.176678
114	0x406a7813	3.6635787
115	0xbf0f8eeb	-0.5607745
116	0xc020df5f	-2.5136335
117	0xc0613353	-3.5187576
118	0xbfd2a82a	-1.645757
119	0xc106895a	-8.408533
120	0xc0c42c1e	-6.1303854
121	0xc0a9d121	-5.3067784
122	0xc089c55d	-4.305342
123	0xc010c0ee	-2.2617755
124	0x400b04f1	2.1721766
125	0x3e9ddfb1	0.30834725
126	0xbe917d1e	-0.2841577
127	0xbe8f86c2	-0.280325
128	0x3f516541	0.81795126
129	0x3fc85f68	1.5654116
130	0x409c008f	4.875068
131	0x40d92e12	6.786874
132	0x40476a35	3.1158574
133	0x3eb5712b	0.35437903
134	0xbee15938	-0.4401338
135	0xbe438d58	-0.19096887
136	0xc03a9f0b	-2.9159572
137	0x3eaf27f7	0.34210178
138	0xbf794425	-0.97369605
139	0xc08060fd	-4.0118394
140	0x3e0c395c	0.13693756
141	0x402e96ba	2.7279496
142	0x40504fe5	3.2548764
143	0x40c6021c	6.1877575
144	0x40cd6d90	6.4196243
145	0x40508188	3.257906
146	0x40306265	2.7560055
147	0xc029219b	-2.642676
148	0xbf006d01	-0.50166327
149	0x3f082285	0.5317767
150	0x4082104f	4.064491
151	0x40e46771	7.137627
152	0x408d57b4	4.416956
153	0x3fe1c863	1.7639278
154	0xbf659129	-0.8967462
155	0xc0f8f0b7	-7.779384
156	0xc11eee71	-9.933213
157	0xc0ea3041	-7.3183904
158	0xc0663389	-3.5968955
159	0x4082878f	4.0790477
160	0x4113a188	9.226936
161	0x408237c0	4.0693054
162	0x40e6df72	7.214776
163	0x4114f14e	9.308912
164	0x41278d6d	10.472028
165	0xc0b70d36	-5.7203627
166	0xc0be8488	-5.953678
167	0x3fd92a66	1.6966064
168	0x404dd4aa	3.216105
169	0xbfcd81b6	-1.605521
170	0x3fd23756	1.6423137
171	0x406f265c	3.7367163
172	0x3fef8c55	1.8714701
173	0x40d6d23f	6.713165
174	0x408d4673	4.4148498
175	0xbfdfdc77	-1.7489156
176	0xc07591c6	-3.8370223
177	0xc015bb7f	-2.3395689
178	0x400edb11	2.2321208
179	0x3f34cb24	0.7062247
180	0x3fed8af0	1.8558025
181	0xc0089c88	-2.134554
182	0x406f279e	3.736793
183	0x404f743a	3.241469
184	0x403968f6	2.8970313
185	0xbe1c776d	-0.15279932
186	0xc0969b1b	-4.706434
187	0xbfe84f9a	-1.8149292
188	0x410c87d6	8.783163
189	0x409ee2e7	4.965198
190	0xbf0ea6e5	-0.5572341
191	0x4090a8fc	4.520628
192	0x40995cbd	4.7925706
193	0x403a37f2	2.9096646
194	0x40ae89c3	5.4543166
195	0xbff91314	-1.9458947
196	0xc07dc9b7	-3.9654367
197	0x408d3439	4.412625
198	0x40c0ea25	6.028582
199	0xc0368838	-2.8520641
200	0xc0c8ee89	-6.279118
201	0x4085843a	4.172391
202	0x409b00d9	4.8438535
203	0x403746af	2.8636892
204	0x40a2ff39	5.093655
205	0x40e6a013	7.2070403
206	0x408f0b26	4.470111
207	0xc017fcc1	-2.3748019
208	0x3f06b42b	0.52618665
209	0x409e61c0	4.9494324
210	0xc08e5eb8	-4.4490623
211	0xc1253cb7	-10.327323
212	0xc11faa56	-9.979086
213	0xc0f4c57d	-7.6491075
214	0xc0072ddd	-2.1121743
215	0x408dda13	4.4328704
216	0x40bb7d00	5.859009
217	0xc0c6994c	-6.206213
218	0xc0102096	-2.251989
219	0x3fed96d1	1.856165
220	0xbe23c005	-0.15991218
221	0x4074321e	3.815559
222	0x40c322fd	6.098021
223	0xc03e68b2	-2.97514
224	0x407a1e71	3.908108
225	0xbfb0b3d0	-1.3804874
226	0x40698222	3.6485677
227	0x41102663	9.009372
228	0xbee8ba61	-0.45454696
229	0xc0a5897d	-5.173033
230	0xc0b6d609	-5.7136273
231	0xc046f149	-3.1084769
232	0xc0059a3a	-2.0875382
233	0x40abce4c	5.3689327
234	0xc0295051	-2.6455271
235	0xbfba38cf	-1.4548587
236	0x4024868f	2.5707128
237	0x401c0b99	2.4382079
238	0xbfa09810	-1.2546406
239	0x401bdf32	2.4354978
240	0x3fdd34a3	1.7281688
241	0x409fba1b	4.991468
242	0x4024218e	2.564548
243	0xbfcbd47d	-1.5924221
244	0x40bc1565	5.8776116
245	0xbefaada3	-0.489606
246	0x3f973007	1.1811532
247	0xbf067a15	-0.5253003
248	0x3fbab7b5	1.4587313
249	0x3f45f1ca	0.77322066
250	0x3f2310d5	0.6369756
251	0xbf6fdfa8	-0.9370065
252	0x40d6253c	6.692045
253	0x40d0d121	6.5255284
254	0xc10c13bf	-8.754821
255	0xc009f8de	-2.1558146

bias f4 [32]
0	0x3d4d9f48	0.05020073
1	0x3d083d5d	0.033261646
2	0xbd5c348a	-0.053761043
3	0x3da1fc13	0.079094075
4	0xbda12aac	-0.07869467
5	0xbd65ec52	-0.056133576
6	0xbd466bde	-0.048442714
7	0xbcae9cc3	-0.021314984
8	0x3d11495c	0.03547035
9	0x3c8a0be8	0.01685138
10	0xbd8cfd84	-0.06884292
11	0x3da0483a	0.07826276
12	0x3d9c4ea0	0.07632184
13	0x3d216c06	0.03940966
14	0xbda12e15	-0.078701176
15	0x3d3b3d24	0.045712605
16	0x3cbe3bd8	0.023221895
17	0xbc236feb	-0.009975414
18	0xbd89390f	-0.06700336
19	0x3d8b66c2	0.06806709
20	0xbcbddea2	-0.023177449
21	0xbd82386d	-0.063584186
22	0x3d7de98e	0.061990313
23	0x3d042135	0.03225823
24	0x3ccba5d1	0.02485934
25	0x3d55cec7	0.05219915
26	0x3cdf2f96	0.02724437
27	0xbc8d8454	-0.017275013
28	0xbc5b0695	-0.0133682685
29	0x3d889d5c	0.06670639
30	0xbb190c5c	-0.0023353314
31	0xbd8a483f	-0.06752061

weight f4 [32]
0	0x411c72c0	9.778015
1	0x40861ec4	4.1912556
2	0x408b88e7	4.3604617
3	0x40c89082	6.26764
4	0x412d1f8e	10.820204
5	0x4099ce1f	4.8064113
6	0x40abaeff	5.365112
7	0x40c0d14d	6.0255494
8	0x40fc9387	7.8930087
9	0x4047d04c	3.1220884
10	0x40e8a26c	7.269827
11	0x407acdcb	3.9188106
12	0x4096fc13	4.718271
13	0x408d95b9	4.4245267
14	0x406f34e2	3.7376027
15	0x40b7e480	5.746643
16	0x40e21816	7.06544
17	0x407e7041	3.9756014
18	0x4084e620	4.1530914
19	0x40a6bea2	5.2107706
20	0x40a30b27	5.0951114
21	0x407a4332	3.9103513
22	0x40964b85	4.6967187
23	0x413b8dbb	11.722102
24	0x40b96a40	5.79422
25	0x40664dfa	3.5985093
26	0x4085e585	4.1842675
27	0x40f8974c	7.768469
28	0x40b54112	5.664193
29	0x4098b626	4.772235
30	0x4091905f	4.5488734
31	0x40ef8360	7.484787

bias f4 [32]
0	0x40979691	4.7371297
1	0x40bcd6e2	5.901231
2	0x404bb240	3.1827545
3	0xc0cd307e	-6.4121695
4	0x405ec79c	3.4809332
5	0xbf44d52b	-0.7688777
6	0xbf46313a	-0.77418864
7	0x3f6afd90	0.91793156
8	0xc0a2b322	-5.084367
9	0x407c255d	3.9397805
10	0xc13d8de6	-11.847143
11	0x40258266	2.586084
12	0xbe947c7f	-0.29001233
13	0x40149666	2.3216796
14	0xbc2338fd	-0.0099623175
15	0x40ce6290	6.4495316
16	0xc0176471	-2.3655055
17	0x3f6819c1	0.906643
18	0xbf52568b	-0.82163304
19	0x408e4864	4.4463367
20	0xbfbf7e39	-1.4960395
21	0xc048c7d8	-3.1371975
22	0xbfc2fc9c	-1.523334
23	0xbfd72f8c	-1.6811385
24	0xbda21c38	-0.079155385
25	0x40072ae6	2.1119933
26	0xbf65c517	-0.8975386
27	0xbf3fc5a6	-0.7491096
28	0xc0695846	-3.6460128
29	0xbeb7850e	-0.358437
30	0x3fbaa4a7	1.4581498
31	0xc0c49a32	-6.1438227

running_mean f4 [32]
0	0x4343068d	195.02559
1	0x423e60a4	47.594376
2	0xc22f2269	-43.783604
3	0x41b77941	22.934206
4	0x432cefaf	172.93626
5	0xc364291d	-228.1606
6	0xc2d917f0	-108.54675
7	0xc30449ac	-132.28778
8	0xc3403eb5	-192.24495
9	0x42369b92	45.651924
10	0xc3e29be5	-453.21793
11	0x431080d5	144.50325
12	0xc27cb02c	-63.172043
13	0xc2221029	-40.51578
14	0x42f5c74c	122.88925
15	0xc2251c3a	-41.277565
16	0xc1cee45c	-25.861504
17	0x43ee511a	476.6336
18	0xc19c2441	-19.517702
19	0x4387027f	270.0195
20	0xc304ed54	-132.92706
21	0xc2e982f9	-116.755806
22	0x41883cd1	17.029696
23	0x433911a7	185.06895
24	0xc29b2157	-77.56512
25	0xc33007c0	-176.03027
26	0xc25f542b	-55.832195
27	0x42906272	72.192276
28	0x438b9467	279.1594
29	0xc3227328	-162.44983
30	0x43a09669	321.17508
31	0xc301de80	-129.86914

running_var f4 [32]
0	0x4722c639	41670.223
1	0x46be27de	24339.934
2	0x47064584	34373.516
3	0x472fcef0	45006.938
4	0x474a0e4b	51726.293
5	0x46b10386	22657.762
6	0x46bb658a	23986.77
7	0x46ca17cc	25867.898
8	0x4690298a	18452.77
9	0x472252dc	41554.86
10	0x470f3976	36665.46
11	0x4606380d	8590.013
12	0x4644765e	12573.592
13	0x46d62247	27409.139
14	0x46218aaa	10338.666
15	0x47851554	68138.66
16	0x470f0f0a	36623.04
17	0x469c668f	20019.28
18	0x463b02b5	11968.677
19	0x4702327e	33330.492
20	0x46570658	13761.586
21	0x45f4a080	7828.0625
22	0x46bf14c5	24458.385
23	0x4766b9d1	59065.816
24	0x46b4ab70	23125.719
25	0x463c7eb0	12063.672
26	0x469e605b	20272.178
27	0x46e98918	29892.547
28	0x46b58a02	23237.004
29	0x463f6fbd	12251.935
30	0x46894e34	17575.102
31	0x470fc9fe	36809.992

weight f4 [32, 22, 7]
0	0xc0962ada	-4.692731
1	0xc0eb2b74	-7.3490543
2	0xc107c039	-8.484429
3	0xbf25564d	-0.6458481
4	0xc086e78b	-4.2157645
5	0xc0ae0cea	-5.4390764
6	0xc111365d	-9.075772
7	0x41130239	9.188043
8	0x41200617	10.001487
9	0x414ab735	12.669728
10	0x3fcab903	1.5837711
11	0x40931dad	4.5973725
12	0x4075f57d	3.8431084
13	0x40c4a54a	6.145177
14	0xbef8635d	-0.48513308
15	0xc0132855	-2.2993367
16	0xc0840cf9	-4.1265836
17	0x3fce46de	1.6115377
18	0x3f9add48	1.209878
19	0xc0df232f	-6.973045
20	0xc07f0e4b	-3.9852474
21	0xc0a43be5	-5.1323113
22	0xbee58c81	-0.44833758
23	0x40f4eacf	7.653663
24	0x41338c88	11.221809
25	0x412d255d	10.821622
26	0x3f8b3009	1.0874034
27	0x400821ae	2.1270556
28	0xc0161613	-2.3450973
29	0xbe6c9f8a	-0.23107734
30	0x403fc2a6	2.9962554
31	0x4080f1fa	4.029538
32	0x3ff775d8	1.9332838
33	0x40a7d910	5.245247
34	0x4082725a	4.076459
35	0xbf76abbc	-0.96355796
36	0x40864135	4.19546
37	0x3e929880	0.28631973
38	0x3f13a7fe	0.5767821
39	0x405124e4	3.2678766
40	0xc00c90b4	-2.196332
41	0x4049f3a5	3.155496
42	0x41429c86	12.163214
43	0x40dd37ec	6.9130764
44	0x410a3013	8.636737
45	0x4132dc4a	11.1787815
46	0x410ad68c	8.67738
47	0x40c4b67f	6.1472774
48	0x4109d94d	8.615552
49	0xbff367ed	-1.9016091
50	0xbf9c404d	-1.2207123
51	0x410992e7	8.598365
52	0x3f363baf	0.7118482
53	0x40f7d456	7.74467
54	0x401863f8	2.3811016
55	0x3fb4bf51	1.4120885
56	0xc0969695	-4.7058816
57	0xc03a2592	-2.908543
58	0xbf816b09	-1.011079
59	0xc1046e5d	-8.276944
60	0xc1076b1b	-8.463649
61	0xbfd2fd2f	-1.6483516
62	0x4084239e	4.129348
63	0xbf640528	-0.8907037
64	0xc09faab0	-4.989586
65	0xc0213205	-2.518678
66	0xc08d2bd5	-4.4116006
67	0xbfa268d0	-1.2688236
68	0xbfa52977	-1.2903279
69	0x3f3d987f	0.74060816
70	0x417d67c9	15.837838
71	0xc0b2beaf	-5.585777
72	0x4088710c	4.2637997
73	0xc0b70cf2	-5.72033
74	0x4061c337	3.52754
75	0xc09aa512	-4.83265
76	0xc0dd2964	-6.9113026
77	0x400135e8	2.0189152
78	0x3f85283b	1.0402902
79	0xc0fe8897	-7.9541736
80	0x40c53b84	6.163515
81	0x40857368	4.1703377
82	0x40234a42	2.5514073
83	0xc140004b	-12.000072
84	0xbf186606	-0.59530675
85	0xc06ea76f	-3.7289693
86	0x40958939	4.673001
87	0xc1452470	-12.321396
88	0xbdc7a73b	-0.097486936
89	0xc08313ea	-4.096181
90	0x403d7178	2.9600506
91	0xc0a71435	-5.2212167
92	0xc10520ee	-8.320539
93	0xc013ecbb	-2.311324
94	0x4081d906	4.057742
95	0x3fbb26c3	1.4621204
96	0xbf244054	-0.64160657
97	0x3ec2272c	0.3792051
98	0xbe83bea3	-0.25731382
99	0xc10116e3	-8.068088
100	0xc1061b82	-8.381716
101	0xc056f31f	-3.358589
102	0xbfe85504	-1.8150945
103	0xbfd59b79	-1.6688071
104	0xc0a8d1f2	-5.275628
105	0xc09c2cac	-4.880453
106	0xc0abba55	-5.3664956
107	0xc088e4c2	-4.2779245
108	0xc0dc281c	-6.879896
109	0xc17c6725	-15.775182
110	0xc0f19152	-7.5489893
111	0xc181fb9a	-16.247852
112	0x40cc628c	6.3870296
113	0x407df785	3.9682324
114	0x3f31ee33	0.6950409
115	0xbf570b3a	-0.84001505
116	0xc0e43ae3	-7.1321883
117	0xc0641552	-3.5638013
118	0x4017fd2d	2.3748276
119	0xbf9bba19	-1.2166167
120	0xc09618ee	-4.690543
121	0x40535993	3.3023422
122	0x4046bef6	3.1054053
123	0x3fb75203	1.4321903
124	0x404a7559	3.1634123
125	0x40919d32	4.550439
126	0xc1189fb4	-9.53899
127	0x3e5c61bc	0.21521658
128	0x40370315	2.859563
129	0xc013eed3	-2.3114517
130	0x4106adf3	8.417468
131	0x3fde06c9	1.7345821
132	0x408b43e8	4.3520393
133	0xc04b466f	-3.176174
134	0x40298f0b	2.6493556
135	0xbf8285e7	-1.0197114
136	0xc0b77a2b	-5.733663
137	0xc0f983d6	-7.7973433
138	0xbdbfb2b7	-0.09360259
139	0x3f29455b	0.66121453
140	0x3f910a72	1.1331313
141	0x3cac0c56	0.021001976
142	0x3ef624aa	0.48074847
143	0x40747674	3.8197298
144	0xc02eb989	-2.7300742
145	0x3d078696	0.033087336
146	0xc04faa3a	-3.2447648
147	0x3e99111b	0.29895863
148	0x409f3996	4.9757795
149	0xc0caec25	-6.341326
150	0x3f05b86a	0.5223452
151	0x3f637ee8	0.8886552
152	0xc054101e	-3.3134837
153	0x405b875b	3.4301364
154	0xc1260126	-10.37528
155	0x3f4a98d9	0.79139477
156	0xc0e1a26e	-7.051078
157	0x3f981dc6	1.1884086
158	0x3ff41055	1.9067484
159	0x40deb097	6.9590564
160	0x407b479c	3.9262457
161	0x40dbb505	6.865847
162	0x3de0b737	0.109724455
163	0xc0e9ac8d	-7.3023133
164	0xc0b36fe2	-5.6074076
165	0xc06bab0f	-3.6823156
166	0x3fa5a634	1.2941346
167	0xc0426e9a	-3.0380006
168	0x4095bd19	4.679333
169	0xc0bd79da	-5.9211245
170	0xbfb6f579	-1.4293662
171	0xbf5bb306	-0.85820043
172	0x4115c846	9.361395
173	0x40c8c7f8	6.2744102
174	0x412357cd	10.208936
175	0x408fac6a	4.4897966
176	0x409f6d09	4.98206
177	0xc0b453ce	-5.63523
178	0xbfdb30a7	-1.7124223
179	0x409b7686	4.858218
180	0x40a9278c	5.2860775
181	0x3f098f05	0.53733855
182	0xbfbf822b	-1.4961599
183	0xc0810e92	-4.0330286
184	0xc0ba5972	-5.8234186
185	0xc0e711e9	-7.2209363
186	0xc107dc64	-8.491306
187	0xc10e9f69	-8.9139185
188	0xc0a82f30	-5.25576
189	0xbffb1b0e	-1.9617631
190	0xc01e3224	-2.4718103
191	0xbfc7b178	-1.5601034
192	0xc0ebe361	-7.371506
193	0xc0620f11	-3.5321696
194	0xc01c9d2b	-2.4470928
195	0xc134d853	-11.302814
196	0x3ee57909	0.44818905
197	0xbeca4b8b	-0.3951076
198	0xbecb5a15	-0.39717165
199	0x3fbed09b	1.4907411
200	0xbfc945ce	-1.5724428
201	0x40135d28	2.3025608
202	0xc004465c	-2.0667944
203	0xc006eb57	-2.108114
204	0x4078df0d	3.888614
205	0x40c435fe	6.131591
206	0x403e34b8	2.9719677
207	0xc007a4ad	-2.119426
208	0x4007daea	2.1227365
209	0x40060d51	2.0945628
210	0x3eee1de5	0.46507183
211	0xbe3ecc8f	-0.1863272
212	0xc00f9b22	-2.2438436
213	0xc0211a11	-2.517216
214	0xc08affff	-4.3437495
215	0xc0de857d	-6.953795
216	0xc0a93a6c	-5.2883816
217	0x404ae627	3.1702974
218	0x406bb0e8	3.6826725
219	0x40698ab4	3.6490908
220	0xbff92649	-1.9464809
221	0xc012ce91	-2.2938578
222	0xc053eac8	-3.311205
223	0xc062299d	-3.5337899
224	0xc048dc41	-3.1384432
225	0xc0b80cf1	-5.7515798
226	0x3f2ac8f0	0.66712856
227	0xc10a8778	-8.658073
228	0x400c20d1	2.189503
229	0xc1453183	-12.324588
230	0xbdae96a7	-0.085248284
231	0xbf3de3cf	-0.74175733
232	0x3f62a234	0.8852875
233	0xc17b1302	-15.692141
234	0x40b2e2e3	5.590196
235	0x3f0dccb8	0.553905
236	0xbf921712	-1.141329
237	0xc0bfb8ef	-5.991325
238	0xc0013b6a	-2.0192513
239	0xc10e221d	-8.883328
240	0x4104e8c7	8.30683
241	0xc1ba3713	-23.276892
242	0x408fe9d3	4.497293
243	0xc1214c47	-10.081122
244	0x40c5e25e	6.1838827
245	0xc0897c49	-4.2964215
246	0x40cda322	6.4261637
247	0xbf6ecb59	-0.93279034
248	0xbf093402	-0.5359498
249	0x3d8db000	0.06918335
250	0xbf853423	-1.0406536
251	0x3b014f59	0.0019731133
252	0xc107d0c2	-8.488466
253	0xc09d0560	-4.906906
254	0x3fd5523d	1.6665722
255	0x4080a66d	4.0203156

bias f4 [22]
0	0x3da00616	0.07813661
1	0x3d8f5aae	0.06999718
2	0x3d1d47ea	0.03839866
3	0xbceea04a	-0.029129166
4	0xbcddf2d5	-0.02709333
5	0x3d47297f	0.048623558
6	0x3d843738	0.06455845
7	0x3da1d2df	0.079015486
8	0x3d1853b0	0.037189186
9	0xbcfc4569	-0.030794816
10	0xbd126f59	-0.03575072
11	0x3d9e323e	0.07724427
12	0xbd6c24af	-0.05765217
13	0xbd8c2165	-0.06842307
14	0xbc241d78	-0.0100167915
15	0xbc77c764	-0.015123222
16	0x3d24f444	0.040272012
17	0xbd619c80	-0.05508089
18	0xbc8f10c6	-0.017464053
19	0xbd817939	-0.063219495
20	0x3d5b992a	0.053612866
21	0x3c960471	0.018312665

weight f4 [22]
0	0x409e7667	4.9519534
1	0x410c84f3	8.782458
2	0x40c6fe33	6.21853
3	0x40958685	4.672671
4	0x40961c8e	4.6909857
5	0x40b41392	5.627389
6	0x4115ff1a	9.374781
7	0x40d46fae	6.638633
8	0x40d5745c	6.670454
9	0x40b433b0	5.6313095
10	0x4080eef9	4.0291715
11	0x411bbeb5	9.734059
12	0x40c2f118	6.0919304
13	0x4036106f	2.844753
14	0x40830d3c	4.0953655
15	0x40a7d106	5.2442656
16	0x40b70a7d	5.7200303
17	0x4083c28c	4.1174984
18	0x40d74c80	6.7280884
19	0x40cb6290	6.3557816
20	0x40d5e7a6	6.6845274
21	0x40c7019a	6.2189455

bias f4 [22]
0	0xc01d7e8a	-2.4608483
1	0xc0966d19	-4.7008176
2	0xc0ac603d	-5.386748
3	0x3fced557	1.6158856
4	0xc00ac4a6	-2.1682525
5	0x401c6c0c	2.4440947
6	0x3f5f6497	0.8726286
7	0x406d749c	3.7102423
8	0xc0eecdf0	-7.462639
9	0xc0248238	-2.570448
10	0xc0054157	-2.082113
11	0xc02fc443	-2.7463539
12	0xc04acc09	-3.1687033
13	0x3f61ff50	0.882802
14	0x3d372631	0.044714157
15	0xc0336e74	-2.8036165
16	0xc0234401	-2.5510256
17	0xbf8c86bb	-1.0978616
18	0xc018582d	-2.3803818
19	0xc04532e3	-3.0812309
20	0xc0244b10	-2.5670815
21	0xbf894f92	-1.0727408

running_mean f4 [22]
0	0xc2727962	-60.618538
1	0xc2d58ca4	-106.77469
2	0xc2417b26	-48.370262
3	0x4331c182	177.75589
4	0xc34d56fc	-205.33978
5	0x42eb9e0c	117.808685
6	0x427d45c6	63.31814
7	0x4107a071	8.47667
8	0xc3327411	-178.45338
9	0xc383767f	-262.92575
10	0xc2e20f58	-113.02997
11	0xc2c87b4f	-100.24084
12	0xc33d5424	-189.32867
13	0x42988be9	76.27326
14	0xc05e5386	-3.4738479
15	0xc2f05517	-120.16619
16	0xc2b016a1	-88.0442
17	0xc2e0598d	-112.174904
18	0xc38d8969	-283.07352
19	0x416dc9e4	14.86179
20	0xc24a6c37	-50.60568
21	0xc2c1954c	-96.791595

running_var f4 [22]
0	0x46f6e868	31604.203
1	0x46ad9b42	22221.629
2	0x470b4852	35656.32
3	0x46a6aadd	21333.432
4	0x46c889db	25668.928
5	0x47403ba7	49211.652
6	0x46f1d2ca	30953.395
7	0x473cbc6a	48316.414
8	0x46f4d530	31338.594
9	0x4716855a	38533.35
10	0x46ca39c4	25884.883
11	0x4769c3bc	59843.734
12	0x4722f34d	41715.3
13	0x468169c3	16564.88
14	0x465f7a37	14302.554
15	0x4727004a	42752.29
16	0x4742758a	49781.54
17	0x46a0406b	20512.209
18	0x46e09b44	28749.633
19	0x469d1891	20108.283
20	0x46dbb5d7	28122.92
21	0x4711cbc9	37323.785
