model/tlstead.pt (torch, 119202 bytes, 56 tensors)

weight f4 [8, 3, 1]
00000000: 7497 8c41 8024 95bd 0dc2 c2be 1530 1342
00000010: ad8f 95bd e2a4 9bbb d4c5 6c3e 5d2d cdbe
00000020: 3b48 8941 e71b 89c1 0a69 f5bd ee8c d1be
00000030: 6760 e13e c3d3 3441 a2e5 ca3f 2a7f b4be
00000040: 2963 aabf 72a7 41c1 89a8 323e 908e 4a41
00000050: 5e2f 88bf b52d b7be cf3d eec1 d12c 58bf
17.573952 -0.072823524 -0.38038674 36.796955 -0.073027946 -0.00474988 0.2312234 -0.40073672
17.160269 -17.138624 -0.11982925 -0.40927833 0.44018862 11.3017 1.5851328 -0.35253268
-1.3311511 -12.10338 0.17447104 12.659805 -1.0639455 -0.3577706 -29.78018 -0.84443384

bias f4 [8]
00000000: 9c35 ddbd 932f ba3e 2b6e 9ebe 5d5f b8be
00000010: 6526 233e d1cd 94be 6ccb 5a3f ab09 d3be
-0.10801241 0.3636442 -0.30943426 -0.36010256 0.15932615 -0.29063275 0.8546665 -0.41218314

weight f4 [8]
00000000: 57b3 0840 d103 4f40 26cc 8c3f 7839 7b40
00000010: e0d2 8a3e 3ddd 8a3f f2c8 513f 6454 623f
2.135946 3.234608 1.0999801 3.9253826 0.2711401 1.0848767 0.81947243 0.8841002

bias f4 [8]
00000000: 7590 093f 26aa f83b a029 923e 2eb8 053f
00000010: e97f 403f e079 7a3e 418e f33c 8d44 643e
0.5373605 0.0075886426 0.28547382 0.5223416 0.75195175 0.24460554 0.029730918 0.22291775

running_mean f4 [8]
00000000: 6e7e e7bd ad34 b63e 8a48 7fbe 4a39 b7be
00000010: 5619 253e 0d3d aabe 01d0 583f 8cb8 cfbe
-0.113034114 0.35587063 -0.24930015 -0.35785896 0.16122946 -0.33249703 0.8469239 -0.40570486

running_var f4 [8]
00000000: eeda a143 444e b144 fc85 dd43 b915 9a43
00000010: 8679 4843 6d45 6043 f501 7643 fadc a944
323.7104 1418.4458 443.04675 308.1697 200.4747 224.2712 246.00764 1358.9055

weight f4 [11, 8, 7]
00000000: 7d70 6440 f0b3 f43f 0689 7340 0257 3b40
00000010: fed0 8fbf e269 1640 a081 9a3f 7750 493f
00000020: 6bde f0bf 9aca 7fbf 9195 dfbd e164 0d40
00000030: 80fe 0540 d684 f03f 32b2 923f 0c29 4f40
00000040: 704b 7540 31a0 f640 7e1e d740 1fec c140
00000050: 3afe 2840 e453 85bd 900f bfbf bbcc 68c0
00000060: 2107 e5bc da50 2840 371b fabe 23fb 96bf
00000070: 9e68 f33f 6f0f 0a40 5d99 4640 8e0f 8cbf
00000080: 8ff8 3cbf 93e6 6f40 4356 2dbf a316 5c40
00000090: 4855 6940 a33e 9740 51a6 b840 35e4 f33f
000000a0: d7dc 04c0 a668 35c0 f43f 4540 d714 6340
000000b0: d253 9a40 4f78 1641 cfba 2c41 02c1 0f41
000000c0: 9e90 9040 02a3 1ec0 36ba 783f 6ef5 fdbf
000000d0: 93e1 bf3f c45c 1440 2f89 143e 40b2 08c0
000000e0: f29a 65c0 36c7 9240 3e18 4440 43f3 fac0
000000f0: 7f43 1c40 a0ee da3f 72b9 19bf f753 05c0
00000100: a69e 8740 dc8b 2140 213d c5c0 a561 a43f
00000110: 996f 413d 9639 8e3e e083 92bf d2a3 b6be
00000120: 0155 a53f 88f6 993f c6f2 9a3e 58e8 27c0
00000130: 4883 853f db97 7040 a6de cac0 d919 b4bf
00000140: 0cfc 9540 ccaa b73e d359 2cbf 1532 c1be
00000150: d164 10c0 a290 a73f f8e7 0fbe e9e4 e6be
00000160: 6f7c d43f 6c7d 2f3e 4412 863e 0af0 bc3f
00000170: 4870 f3be f50f a5bf 8e1b 85bf 347e 37be
00000180: 2d7e 3b40 e54e b9bf cd4f 813e 40bc 0f3f
00000190: ebe7 b13e 998a b4bf 583d 96be d49a 85bd
000001a0: 7f0b 9a3e 54ef a7be fd46 a23d 01b0 35be
000001b0: a9e3 363f 6385 9e3e f028 57be 6322 81be
000001c0: 60cc bbbe 6bc4 2940 4b4f a6c0 4d2d 7040
000001d0: 07f7 1140 5146 a4c0 0c02 0640 9323 ebbe
000001e0: 55d7 0340 eb2f 4ec0 1567 db3f a14a b13f
000001f0: db07 4cc0 e0d2 d03f de32 0e3f c63a 86be
00000200: 98dc f8be c00d b6be e17b d7be 21b9 9f3f
00000210: 79dd c1be 6973 233f 4a47 78c0 ac55 ef40
00000220: 8562 b1c0 573b 9abf 1f0d 9940 785a 12c0
00000230: c01a edbf 4516 1640 385f 8bbf 40be 0440
00000240: 4864 0e3f 401d e5bf 25f9 2f3f 3efc cabe
00000250: 6f47 2abf 175f a03f 03a1 c23e 6082 a43f
00000260: 7b78 0fc0 9502 733e a8f1 643f 399f aa3f
00000270: e391 00c0 1b87 febf 7dd2 89be 99c7 ecbf
00000280: 5804 2840 5abf 98bf 79cb 7cbf 0603 0e40
00000290: 8e27 54be 5993 8a3e 8f77 d03f f3c0 eebf
000002a0: 4ee7 70c0 9891 953e 2985 3c40 2577 8640
000002b0: df5d c4be 3170 b9bf 0aa6 e6bf 52d5 6dc0
000002c0: a49f 5abe dd39 2b40 588c 9240 c5eb 873f
000002d0: 9ab8 bcbf 5267 3bc0 86c2 1c3f 897e 31be
000002e0: f10b 45bf 288b ebbe c80a 9f3e 2779 603f
000002f0: 666a 00bf f28a ac40 a7c7 f53e 716e 52c0
00000300: 517a e6c0 f221 26bf 48b0 d83f 7a41 6940
00000310: b941 e93e 2d4d 99be e570 ffbe bfe3 bebe
00000320: c434 a63e 3ab6 5f3f a840 253f 3262 28bf
00000330: 70f7 113e d24d 4b3f 7ab8 233f a0c5 4fbf
00000340: 9f94 67bf 32c9 2c3f 7374 9abd 556d dfbe
00000350: 2fb7 8bbe 6338 f43e d4af b03e a2da 84be
00000360: d341 2ebe 57ab 2a3c 3e27 3d3f 295b 153d
00000370: 9569 193e cf0f 99be dc30 c23d 7bd3 97be
00000380: 7d69 23c0 9361 fbbf 011c 68c0 2378 29c0
00000390: 6b08 7a3e 1ca0 a9bf b409 56bf 073d afbe
000003a0: da6a b93f 8ec1 6d3f ac4d 143e 0d6b febd
000003b0: 40f9 cbbe 6fd2 2ebf 023f dc3e 3478 053f
000003c0: bcdb 1b40 55ed 0b41 4b83 d640 3cf3 9540
000003d0: 8668 c140 937b 56bf c14d 943f dcee d23f
000003e0: 38f4 be3e 6bd4 64bf 661a 483f ac40 b93f
000003f0: d952 df3f 24b1 4b3f 3385 6540 a136 6140
3.5693657 1.9117413 3.8052382 2.9271855 -1.1235654 2.3502126 1.2070808 0.78638405
-1.8817877 -0.9991852 -0.109171994 2.2092822 2.0936584 1.8790538 1.1460631 3.2368803
3.8327293 7.7070546 6.722472 6.0600734 2.6405168 -0.065101415 -1.4926624 -3.6374958
-0.0279575 2.6299348 -0.48848888 -1.1795391 1.9016302 2.157192 3.1031106 -1.0942247
-0.7381677 3.7484481 -0.6770975 3.4388816 3.6458302 4.726396 5.7703023 1.9054018
-2.075979 -2.8345122 3.0820284 3.548147 4.822732 9.404372 10.795608 8.984621
4.5176535 -2.4786992 0.97159135 -1.9840524 1.4990715 2.318162 0.14505456 -2.1358795
-3.587582 4.5868177 3.0639796 -7.842195 2.4416196 1.7104073 -0.6004859 -2.0832498
4.2381163 2.5241613 -6.163712 1.2842299 0.04722557 0.2777831 -1.1446495 -0.3567186
1.2916566 1.202836 0.30263346 -2.6235561 1.0430689 3.7592685 -6.339679 -1.4070388
4.6870174 0.35872495 -0.6732456 -0.37733522 -2.2561533 1.3091013 -0.14053333 -0.4509652
1.6600474 0.17137688 0.2618581 1.4760754 -0.475466 -1.2895495 -1.0399034 -0.17919236
2.9295762 -1.4477202 0.25256196 0.5614662 0.34747252 -1.4104797 -0.29343677 -0.06523672
0.30086896 -0.3279978 0.07923696 -0.17742921 0.7144113 0.3096114 -0.2101171 -0.25221547
-0.36679363 2.6526134 -5.1971793 3.752765 2.2807024 -5.1335835 2.093875 -0.45925578
2.0600178 -3.2216747 1.7140833 1.38509 -3.1879795 1.6314354 0.5554637 -0.26216716
-0.486058 -0.35557365 -0.420867 1.2478372 -0.37864283 0.63847977 -3.8793511 7.479208
-5.5432763 -1.2049359 4.7828517 -2.2867718 -1.8523788 2.3451092 -1.0888433 2.074112
0.5562177 -1.7899551 0.6873954 -0.3964557 -0.6651525 1.2529019 0.38013467 1.2852287
-2.2417285 0.23731454 0.8943124 1.3329841 -2.0089042 -1.9884981 -0.26918402 -1.8498412
2.6252651 -1.1933396 -0.98747975 2.2189345 -0.20718214 0.27065542 1.6286486 -1.8652633
-3.7641177 0.29212642 2.9456275 4.202044 -0.38352868 -1.4487363 -1.8019421 -3.716145
-0.2134996 2.6754067 4.579632 1.0618826 -1.4743836 -2.9281812 0.6123432 -0.17333426
-0.76971346 -0.46004605 0.31062913 0.87684864 -0.5016235 5.391961 0.48003885 -3.2879908
-7.202431 -0.64895546 1.6928797 3.6446214 0.45557955 -0.29941693 -0.4989082 -0.3728313
0.32462132 0.8738743 0.6455178 -0.65774834 0.14254546 0.7941562 0.63953364 -0.81160927
-0.9046115 0.674945 -0.07541742 -0.436381 -0.27288195 0.4769927 0.34509146 -0.25948054
-0.17017297 0.010416827 0.73888004 0.03646389 0.14981683 -0.29894873 0.094819754 -0.29653534
-2.5533135 -1.9639152 -3.6267092 -2.6479576 0.24417274 -1.3251987 -0.83608556 -0.34226248
1.4485734 0.92873466 0.14482754 -0.12422762 -0.398386 -0.68289846 0.4301682 0.5213654
2.4352865 8.745442 6.703527 4.6859417 6.044009 -0.8378231 1.1586229 1.6479144
0.372957 -0.89386624 0.7816528 1.4472861 1.7447158 0.7956717 3.5862548 3.5189593

bias f4 [11]
00000000: c44c 55bc 92b6 77bd 2a93 df3d 1fc4 66bd
00000010: a328 013e 9399 863c 9bdd 18b9 a2d6 e73d
00000020: df08 04bd 3f6a 5bbe ff47 61bd
-0.013018791 -0.060476847 0.10916741 -0.05633938 0.12613158 0.016430652 -0.00014578404 0.11320235
-0.032235023 -0.21427248 -0.0550003

weight f4 [11]
00000000: 0450 7840 1f67 5140 5097 4740 575f c340
00000010: 99eb 6940 f03f ac40 0f1f 1640 9549 7940
00000020: 6795 aa40 8a31 2041 d3b8 8340
3.8798838 3.271919 3.1186104 6.105388 3.6550047 5.382805 2.3456457 3.895116
5.3307376 10.0120945 4.1163116

bias f4 [11]
00000000: 9628 9040 075b 7bbc 3eb2 1cbe a798 20ba
00000010: fb69 c140 f08e 53bd 9c8d ce40 cdc3 98be
00000020: b166 23bd 6c2d e7bd e779 423d
4.5049543 -0.015341527 -0.15302369 -0.00061262626 6.044187 -0.051649988 6.4547863 -0.29836884
-0.039892856 -0.112879604 0.047479536

running_mean f4 [11]
00000000: b77a 5442 f0a0 e03d 9602 953e 5e0a 663f
00000010: b5d3 3242 df6f 57bf 028d 41c2 a989 b5c1
00000020: a079 dcbd 9f3b 1cbe 824c 2ebf
53.11984 0.109681964 0.29103535 0.8985957 44.706745 -0.84155077 -48.387703 -22.692217
-0.10765386 -0.15257119 -0.6808549

running_var f4 [11]
00000000: 4152 0545 8ddc 5a43 bf4e 8c42 39e8 8944
00000010: fc9e c444 c6c2 ee43 a280 1545 2279 ea44
00000020: 2205 2344 4a40 1645 e50e 1f44
2133.1409 218.86153 70.1538 1103.257 1572.9683 477.52167 2392.0396 1875.7854
652.0802 2404.018 636.2327

weight f4 [16, 11, 7]
00000000: 00ce 6540 eb27 7640 d3ba a33f f2a2 e640
00000010: 08dc b540 a68b 8b40 932d b940 b20e 383e
00000020: 403a 023f 67a5 f33d 05d8 8e3f 3c82 a93f
00000030: fd1b a23f 49a7 ba3f 3d68 043f 098d b03e
00000040: 568f 243f 1364 bc3f 6c0a 8b3f 0f60 183f
00000050: 3bd3 ce3e e70b abbe 4119 bdbe 5e00 bc3b
00000060: 74ad 823f 8cc4 b43f 37c8 a63f e71e 683f
00000070: ce70 9940 a926 ab40 691d b440 8975 3b41
00000080: c1f6 0b41 d254 0641 c069 d640 c3e8 b43f
00000090: 7488 f73f f75f 4940 784f a940 afdc 7340
000000a0: e015 6940 af9a 1640 09e4 aebf ee59 08c0
000000b0: 907f 5dbf ffb5 a73f b101 1d40 27d8 4e40
000000c0: f049 f73f 03b4 9c40 457e 5c40 a708 b940
000000d0: 7a9d 3040 1b02 243f cd07 753f 76cf 8fbf
000000e0: 3ba1 843f 641b 983f a2f9 813f 060a 9540
000000f0: 0b77 7040 cd07 3f40 fb35 4640 c7c9 30bf
00000100: d4e9 5cbf 1f08 1bbf 4e16 edbc f7ee 0bbd
00000110: 0da9 613c 4ab5 82bd 9fe5 72bf c514 5ebf
00000120: f665 3340 858e f63f e070 4e3f 1b03 193f
00000130: 4dc2 9dbf 4ea7 3540 e6e4 5d40 ef1d 2940
00000140: 3935 1b40 1825 61c0 13a3 cfc0 f617 9dbf
00000150: 9d9a dd3f 6bf2 0140 fc52 e73e 7ca8 54c0
00000160: dc46 bbc0 ac6d 7bc0 c6dd b43f ff0e ac3f
00000170: 826d 0640 c24a 2d3f 9861 efbf bb1d 80bf
00000180: 30c2 643f 6050 983f 88a9 8e3f f84e cfbf
00000190: a805 a6c0 4940 13c1 7781 28c1 ada3 94c0
000001a0: 3c9d 07bc 2246 12c0 4e3d 06c0 9b1a 3cc0
000001b0: 249f 02bf a950 5c3f 815f a440 08c9 3940
000001c0: cd00 28be 68a3 6abf b91a fcbf 3104 78c0
000001d0: 32bd 80c0 887b 983b ab2a 333f c8a8 3b40
000001e0: 18cc d63e f4be 84c0 b732 6140 dc2f 8dbe
000001f0: 1ba6 27c0 781d 36c0 624e 633f 7178 443f
00000200: 5719 223f 6390 50bf 7861 a6bf e52e 143f
00000210: 2b4f 4abc 4f4a 5cbf ea51 cfbf ae58 45c0
00000220: 2ace 88c0 630f acc0 39e0 12c0 c82c ad3d
00000230: fc40 7ac0 f5d2 e3c0 8f85 1ec1 7414 59c1
00000240: d70a 22c1 1ec8 8bc0 55a9 24bf ee13 fa3d
00000250: 882e 14c0 94fa 54c0 0d4a b8bf 72d2 94bf
00000260: e2d4 0840 a91f 243f 67e5 b9c0 179c d9c0
00000270: 9657 653e cdab d240 6de4 8d40 dc89 043e
00000280: c0cb e9be ce81 cd3e 3779 a13e b802 423f
00000290: fb05 bd3d 0266 dcbc 7dde 823d 90f4 d93e
000002a0: 6bd6 673f 06ac 343e 9804 1bbe cf4e 4d3e
000002b0: f7d0 ba3e 5006 253e ffd4 ac3d e216 cdbe
000002c0: f098 47be 01b5 8bbd 3cc7 9ebe f55e 96be
000002d0: d2f3 47bc 3117 a1bd dfda 32c1 a568 d9c0
000002e0: 7ab1 9fbf 6185 1841 86f0 e040 7833 1040
000002f0: d351 92bf 806d 67c0 91f3 2ec0 3e41 fe3e
00000300: 1d9f 4440 3cf1 f43f 48b2 283f aab2 e0bd
00000310: c0bb 9d3e 2890 0f3f 2244 903f c442 b73f
00000320: d6fa 9dbd 04a9 93bd fa80 adbf 36e7 f7c0
00000330: 5d56 0fbf 70f8 9e3f 7ddc 7340 9749 d03f
00000340: 292f ca3d aae1 87bf e8be 84c0 d403 47c0
00000350: 5ab3 963d 79e0 5a40 a04f 0140 749c 013f
00000360: 370e a6bc bd51 0bbf 7639 8bbd 8a27 adbe
00000370: e85e 93bf aa0b 71bf 684c 25bf 5fa2 c6bb
00000380: 09e0 4c3f 50ed da3f 4302 ccbe a5b5 02c0
00000390: a38a c3bf 22da 7e3e 1fa2 b03e 58d2 51be
000003a0: 6cf8 3cbf 98a3 c8bf b12d bbbf e29d ebbf
000003b0: 0c13 f0bf 9bac eabf eb29 acbe 0c7d 36be
000003c0: 1a28 cbbe d8ea a7be 4c1a 4d3d c8ad 90be
000003d0: 3c4d 24bf 3df5 b63f 0c87 cb3f 0e7f 9b3f
000003e0: 4e48 0940 e59b a63f 4108 423f 45d6 a63f
000003f0: d422 a6bf 83ae e6bf 8369 04c0 8123 2bc0
3.5906982 3.8461864 1.2791389 7.207391 5.6831093 4.360797 5.7868133 0.17974356
0.5087013 0.11896782 1.1159674 1.3242869 1.2664791 1.4582301 0.51721555 0.344826
0.64281213 1.471804 1.0862556 0.59521574 0.4039553 -0.33407518 -0.3693333 0.0057373485
1.0209184 1.4122481 1.3029851 0.90672153 4.79502 5.3484693 5.62859 11.716195
8.747743 8.395708 6.700409 1.4133533 1.9338517 3.1464822 5.290951 3.8103445
3.6419601 2.3531911 -1.3663341 -2.1304889 -0.8652277 1.3102416 2.4532282 3.231943
1.9319439 4.896974 3.4452069 5.782306 2.7596116 0.6406571 0.9571503 -1.1235187
1.0361704 1.1883359 1.0154307 4.6574736 3.7572658 2.9848511 3.0970447 -0.6905789
-0.86294293 -0.60559267 -0.0289413 -0.03416344 0.013773215 -0.063822344 -0.94881624 -0.8675044
2.8030982 1.9262244 0.80640984 0.59770364 -1.2324921 2.8383365 3.4670959 2.642452
2.4251235 -3.517889 -6.4886565 -1.2272937 1.7312809 2.030421 0.451805 -3.3227835
-5.8524 -3.9285688 1.413018 1.3442076 2.1004338 0.67692196 -1.8701658 -1.0009073
0.89358807 1.1899529 1.1145487 -1.6195974 -5.1881905 -9.203195 -10.531608 -4.64498
-0.008277234 -2.2855306 -2.0974917 -2.9391239 -0.5102408 0.8606058 5.136658 2.902895
-0.16406555 -0.9165559 -1.9695655 -3.8752558 -4.023095 0.004653398 0.6998698 2.9321766
0.41952586 -4.1483097 3.5187204 -0.27575576 -2.6195133 -2.8455486 0.8879148 0.7674628
0.63319916 -0.81470317 -1.2998495 0.57884055 -0.012347977 -0.86050886 -1.6196873 -3.0835376
-4.2751665 -5.3768783 -2.2949355 0.08455807 -3.9102163 -7.1195016 -9.907607 -13.567493
-10.127646 -4.3681784 -0.6432088 0.122108325 -2.31534 -3.327794 -1.4397599 -1.1626723
2.1379933 0.6411081 -5.809253 -6.800304 0.22396693 6.583472 4.434134 0.12943214
-0.4566326 0.40138096 0.31537792 0.757854 0.09229656 -0.02690411 0.063900925 0.425694
0.9056155 0.17643747 -0.15138471 0.20049594 0.36487553 0.1611569 0.08439063 -0.4005652
-0.19491935 -0.06821633 -0.3101138 -0.2936932 -0.012204127 -0.078657515 -11.178435 -6.794024
-1.2476037 9.532563 7.029361 2.2531414 -1.1431221 -3.6160583 -2.733616 0.4965915
3.0722115 1.9136119 0.65897036 -0.109715775 0.30807304 0.5607934 1.1270792 1.431725
-0.07713859 -0.072099715 -1.3554986 -7.746974 -0.55991155 1.2419567 3.8103325 1.6272458
0.09872276 -1.0615742 -4.148304 -3.1096087 0.07358427 3.4199507 2.020485 0.50629354
-0.02027045 -0.544216 -0.06798069 -0.33819228 -1.1513338 -0.9415842 -0.6456971 -0.0060618366
0.8002935 1.7103672 -0.39845476 -2.0423367 -1.5276684 0.24887899 0.3449869 -0.20490396
-0.7381656 -1.5674925 -1.4623319 -1.8407557 -1.8755813 -1.8333925 -0.3362573 -0.17821139
-0.39679033 -0.3279636 0.050073907 -0.28257585 -0.6418035 1.4293591 1.5900588 1.2148149
2.1450381 1.3016325 0.75793844 1.303414 -1.2979379 -1.8022007 -2.06894 -2.674042

bias f4 [16]
00000000: 28f6 9d3d 9365 e2bd 73aa 1d3b f7c3 b9bc
00000010: 5a37 7fbd e1c5 413d 903b 81bc a6a2 d03d
00000020: 25d2 96bd 81d6 603d 7f67 d2bd 21bf 67bd
00000030: 21c0 ce3b 285a c63d 1378 6b3d dd1a c8bd
0.07712966 -0.1105453 0.0024057894 -0.022676451 -0.062308647 0.047307853 -0.015775472 0.10187273
-0.07364301 0.054892067 -0.102736466 -0.05657876 0.0063095246 0.09685165 0.05748756 -0.09770749

weight f4 [16]
00000000: 0f91 f03f 2b29 d240 8d17 8c3f 36fc 403f
00000010: 27c6 e23f 1104 a340 42b6 c13f f3b7 8e3f
00000020: bb85 a73f f635 ff3f 656b 8640 d87f 933f
00000030: e053 f43f 86b3 3240 2cc4 2740 8808 4640
1.8794268 6.5675254 1.0944687 0.75384843 1.7716721 5.0942464 1.5133746 1.1149887
1.3087686 1.9938343 4.2006097 1.152339 1.9088097 2.7922072 2.6213484 3.0942707

bias f4 [16]
00000000: 75e1 9ebf fe44 9cc0 bd12 5ebe c678 20be
00000010: 27dc 29bd 7496 a5c0 a77c 413f 6901 dd3f
00000020: dd04 b2be 17bb bcbf bd09 37bd e835 b4bf
00000030: 6957 823e 430e ffbf 651c 1340 192c 06c0
-1.2412554 -4.883422 -0.21686836 -0.15671071 -0.04146972 -5.174616 0.7558083 1.7266055
-0.34769335 -1.4744595 -0.04468702 -1.4078951 0.25457314 -1.9926227 2.298608 -2.0964415

running_mean f4 [16]
00000000: 6208 0f44 7a61 78c3 21ec 9cc1 80f1 92c3
00000010: 43e4 f441 7967 7f42 74b1 cbc1 d11e 86c2
00000020: 0f1e a7c2 9d79 7a43 de42 dec2 19e2 6243
00000030: 57d5 4140 6c39 9bc2 b31c 14c4 c903 b7c2
572.131 -248.38077 -19.615297 -293.88672 30.611456 63.851048 -25.461647 -67.06019
-83.55871 250.47505 -111.1306 226.8832 3.0286462 -77.61215 -592.4484 -91.50739

running_var f4 [16]
00000000: 5827 a947 6322 7047 e51d a245 c853 af45
00000010: aa25 f846 05a9 e346 b054 8046 73ca 6646
00000020: 0ac0 f145 ea6f be45 cfb5 1547 9c3d 9146
00000030: 9109 ec45 ec64 1046 cfb5 b247 c3cf 3446
86606.69 61474.387 5187.737 5610.4727 31762.832 29140.51 16426.344 14770.612
7736.005 6093.9893 38325.81 18590.805 7553.196 9241.23 91499.62 11571.94

weight f4 [22, 16, 7]
00000000: 8db6 5d40 2c7e bd3f e7bf 5240 4fbe b6bf
00000010: 0fd0 b4bf e0a5 adbf d839 66bf 39f3 ccc0
00000020: 027c a6c0 ee98 84c0 288d 2740 be7c 7840
00000030: c12f 9440 6691 fb3f 7f97 82be bad6 2140
00000040: 09f0 7b3e 5ef9 c63f 1fe0 62bf cf7c 18c0
00000050: d2d4 2340 d603 523f cefb cd3f 1b8a c93f
00000060: bc4d 1b40 613e 1140 a09c 993f 669c 87bf
00000070: 6d36 7a3f b3d6 103e 6677 2bbf c1d7 88c0
00000080: 685e 39c0 6e4c febf ac01 8f3f 6d6a 4e40
00000090: 0ea3 6240 b421 ac40 458e 0a41 5d0c 4341
000000a0: 763b 9f40 d94b ca40 d461 c23f e33b b53f
000000b0: 6c4f 8a3f 5e0a c040 96a6 6240 dd92 3e40
000000c0: 78ae 643f 74f7 0bbf 7e24 15c0 d5d2 0bc0
000000d0: e929 a8c0 9f63 adc0 b9a3 75c0 6e39 00bf
000000e0: 1793 0040 5af6 533d 036a b2bd 5729 bd3f
000000f0: 9473 53c0 5226 f73f 5fd2 3740 772a c4bf
00000100: cd6e 19bf 54b2 e03b c8dd 6140 f73b 0740
00000110: 1f8c 0840 339a 9abf 1d2b 30c0 935d 84bf
00000120: 274a 70bf 6935 3840 6f42 cd3f 6be3 653f
00000130: d07b 25bf c2cc 90bf 3e12 16c0 395d 87bf
00000140: 2e87 0cbe aa75 503f 9bab 493f 9ec8 093f
00000150: c3e9 33c0 3684 71c0 5199 8cc0 564b 12c0
00000160: 1f1a 08bf 7e01 f03f ed29 653d 3d31 a73e
00000170: 1d43 fc3e 9869 25c0 ae2a debf 08b0 1ebf
00000180: 38fe aa3f 2019 963f ada9 a8c0 5411 51c0
00000190: 5764 8cc0 af79 553f 6dbb bb3f 6103 4a40
000001a0: a44c 1440 c6a9 be3e 1367 12c0 6e11 81c0
000001b0: 5ad8 d7be c3c2 adbd c786 a4bf 314d 8d3f
000001c0: fc72 133f fad4 e3bf f7fa 2fc0 70e5 94c0
000001d0: 91b1 2dbf a948 0abe a898 8140 bfda 80c0
000001e0: 3760 1dc0 aab9 03bf 127f 31c1 fcda 14c0
000001f0: abe0 f3bf c965 343e f2cf 2cbf de7c 213f
00000200: 0798 9cbf b15d 8940 9466 083e d4d8 1d40
00000210: 5134 8c40 eaeb 20bf 3658 843f 4893 2a40
00000220: 57bf 6abe 5be4 56bf cb0a babf f1b1 82c0
00000230: 5ba8 8e40 cbd3 0a40 7d14 3e3f 4211 11c0
00000240: 0262 a2c0 ed2d 7bc0 2907 4bbf 6016 01bf
00000250: 7ab9 f440 a920 2141 e2fe ce40 82f9 06c1
00000260: ccfe 89bf fb8d fc3f 642f 713f ffac 73bf
00000270: 00dd a8bf f62e ef3d 9a95 463f ae49 0e40
00000280: 4a0e 7f3f 21a6 00bf f60b 43c0 618a 5bc0
00000290: d17d 2bbd ab39 b63f 71e4 2540 e37f b040
000002a0: 29d8 87bf 7df8 c2bf 8f65 3c40 6e64 1440
000002b0: b8fe 873f d21c 2840 e20e b53f 9f4e c1bf
000002c0: 8763 933d d27e 1640 ca54 443f 30bb 8a3f
000002d0: 20af be3e 3e37 19c0 d46f 93c0 5010 56c0
000002e0: deb2 3ec0 e6d4 66bd e1e6 1c40 5e4c 2940
000002f0: 8517 5a3f f879 fb3f f923 343e 866e aa3e
00000300: d237 2740 c61c 3040 1f63 8f40 1c15 8540
00000310: ab85 b03e e513 ff3f ac10 9740 77de cc3f
00000320: 0f38 0cbf 6aa9 0fc0 6d92 a2c0 59b9 2f40
00000330: 9c06 a240 c445 1c40 1aa7 153f 7735 c1c0
00000340: 406c 86c0 eada 373f d50a 64c0 4308 583e
00000350: 974a 1340 bf4c b53f 8e38 edbf a75f 36c0
00000360: 45af 02c1 7b33 7140 972b 7840 6e76 16bd
00000370: 8eec 74c0 fb6e 98c0 d59d 38c0 6a80 d53f
00000380: 7f93 e33f e0f1 be3f b880 9d3f 7e91 7b3e
00000390: 67d9 bdbe c3fc 41bf e334 2ebf 4821 2142
000003a0: f222 0641 2e1c 1b40 f503 8d3f 5792 16bf
000003b0: 1728 b6bf 7060 59c0 b695 773e 60c3 cebd
000003c0: d30f 2abf 4f72 67be 8d14 b1bf 4ab3 56bf
000003d0: f20f 42be 8b8b 06bf dd43 08c0 f996 a4bf
000003e0: e1ca 44bf e958 993c f70f 223e 7780 cb3c
000003f0: d801 633f 1ab4 28c0 c1f8 70be 8473 81bc
3.464267 1.480413 3.2929628 -1.4276828 -1.4125994 -1.3566246 -0.8993201 -6.4046903
-5.2026377 -4.143668 2.6179905 3.8826137 4.6308293 1.9653747 -0.25506207 2.5287309
0.24603285 1.5544851 -0.8862323 -2.3826177 2.5598645 0.82037103 1.609247 1.5745271
2.4266195 2.2694323 1.2000923 -1.0594604 0.977393 0.14144401 -0.6697906 -4.276337
-2.896387 -1.9867074 1.1172385 3.2252457 3.541202 5.379114 8.659734 12.190518
4.9760084 6.3217587 1.5186105 1.4158901 1.0805488 6.0012655 3.5414176 2.9777138
0.8932872 -0.5467446 -2.3303523 -2.1847432 -5.255116 -5.418411 -3.8381178 -0.5008763
2.0089777 0.05174861 -0.087116264 1.4778241 -3.3039293 1.930857 2.872215 -1.5325459
-0.59934694 0.006857196 3.5291615 2.113035 2.1335523 -1.2078308 -2.7526314 -1.0341057
-0.9386315 2.87826 1.6035899 0.8980014 -0.6464205 -1.1312487 -2.3448634 -1.0575324
-0.13723442 0.8142954 0.78777474 0.5382174 -2.8111427 -3.7736945 -4.3937154 -2.2858481
-0.5316486 1.8750455 0.055948187 0.32654753 0.49269953 -2.58457 -1.7356775 -0.6198735
1.3358831 1.1726418 -5.2707124 -3.2666826 -4.3872485 0.833888 1.4666573 3.1564562
2.3171778 0.37238902 -2.2875412 -4.0333776 -0.4215725 -0.084844135 -1.2853631 1.1039182
0.5759733 -1.779937 -2.7496927 -4.6530075 -0.6784907 -0.1350428 4.049885 -4.0267024
-2.4589975 -0.51455176 -11.093523 -2.3258657 -1.9052938 0.17616953 -0.675048 0.6308116
-1.2233895 4.292687 0.1332038 2.4663591 4.3813863 -0.62859976 1.033942 2.6652393
-0.22924553 -0.8394219 -1.4534544 -4.0842214 4.458051 2.1691768 0.7425001 -2.2666783
-5.074464 -3.924678 -0.793078 -0.50424767 7.647641 10.070474 6.4686136 -8.435915
-1.0780883 1.9730829 0.9421294 -0.95185846 -1.3192444 0.11678879 0.77572024 2.223247
0.9963118 -0.5025349 -3.047605 -3.430321 -0.041868035 1.4236349 2.592068 5.515611
-1.0612842 -1.5232083 2.9436986 2.3186297 1.0624609 2.626759 1.4145167 -1.5102118
0.07196718 2.3514905 0.7669188 1.0838375 0.37242985 -2.3939967 -4.607401 -3.3447456
-2.9796672 -0.05635538 2.4515917 2.645286 0.8519214 1.9646597 0.17591847 0.33287448
2.612782 2.7517562 4.4808497 4.158827 0.3447698 1.9927946 4.720785 1.6005391
-0.5477304 -2.2447152 -5.0803742 2.7456877 5.063307 2.4417582 0.584581 -6.0377765
-4.200714 0.7181841 -3.5631611 0.21096902 2.3014276 1.4164046 -1.8532884 -2.8495882
-8.16779 3.768767 3.8776605 -0.036734037 -3.8269382 -4.7635474 -2.8846333 1.6679814
1.7779387 1.4917564 1.2304907 0.2456722 -0.37079927 -0.7577631 -0.6804945 40.2825
8.383532 2.423595 1.1016833 -0.58817047 -1.4230984 -3.396511 0.24178204 -0.100958586
-0.66430396 -0.22602199 -1.3834397 -0.83867323 -0.18951395 -0.52556676 -2.129142 -1.2858573
-0.7687207 0.018719153 0.15826403 0.02484153 0.8867469 -2.6359925 -0.23532392 -0.015802152

bias f4 [22]
00000000: 31b7 0ebd cbb6 b0bd cda5 893c 2eeb 97bd
00000010: b8c2 193d d53f 813d 9cb6 8fbd 7e04 45bd
00000020: 18dc 97bd da1d ac3c 2f9e 703c 453c 42bd
00000030: b693 7c3d eadc 223d 7e44 b2bd bd4d 0ebc
00000040: d635 1ebd e77c 97bc 1a73 663d 6634 33bc
00000050: 354a 82bd 5ec6 823d
-0.034842674 -0.08628615 0.016802693 -0.07417904 0.037539214 0.06311003 -0.07017252 -0.048099987
-0.074150264 0.021010328 0.014686151 -0.04742076 0.061664306 0.03976146 -0.0870447 -0.008685526
-0.03862556 -0.018492175 0.056262113 -0.010937786 -0.0636181 0.06385492

weight f4 [22]
00000000: e9df b93f 4657 8e3f 3a69 8340 7267 dd3f
00000010: 28b1 aa40 99e1 e23f 0edd d83f 6e86 e63f
00000020: 9b9c 1c40 10ce 3540 6d6e d83f 6639 3240
00000030: 470d 3d40 ad94 0340 dd32 0740 3b6f 2340
00000040: abb5 6940 4476 b73f e9e5 e53f acbf f33f
00000050: 329a de3f b8d7 0c40
1.4521457 1.1120384 4.106595 1.7297194 5.3341255 1.7725097 1.694246 1.8009775
2.4470584 2.840702 1.6908699 2.7847533 2.9539354 2.0559494 2.1124794 2.553664
3.6517131 1.4332967 1.7960788 1.9042869 1.7390807 2.2006664

bias f4 [22]
00000000: cc41 883f ec69 9d3f 4d49 18c1 91e4 1140
00000010: fa98 81c0 2b97 bcbd d0bc 8dbf b7c6 313e
00000020: 8a44 9bbe c433 1bc0 296f b7bf 0d73 3b3f
00000030: 8021 a8c0 6f8a 0bbf 26cc f8be 5b45 ce40
00000040: f726 9840 d80f 1cbf bdee 81bf ee36 cf3f
00000050: 167a 23bf ef33 fabf
1.064508 1.229795 -9.517896 2.2795756 -4.049924 -0.092085205 -1.1073246 0.1736096
-0.3032573 -2.4250345 -1.4330798 0.7322243 -5.2540894 -0.5450811 -0.48593253 6.4459662
4.7547565 -0.60961676 -1.0150982 1.6188638 -0.63858163 -1.9547099

running_mean f4 [22]
00000000: f2f4 1ec2 1313 0ac2 2b7d 00c2 feaf 3740
00000010: 9074 dd42 b5a4 7ec1 8fb3 68c1 2fa5 6842
00000020: 6e93 6742 32c6 86bf e4e8 4ec1 a967 81c2
00000030: 5680 72c2 d95a a0bf 3214 d5c2 2533 e0c1
00000040: d3e2 d4c1 f179 16c1 4a97 c3c1 307e 9fc1
00000050: 80ae 55c1 639c 49bf
-39.739204 -34.518627 -32.122234 2.8701167 110.72766 -15.915212 -14.543838 58.161312
57.893974 -1.0529234 -12.931858 -64.70246 -60.625328 -1.2527725 -106.539444 -28.024973
-26.610754 -9.404771 -24.448872 -19.936615 -13.355103 -0.7875425

running_var f4 [22]
00000000: 09e1 3d44 c01b 5044 d5de 5243 a891 fa43
00000010: 09e8 9a45 b808 a644 1c18 f743 6b66 f143
00000020: ad4f bc44 4e70 a843 0571 7943 588a 8544
00000030: d63a a743 fbff 0a44 9959 3a45 3b3d b544
00000040: caff a145 0c95 6a43 41c3 0a44 01e4 9544
00000050: 677d c943 e6d9 2f43
759.5162 832.4336 210.87044 501.13794 4957.0044 1328.2725 494.18835 482.80014
1506.4899 336.87738 249.44148 1068.3232 334.45966 555.9997 2981.5999 1449.9135
5183.9736 234.58221 555.05084 1199.1251 402.9797 175.85117

weight f4 [32, 22, 7]
00000000: f19a 9abf 72bc 5ac0 774f 89c0 dfa0 01c0
00000010: bf56 d63f 266d bb3e fed5 97bf 6a48 d8bf
00000020: f7dc 61be 0c2a 913b 57c3 55bf 04fa 8c3f
00000030: df98 4f40 3e5d 3fbf bf63 4841 f387 7f40
00000040: a073 6840 9205 51c1 e25e 983e ebc9 72c0
00000050: 1c87 6f3f ac65 2a3e 97dc 8abf 1531 eebf
00000060: 3c56 20c0 9e5f 7cbe cba8 ccbf 73bd a9bf
00000070: ad13 aac0 2d16 f93f 99e4 b640 c090 5840
00000080: 3a0d fabf 8c35 d93d 11a6 e0c0 d8ab be3f
00000090: 4a24 1cc0 44d6 17bf 34c7 3b40 bddb 1ec0
000000a0: f76f 29c0 0712 e3bf e426 bdbf fd46 d0bf
000000b0: 6138 6e3f 4f02 6240 370e 2340 41e4 1d40
000000c0: 7ef3 b7c0 fe50 e4bf 2f02 49c0 51e0 8940
000000d0: b87d a540 3798 fe3f c467 69be 2b74 043f
000000e0: 3292 1a40 146e ae40 575e a740 1e45 4340
000000f0: 5c2f a63e 6194 13bf 9537 01c0 f3b3 25be
00000100: 3ec2 3fbf 587f 1ec0 7c7c fb3f d15d 133f
00000110: dbf7 4d3f 762a 1ec0 5425 63be 9a19 02c0
00000120: 32bb a2be bd3b 823f 5059 5640 a455 143f
00000130: 9eef a7c0 c250 9840 e52f a040 a1aa 4a3f
00000140: b5cd e53e cc6a 2dc0 f860 83c0 255c febf
00000150: d259 9940 279b 8d40 e7de 58bf fa68 34c0
00000160: 834b e1bf 2ea7 3340 ba35 fd40 6af9 04c0
00000170: 0f79 0740 e6d9 b53f d657 a240 a22c 9940
00000180: 16a3 b740 5d32 3abf 68a9 36c0 2c3b 28c0
00000190: 2b9b aebf 665a 923f 32ba 7440 a616 9240
000001a0: 3e73 3b40 6347 ca3f caf9 a9bf b5b7 10bf
000001b0: 6b0d 0ac0 e098 cd3f 740a db3f d884 6abf
000001c0: 0716 a53e dd32 a8bf a95e 70bf ca8a 16c0
000001d0: 8836 da3e 0f66 1740 00b9 78c0 9624 acbf
000001e0: 8544 e33e a311 3640 bc19 3340 8784 e63f
000001f0: 542d b8c0 579e 83c0 4722 353f 4853 c63f
00000200: 83b4 4140 99f3 ee3f df05 aa40 0b79 57c0
00000210: 603c 10c0 c826 243f 2b21 1c3f a4e7 f33f
00000220: ad8a 3440 d5e6 653f eaf1 3340 6059 2c40
00000230: 232a 18be bac4 5ebf b849 d53f b19c 3040
00000240: e2de 4140 f36d b1bf e225 3dc0 08e6 b7bf
00000250: 43ad 1ac0 9c87 0bbe 370d 123f 3fc6 d93f
00000260: 043a 2a3f 3ef6 b1c0 ba91 be3f de6b 15be
00000270: 35c4 af3f e9b0 3640 5d89 3d40 93fb 5640
00000280: 3cae c33f 056e 8bc0 74f2 87c0 b37c a8c0
00000290: 9726 67c0 fbf4 3fc0 5d86 5ac0 11dc efbf
000002a0: 0776 16c0 810f e1c0 d177 f2c0 ab7b 05c1
000002b0: 2b0a b3c0 89fd 9440 6d4d 72c0 9981 4a40
000002c0: e8a4 c8be f8f9 b3bf f323 23c0 6637 36c0
000002d0: 95cd 0fc0 0c71 41c0 aabc a83f d1c5 ed3f
000002e0: d6e4 efbf 806b 02c0 2ff4 5cbe 4ec0 59c0
000002f0: 27e0 eebf 23ad 06bf 8488 47c0 41e6 1bc0
00000300: a285 28c0 64f5 0dc0 eb87 2bc0 da39 75bf
00000310: b2ae c83e 7433 aa3e 617d 8b3f 8b86 3740
00000320: 363f 2240 f96c d23f 8120 2e40 313a f93f
00000330: a6ea a4bf 32f4 e5bf ebea e5bf 15b8 5fbf
00000340: ff2a 36bd ba77 76be fd02 68c0 865b 9ec0
00000350: c037 6bc0 6dc1 ce3e b6b3 733f b1af ee3f
00000360: 4362 0240 0230 cdbf 0988 b8bf 3c21 4fbf
00000370: 18ee d63f 064a 1140 e37d 8e40 6d6d 8140
00000380: 34fd 693f a3dd 57bf ce84 f33d 8ec9 cf3f
00000390: 67d6 7e40 2fb3 6c40 6c24 1c40 26a6 b33d
000003a0: 6864 aabf 0aaa 15c0 031b 1abf 615b 23c0
000003b0: dae3 03c0 444d 933f 359e dd3e c8f7 1abf
000003c0: cd11 bfbf 4230 7fc0 82bd 88c0 9fe0 2cc0
000003d0: 8fb8 70c0 b8d9 1c40 a4a9 8740 27cb 3b40
000003e0: 250d 8340 b625 a040 c65e ac40 0122 dd40
000003f0: e00c 4f3d 0966 90bf a225 a1bc df96 64bf
-1.2078534 -3.4177518 -4.2909503 -2.0254438 1.6745223 0.3660671 -1.186218 -1.6897099
-0.22056948 0.004430061 -0.8350119 1.1013799 3.2437055 -0.7475165 12.524352 3.9926727
3.6320572 -13.06386 0.2975989 -3.793574 0.93565536 0.16640347 -1.0848569 -1.8608729
-2.5052633 -0.2464585 -1.5989012 -1.326094 -5.314902 1.9459893 5.715405 3.3838348
-1.9535286 0.106059164 -7.020272 1.4896193 -2.439715 -0.5931132 2.9340334 -2.4821618
-2.6474588 -1.7739877 -1.4777493 -1.6271664 0.9305478 3.531391 2.5477426 2.4670565
-5.748473 -1.7837217 -3.1407583 4.3086324 5.1715965 1.9890202 -0.2279349 0.5173976
2.415173 5.4509373 5.230266 3.0510936 0.32458007 -0.57648283 -2.0190175 -0.16181926
-0.74905765 -2.4765224 1.9647365 0.5756503 0.8045632 -2.4713416 -0.22182208 -2.0328126
-0.31783444 1.0174481 3.3492012 0.5794318 -5.248 4.759858 5.0058465 0.7916661
0.44883505 -2.7096434 -4.105587 -1.987187 4.7922144 4.4251895 -0.8471512 -2.8189073
-1.7601169 2.8070788 7.9128084 -2.077723 2.1167638 1.4207122 5.073222 4.7866983
5.738658 -0.727331 -2.8540897 -2.6286116 -1.3641104 1.1433837 3.8238645 4.5652647
2.9289088 1.5803035 -1.3279355 -0.56530315 -2.157069 1.6062279 1.7112565 -0.91608953
0.32243368 -1.3140522 -0.9389444 -2.352221 0.4261973 2.3656042 -3.8862915 -1.3448665
0.44388214 2.8448265 2.7984457 1.8009194 -5.755533 -4.1130786 0.7075543 1.5494165
3.0266426 1.866809 5.3132167 -3.3667629 -2.253685 0.64121675 0.6098811 1.9055066
2.820964 0.89805347 2.8116403 2.692955 -0.14859824 -0.8701893 1.6663122 2.7595637
3.0292287 -1.3861679 -2.9554372 -1.4367075 -2.416825 -0.1362595 0.57051414 1.7013625
0.66494775 -5.561309 1.4888222 -0.1459193 1.3731753 2.8545477 2.961509 3.3591049
1.5287547 -4.35718 -4.2483463 -5.265222 -3.6117303 -2.9993274 -3.414451 -1.8739034
-2.3509538 -7.0331426 -7.577126 -8.342692 -5.594991 4.655949 -3.7859757 3.16416
-0.39188313 -1.406066 -2.5490692 -2.8471313 -2.2469227 -3.0225248 1.3182576 1.8575994
-1.874171 -2.0378113 -0.21577524 -3.4023623 -1.8662156 -0.52607936 -3.1177073 -2.4359286
-2.6331563 -2.2181025 -2.6801708 -0.957914 0.39195782 0.3324238 1.0897638 2.8675869
2.535108 1.6439506 2.720734 1.9470884 -1.2884109 -1.7965147 -1.7962316 -0.8739026
-0.044474598 -0.2406911 -3.6251824 -4.9486723 -3.6752777 0.40381947 0.9519609 1.8647367
2.0372474 -1.6030276 -1.4416515 -0.80910087 1.679141 2.270143 4.452867 4.0446076
0.9140198 -0.84322566 0.11890565 1.6233385 3.981836 3.6984365 2.439723 0.08771925
-1.3311892 -2.3385034 -0.60197467 -2.5524523 -2.060782 1.1507955 0.43284765 -0.60534334
-1.4927307 -3.9873204 -4.2731333 -2.7012098 -3.7612646 2.4507885 4.239458 2.9342744
4.0953546 5.0046034 5.386569 6.910401 0.050549388 -1.1281139 -0.019671265 -0.8929271

bias f4 [32]
00000000: 2b06 523d 3e18 083d 3fb3 5abd afa1 a23d
00000010: 3634 9dbd 9e7d 67bd 8e76 46bd 29c7 b2bc
00000020: dcf5 0f3d 8341 853c c36d 8ebd b000 a03d
00000030: f903 9c3d 52c3 1f3d 4ea1 a0bd 4b09 3c3d
00000040: 6234 c13c a4a7 1cbc 36bd 88bd ee0a 8b3d
00000050: 170e c6bc dac9 88bd 19dd 7c3d 9361 fc3c
00000060: a712 c73c cf50 563d 6eeb e23c 7146 8ebc
00000070: c16c 66bc 1360 883d 90c7 25bb e42f 89bd
0.051275413 0.033226244 -0.0533936 0.07940995 -0.07675974 -0.056516282 -0.048452906 -0.021823483
0.03514658 0.01626659 -0.06954529 0.07812631 0.07617945 0.03900463 -0.078432664 0.0459073
0.023584548 -0.009561453 -0.06676714 0.06789194 -0.02417664 -0.06679125 0.061734293 0.030808246
0.024300886 0.05232316 0.027700152 -0.017367573 -0.014064015 0.0665895 -0.002529595 -0.066985875

weight f4 [32]
00000000: 05f1 4640 c7b1 c03f ce8e 0940 1e6a 9140
00000010: 5a97 5a40 5fab 3c40 feb4 0e40 9533 8e40
00000020: be56 3a40 9815 5640 d26b 8040 6c90 d240
00000030: b2a1 2c40 c5d1 3140 66c2 6d40 a6f3 4140
00000040: 53db 6d40 8ea3 3540 6b1d ac40 9755 4140
00000050: 822f 3940 f47e 7240 2601 2c40 06ac ac40
00000060: cb92 2c40 0741 4740 32f5 1440 d557 5d40
00000070: 081e 7740 446e 6140 0227 4340 b312 2a40
3.1084607 1.5054253 2.149341 4.5442038 3.4154878 2.9479597 2.229797 4.4437966
2.9115443 3.345068 4.0131617 6.5801296 2.697369 2.7784283 3.7149901 3.0304961
3.7165115 2.8381076 5.378591 3.020849 2.8935246 3.7889986 2.68757 5.395999
2.6964595 3.113344 2.3274655 3.4584858 3.861208 3.522355 3.0492558 2.6573913

bias f4 [32]
00000000: 73f9 82bf d8be 8e3f bf95 e23e fe29 3740
00000010: 97ed 81be 4bfd b9be 2c23 f13d 2ad9 863f
00000020: b727 823e 4e44 55bf d911 dabf ea40 4840
00000030: 586d c03f f81b a7bf 51fc 07c0 a0af b83f
00000040: 29c6 b6c0 4aee 863f 8ec1 0240 9884 2bbf
00000050: 49fd b53d 2cc8 4cc0 9a72 03bf 8452 a2c0
00000060: 112e 2b3f b132 9bbf 070b fd3f 305c f63f
00000070: 396b 25c0 cdea db3d 3127 813f 61a5 493e
-1.0232376 1.1151991 0.44254872 2.861938 -0.2537658 -0.3632606 0.11774287 1.0535023
0.25420925 -0.8330735 -1.7036697 3.128962 1.5033369 -1.305541 -2.1247752 1.4428596
-5.7116895 1.054147 2.0430636 -0.66999197 0.08886201 -3.1997175 -0.51346743 -5.0725727
0.66867167 -1.2124845 1.976899 1.9246883 -2.5846694 0.10738144 1.0090085 0.19691993

running_mean f4 [32]
00000000: 392a 05c1 9ae1 98c2 84cd 2b42 b251 963f
00000010: 1e59 8a40 895f aec1 4c67 98c1 5dd2 01c2
00000020: 97b8 8fbf 11de dfc1 e4db 30c2 d1d9 8441
00000030: 06f6 21c1 24ec 7ac1 d04a 14c2 a59b f5c1
00000040: c67c 7ec2 f298 2a42 a9ce 4642 4a2c 90c1
00000050: 1a28 7641 94d8 04c2 48f2 a8c1 5115 cb40
00000060: fe91 46bf 4d81 4b42 41c4 e7c1 5e66 c0c1
00000070: 1e32 fec1 d8ec 61c1 0082 1542 ec76 5ac2
-8.322808 -76.44063 42.9507 1.1743681 4.3233786 -21.796648 -19.050438 -32.455433
-1.1228207 -27.98343 -44.214737 16.606356 -10.122564 -15.6826515 -37.07306 -30.700998
-63.62185 42.64936 49.701817 -18.021626 15.38479 -33.211502 -21.118301 6.346352
-0.77566516 50.87627 -28.970827 -24.049984 -31.774471 -14.120323 37.376953 -54.616135

running_var f4 [32]
00000000: 1758 2b45 2300 b044 a53f 8e44 381b 3e45
00000010: 88da 3d45 d08f 4645 735a bf44 6fb8 b145
00000020: 081a 0145 d5bc 3045 8d3e 4b45 65c3 3f45
00000030: 308b fb44 235d 7d44 c5d8 1445 a48b 7e45
00000040: e4b5 3245 5cd3 3345 fc41 4f45 1ea8 0c45
00000050: faf8 ab44 4eff 1745 f75d fd44 1f7a e944
00000060: 9a96 f044 2ff9 b144 a6c2 b244 7f67 6a45
00000070: 1813 d244 6fb3 0e45 18df 5e45 9dbc 5845
2741.5056 1408.0043 1137.9889 3041.7012 3037.6582 3176.9883 1530.8265 5687.054
2065.627 2827.802 3251.9094 3068.2122 2012.3496 1013.45526 2381.548 4072.7275
2859.3682 2877.21 3316.124 2250.5073 1375.7805 2431.9565 2026.9364 1867.8163
1924.7063 1423.787 1430.0828 3750.4685 1680.5967 2283.2146 3565.9434 3467.7883

weight f4 [32, 22, 7]
00000000: 4605 1ebe e6b3 a83f 5e9d d0bd 88c4 ae40
00000010: 65e6 1340 8eac 27c0 8112 89be 87ef 16c0
00000020: 3629 dfbf c92b 3e40 c30f 9340 ea8c eebe
00000030: 1860 8ebf f662 6140 5403 2d40 56f3 6a3f
00000040: 8ed4 4e40 4e7a 8f3d f04c 88bf 56a2 50be
00000050: 351f 2940 74d4 d33f 1861 803f 90dd 9c3f
00000060: 20db 893f 75d4 2840 372e f4bf 89cd 0bc0
00000070: f6df 8dbf c392 083f 13e3 1f40 9fcb 8f3f
00000080: 8c9f fe3f f382 78c0 d8cd 21c0 897b 9340
00000090: 0b97 9b40 3e6a 8a40 8587 943f ab77 0e40
000000a0: 1551 e73e 8902 b93f 5309 10c1 bd28 74bf
000000b0: 7cca 0f3f 9f68 0f3f bf34 a2bf 2145 8a3f
000000c0: 488d a93d 62a9 8d40 3cc1 10c0 9cd5 b140
000000d0: a055 2dc0 2cb3 9640 b048 48c1 ad95 1c40
000000e0: 9dbd 3ec0 0576 3dc0 3721 1840 472f 9dbf
000000f0: 3e35 88c0 12b0 6140 9ed8 803f a311 87c0
00000100: c210 a1be ee7b 7ac0 a122 05c0 0df4 b83f
00000110: c022 4ec0 3a1e f5c0 6aa5 493f 6f04 fd3f
00000120: 2cca cf3f 29bc 12c0 60b2 aec0 1b68 3fc0
00000130: f287 483f 7b45 b73f bcd7 133f 641f 9a3f
00000140: 05d6 3fc0 6d99 4740 3b82 1f40 5667 1940
00000150: e691 9b3f 4980 b6bf 6e6c 8fc0 ac9c 223e
00000160: 39ba 5540 5133 babf 8492 07c1 409d ebbf
00000170: 34a2 90bf 42fe 20c0 8136 ac3f 3280 a3c0
00000180: 2b68 d7c0 1b35 8240 a119 39c0 9359 cb3f
00000190: cc61 f3be 0dee 8abf 139c 1ac0 798a dc40
000001a0: 5437 81c0 5387 0e40 a579 f53f 028d 6840
000001b0: e97f 6f40 0041 9dbe 6874 b33e d15d 7dc0
000001c0: 950d 01be f387 0440 4c5c 1840 dbc2 07c0
000001d0: 0df4 3fc0 8f37 5c40 60a9 1440 ad88 453f
000001e0: 84f3 3140 03ed af3f 155d 2340 9ea0 3dc0
000001f0: 5054 bc3f 45ff 83c0 0e43 8040 1095 5140
00000200: 4826 82c0 c439 08c0 6aed ddbe 6ffc 27bf
00000210: 6f33 3cbf 04d2 f0bf 8ecb 2b40 98b4 db3f
00000220: 1be3 bfbe 3330 073f d7d2 2140 6b8a 23c1
00000230: 7e79 af3e de70 e63f 95db 223f c37d 21c0
00000240: 9095 0dc0 cd92 9540 8cb0 a140 e1ae 3d40
00000250: ea10 c43f 0243 bf3f 18d5 24c0 4009 2d40
00000260: 63b2 2541 5d8f 8140 6747 0040 987b d5bf
00000270: 6bc3 38c0 7072 d8bf dc06 15bf 1154 863f
00000280: 2ed9 6bbf 7bd0 9bbd 821f c1c0 bfc6 883f
00000290: b66c 11c0 e33a 813f 30b3 9e3f 50d0 cd3e
000002a0: 1723 8540 2dde a4bf 29c3 c23e 6fa7 163f
000002b0: 3620 22be df96 6bbf 7209 5840 9c48 c83f
000002c0: b59d 9b3e d791 8cbf bd18 d33f f98d 843e
000002d0: 4426 b3bd 9f1b 27bb 1db9 ee3e 5abb a83f
000002e0: f97f 883f 0c23 5b40 696a 9440 68eb d73e
000002f0: 414c 893d df73 bebe 4791 7f3f e8a5 3ac0
00000300: 4870 60c0 ae13 88c0 4edf 93c0 b438 ee3f
00000310: d6d0 5440 59e7 7940 8bd1 7440 f0df 32c0
00000320: 030f e6bf b2df 343e 6c95 6ec0 b19b 1dbf
00000330: ce6e 46bd 59d3 55c0 0bcc 56c0 fed8 7abf
00000340: 56f6 8d40 ed5a 1d3f 824d ce40 67fb c33f
00000350: 384b 70c0 d3ac cdbf 7e4c cfbf e14b e0bf
00000360: fe24 9ebf e2e0 cdc0 4838 6ec0 d84a d2c0
00000370: 25d1 a0c0 0eb7 f03e 7f55 35c0 b7f0 a0be
00000380: 3e88 85be c145 97bf 8575 1440 eeba 92c0
00000390: a3af bd3f cea0 abbf 9744 c13f 95d9 dabe
000003a0: afd5 6040 6a34 3b40 3130 1b40 707b 30bf
000003b0: d51b 0f40 0033 e43e e506 59c0 878a 6340
000003c0: 4b5d eb40 289b 04be a295 9bbe 008a 663f
000003d0: a0be 6c3f 91f7 8cc0 9b16 6ec0 7b90 a23e
000003e0: cf45 edbf eabf f33d 01e2 b3c0 c08c a8c0
000003f0: efe5 9c40 2091 9fc0 e0f7 b33f 59ed e23f
-0.15431699 1.3179901 -0.101862654 5.4614906 2.3109372 -2.619907 -0.2677193 -2.3583696
-1.7434452 2.9714224 4.595674 -0.46591884 -1.1123075 3.521665 2.7033281 0.9177755
3.2317233 0.0700575 -1.064848 -0.20374426 2.6425297 1.654921 1.0029631 1.2255116
1.0769997 2.6379673 -1.9076604 -2.1844199 -1.1083972 0.5334894 2.4982345 1.1234015
1.989244 -3.8829925 -2.5281887 4.60883 4.862188 4.325469 1.1603857 2.226054
0.45179048 1.4453899 -9.002276 -0.9537466 0.5616834 0.56019014 -1.2672347 1.0802346
0.082789004 4.4269266 -2.261794 5.5573254 -2.7083511 4.7093716 -12.517746 2.4466355
-2.980323 -2.9603283 2.3770273 -1.2280053 -4.2564993 3.5263715 1.0066106 -4.220903
-0.31458098 -3.913814 -2.0802386 1.4449478 -3.220871 -7.65994 0.78768027 1.9766978
1.6233573 -2.2927344 -5.4592743 -2.990729 0.78332436 1.4318079 0.5775106 1.204083
-2.9974377 3.1187394 2.4923236 2.3969321 1.21539 -1.42579 -4.481986 0.15880078
3.3394911 -1.454691 -8.47327 -1.8407364 -1.12995 -2.5155187 1.3454133 -5.109399
-6.731466 4.0689826 -2.8921893 1.5886711 -0.4753555 -1.0853897 -2.415776 6.8919034
-4.038004 2.2270095 1.9177748 3.6336064 3.742182 -0.30713654 0.35049748 -3.958851
-0.12602837 2.0707977 2.3806334 -2.121268 -2.9992707 3.440891 2.3228378 0.77161676
2.780488 1.3744205 2.5525563 -2.9629283 1.471323 -4.124911 4.0081854 3.274723
-4.067173 -2.1285257 -0.43345195 -0.6561956 -0.7351598 -1.8814092 2.684299 1.7164488
-0.37477955 0.5280792 2.5284936 -10.221293 0.3427238 1.8003194 0.63616306 -2.523301
-2.2122536 4.67417 5.052801 2.9637988 1.5317662 1.4942324 -2.5755062 2.7036896
10.356051 4.0487504 2.004358 -1.6678343 -2.8869274 -1.6909924 -0.5821359 1.0494405
-0.92128265 -0.07608124 -6.035096 1.0685652 -2.2722602 1.0096096 1.2398434 0.40197992
4.1605334 -1.2880303 0.3803952 0.58849233 -0.158326 -0.92027086 3.3755765 1.5647159
0.30393758 -1.0982007 1.6491925 0.25889567 -0.08747533 -0.0025498641 0.46625605 1.3182175
1.0664054 3.424014 4.6379895 0.42171788 0.067039974 -0.37197778 0.9983105 -2.916376
-3.506853 -4.2524023 -4.621009 1.8611054 3.3252463 3.9047453 3.8252895 -2.794918
-1.7973331 0.17663458 -3.72787 -0.6156569 -0.048445515 -3.3410246 -3.3562038 -0.97987354
4.4363203 0.61466867 6.4469614 1.5311097 -3.754591 -1.6068367 -1.6195219 -1.7523156
-1.2355039 -6.4337015 -3.7221851 -6.571636 -5.0255303 0.4701466 -2.8333433 -0.3143365
-0.26080507 -1.1818162 2.3196728 -4.5853186 1.4819225 -1.3408449 1.5099057 -0.42744127
3.5130422 2.925074 2.4248164 -0.6893835 2.2360737 0.4457016 -3.3910458 3.55533
7.3551383 -0.12949812 -0.30387598 0.9005432 0.9247837 -4.4052205 -3.7201297 0.31750855
-1.8536929 0.11901839 -5.6213384 -5.2671814 4.903068 -4.9864655 1.406002 1.7728683

bias f4 [22]
00000000: 6dfb 9f3d 64be 903d c45b 263d 53cb edbc
00000010: 8134 e0bc c84d 453d f6b0 7c3d e5eb a33d
00000020: 7a72 173d 627c 04bd 7b08 14bd 7289 9b3d
00000030: 8c64 73bd 1c1e 8bbd 2faf 05bc 7d6b 78bc
00000040: f770 263d b0dd 67bd e2a0 95bc 4569 7fbd
00000050: c845 5b3d e6dd 923c
0.078116275 0.07067564 0.04061486 -0.029027617 -0.027368786 0.04816988 0.0616922 0.08003978
0.036974408 -0.032345183 -0.0361409 0.07594575 -0.05942206 -0.06792852 -0.008159443 -0.015162346
0.040635075 -0.056607902 -0.018265191 -0.062356252 0.053533345 0.017928075

weight f4 [22]
00000000: 6fb7 0240 9ca1 0d40 00e6 6440 18e6 2a40
00000010: 9bcf 5440 c713 5540 5bca 5140 1f53 5a40
00000020: 9c80 8b40 f7b6 2940 9ec8 3f40 ee0e 2340
00000030: 680e a540 c937 4440 8923 8a40 1395 3340
00000040: ac24 3a40 0ca3 7d40 fcf5 2e40 a961 4f40
00000050: 6464 4940 ee57 6840
2.042446 2.2129889 3.576538 2.6702938 3.3251712 3.329332 3.2779758 3.4113233
4.3594494 2.6517923 2.9966197 2.5477862 5.1580086 3.0659049 4.316838 2.8059738
2.9084883 3.9630766 2.7337637 3.2403357 3.1467524 3.6303668

bias f4 [22]
00000000: 2978 f53d 5a25 fabf a8f3 aa3e dde7 8dbf
00000010: 8757 30c0 e998 babf 0791 4f3f 2dab 1ec0
00000020: ea22 3e3e 1d15 5cc0 1538 67c0 acfe ed3f
00000030: e28b 1abf e9a8 5ebf 422c 9f3d 84d2 aabe
00000040: 52b3 83be 47b3 e5bf 2ec3 e1bf 39c1 39bf
00000050: 7dcc 1fc0 0fa5 ecbf
0.11985809 -1.9542649 0.3338902 -1.1086384 -2.7553422 -1.4577914 0.8108067 -2.4791977
0.18568006 -3.4387887 -3.612798 1.8593345 -0.60369694 -0.86976486 0.077721134 -0.33363736
-0.25722748 -1.7945336 -1.7637689 -0.7256046 -2.496856 -1.8487872

running_mean f4 [22]
00000000: 0c18 91c1 e5d7 d2c1 d80a 42c1 44c4 0ac2
00000010: d755 86c1 90b3 8bc2 e331 e9c0 9eb0 4cc2
00000020: 7306 ca40 22e5 98c2 bf23 7fc2 1964 dec0
00000030: 264c 58c1 9d55 39c2 1a65 c2c1 01f0 44c1
00000040: d304 9fc2 753f 9ec1 7f0d 45c2 e232 39c2
00000050: f12f 85c2 a199 acc1
-18.136742 -26.355417 -12.127647 -34.691666 -16.791914 -69.85071 -7.2873397 -51.172478
6.3132873 -76.447525 -63.78491 -6.949719 -13.518591 -46.333607 -24.299366 -12.308595
-79.50942 -19.780985 -49.26318 -46.29969 -66.593636 -21.575014

running_var f4 [22]
00000000: 2d3f 2945 7dbd e944 605d a145 95ae 0d45
00000010: 96e8 1145 48f4 0246 9e0b 6e45 aaf8 7545
00000020: 97c2 6b45 a41c 1545 d48e 4f45 a813 3f45
00000030: 26be 9945 4b46 7145 baa8 8045 dd94 4345
00000040: 6ee6 4d45 8814 9745 2871 5045 5dd1 7345
00000050: 8605 f044 c71e 4045
2707.9485 1869.9215 5163.672 2266.9114 2334.5366 8381.07 3808.726 3935.5415
3772.1619 2385.79 3320.9268 3057.2285 4919.7686 3860.3933 4117.091 3129.304
3294.4019 4834.5664 3335.0723 3901.0852 1920.1726 3073.9236

weight f4 [44, 16, 7]
00000000: 75c7 173f d3ab e83d 25ab 0240 0595 893f
00000010: d106 63bf 2599 033e 4971 77be 38a6 9dbf
00000020: 11d1 06c0 75e8 d2bf f202 81be 4e56 83c0
00000030: 4f93 0ac0 f28f 82c0 3f8d 183f 4250 8e3e
00000040: 5998 a4bf 043c 8bbf 5392 5c3f 7b82 a0bf
00000050: e55e 4ec0 9387 83c0 1769 4ec0 6e4d 8fc0
00000060: 7314 d3c0 df56 bec0 abdb 51c0 cb02 96c0
00000070: 1f80 55bf 770d afbe 177a 33c0 05cb 90bf
00000080: 9c29 f7bf a0aa 38c0 5d8e 0dc0 c0a4 d3bf
00000090: 18f4 d4bf b459 77c0 c4cb 3fc0 cdcc dabf
000000a0: bf46 863e 8ef3 883d 8fdc a0c0 7318 d9c0
000000b0: 4404 18c0 8f5f bec0 f964 2abe 1950 78c0
000000c0: 4f18 3fc0 43d1 cbbf 50bd 2ebf 5433 aec0
000000d0: 931f fa3e 6a62 60c0 464a 2f40 c25b 1c3f
000000e0: 470c 57bf a824 d6bf 8531 f4bf 2d14 5fc0
000000f0: ca2a 81c0 25c9 02c0 ff24 dcbf 46c5 9e3f
00000100: 0379 8f3f 5f78 273f 7fa3 413f f832 4ebf
00000110: 060c e43f 1ea8 a63f b3c1 9ebd 1e68 3e3f
00000120: d46f c73f 652b 0ebf d49a 843f 1dea 073f
00000130: 17da bc3f 1a54 8c40 8155 f13f c323 7240
00000140: d66b 3640 007b 833f 775d 2b40 bf96 8040
00000150: 3591 0340 090c 5a3f f8a5 1340 95bc f73e
00000160: 55b0 a23e 98c0 a5bf 09e0 13c0 2cd8 07c0
00000170: e364 7dc0 9f3d 7f3d a25a 2f40 ca07 35c0
00000180: 6937 8ac0 1350 783f 6585 e7bf 055b 4abf
00000190: 0362 f7bf 49d9 d5bf 0678 76bf 7c92 2ebf
000001a0: b195 babf 47c8 aebe ebfd 403d c303 733f
000001b0: 94f0 8e40 0e94 5840 73d8 3940 c69f 6540
000001c0: 57f2 75bf a23b d7bf fd73 8fbf ec85 38c0
000001d0: b379 03c0 4024 19bf 0688 46c0 4739 6b3f
000001e0: 8aac 1140 6091 3e40 ca17 d340 491a 79bf
000001f0: 75c1 9d3f ee30 d9bf 07b4 29bf 8ee5 90bd
00000200: 425c 98bf 9dbd 783f d923 3f40 d482 f43f
00000210: 53d8 26c0 99c1 87c0 f61b 3740 0c13 0dc0
00000220: 0470 2a3e 4891 1940 c587 8abf d701 273f
00000230: ef7b 1e40 b991 603f 2509 4640 8688 8140
00000240: 5dfe 5740 88d4 5040 1f9b f13f 907c 4d40
00000250: 6ae8 5e40 1b51 5340 c6d1 e83f 3e5a 17c0
00000260: d55a e7bf 90f9 e5bf b465 5fc0 5426 96c0
00000270: 3e54 abc0 4134 10c0 aa7f 69bf cc00 15bf
00000280: 98e0 98c0 5861 0c40 d049 22c0 b027 10c0
00000290: 90e2 8dbe 7ccd 64bf 11de b2be a5f2 933f
000002a0: ec25 edc0 f64d e2c0 156f 45c0 bd8c acc0
000002b0: 9042 88c0 c349 81c0 465f 28c0 93ad f9be
000002c0: e01d 65be 56bc 4d3f 2de6 8040 e172 76bf
000002d0: 0494 18bf f677 a1bf 7009 40bf 414f 1bbf
000002e0: d71e 9bbf 9bce cabf d36f 97bf 4ebf 363f
000002f0: 9bd8 ca3e 528c 21c0 c019 0dc0 9162 b7bf
00000300: 2766 07c0 a59f 493f 571f a9be b21a d9bf
00000310: f48d 01c0 02dc dd3e 3f6a 91c0 0920 2c40
00000320: c3dc a1c0 1ce2 eabe eda7 b83f 1ed8 0040
00000330: 718f 4640 0a59 63be 49bc b13f e750 d1be
00000340: fe8b b9bf c8b2 2340 2e37 49bf 6d64 45bf
00000350: 4131 b8bd 747f 603f 3b6a 883f ed14 ec3f
00000360: 1b07 1640 4900 09c0 ccaf 44c0 cd56 88c0
00000370: 7d36 99c0 5e26 c1bf d2be 30bd f014 f33f
00000380: 29b1 b4c0 1f94 52c0 2437 1fc0 8746 09c0
00000390: 868c 74c0 d3ce 0dc0 9c09 b6bf 1465 9040
000003a0: 3b21 3a40 f352 1c40 94c3 6940 bb56 bb40
000003b0: 019c 7140 4715 ab40 1be9 663f 0cc8 b13f
000003c0: 27e7 dcc0 64fe 2cbf f6dd f53e 417a 453f
000003d0: 6ec1 c4c0 d8b0 5840 cf46 b93f 958c 7640
000003e0: 93dd 4840 5d34 d53f 0a99 1d40 b4c5 5d40
000003f0: 5f33 a23f 017b 693f b74f cdbe 33b8 233e
0.5928872 0.11360898 2.0416958 1.0748602 -0.88682276 0.12851389 -0.24164309 -1.2316351
-2.1065104 -1.647719 -0.2519756 -4.1042852 -2.165241 -4.0800714 0.59590524 0.27795607
-1.2858993 -1.087769 0.86160773 -1.253982 -3.224542 -4.1102996 -3.2251642 -4.478202
-6.5962462 -5.9481044 -3.2790325 -4.687841 -0.8339862 -0.3418996 -2.8043268 -1.1311957
-1.9309573 -2.8854141 -2.2118142 -1.6534653 -1.6636992 -3.86485 -2.9968119 -1.709375
0.2622585 0.06687079 -5.0269237 -6.7842345 -2.3752604 -5.949165 -0.1664008 -3.8798888
-2.9858587 -1.5923237 -0.6825762 -5.4437656 0.48852214 -3.5060067 2.7389083 0.6107751
-0.8400311 -1.6729937 -1.9077612 -3.4856064 -4.0364733 -2.043527 -1.719879 1.2403953
1.1208805 0.65418047 0.756401 -0.8054652 1.7816169 1.3020055 -0.07751789 0.7437762
1.5581002 -0.55534965 1.035975 0.53091604 1.4754056 4.3852663 1.8854219 3.7834327
2.8503318 1.0271912 2.6775796 4.0184016 2.0557377 0.85174614 2.307005 0.48386064
0.31775156 -1.29494 -2.310549 -2.122569 -3.9592826 0.062314626 2.7399068 -2.8286004
-4.319264 0.96997184 -1.8087584 -0.79045135 -1.9326786 -1.6706935 -0.9627689 -0.6819227
-1.4576932 -0.34137174 0.047117155 0.94927615 4.4668674 3.3840365 2.903836 3.5878768
-0.96072906 -1.6815073 -1.1207272 -2.883174 -2.054303 -0.5982094 -3.1020522 0.91884273
2.276156 2.977623 6.596654 -0.9730573 1.2324663 -1.6968057 -0.66290325 -0.07075034
-1.1903155 0.97164327 2.986563 1.9102426 -2.6069534 -4.2423825 2.8610816 -2.2042875
0.16644293 2.3994923 -1.0822684 0.6523718 2.4763143 0.87722355 3.0943081 4.0479155
3.3749 3.2629719 1.8875464 3.2107277 3.4829354 3.3018253 1.8189018 -2.364883
-1.8074595 -1.7966785 -3.4905825 -4.6921787 -5.3540335 -2.2531893 -0.91210425 -0.5820434
-4.777416 2.1934414 -2.5357552 -2.2524223 -0.27711916 -0.89376044 -0.34935048 1.1558424
-7.410879 -7.0720167 -3.084905 -5.39218 -4.2581253 -4.040254 -2.630815 -0.4876524
-0.22374678 0.803655 4.0280976 -0.9626904 -0.59600854 -1.2614734 -0.750144 -0.60667807
-1.2118787 -1.5844301 -1.1831001 0.7138566 0.39618382 -2.5241895 -2.2046967 -1.4326955
-2.11561 0.78759223 -0.33031723 -1.6961272 -2.0242891 0.43331915 -4.5442195 2.6894553
-5.0581985 -0.45875633 1.4426247 2.0131907 3.102505 -0.22201934 1.3885585 -0.40882036
-1.4495847 2.557787 -0.7859982 -0.7710636 -0.089937694 0.8769448 1.0657419 1.8443886
2.3441837 -2.1406424 -3.0732298 -4.260596 -4.7879014 -1.5089834 -0.04315073 1.8990765
-5.646626 -3.2902906 -2.4877405 -2.1449296 -3.8210769 -2.2157485 -1.4221683 4.5123386
2.9082782 2.4425628 3.6525621 5.854337 3.7751467 5.3463473 0.9019944 1.3889174
-6.903217 -0.6757567 0.48020905 0.7713967 -6.148612 3.3857937 1.4474734 3.8523304
3.1385238 1.6656605 2.4624658 3.4651918 1.2671927 0.91203314 -0.4009988 0.15988235

bias f4 [16]
00000000: bb9b 773d 3d6f 96bd 5aea 01bd 60bb 06bd
00000010: e1b1 1fbd 0728 933d c8cb 943d e5e5 483d
00000020: dcdd 1abd 69f4 7ebd a3b7 c7bc aac8 1abd
00000030: 82a9 293c c42c 3b3d c024 af3d 72a5 863d
0.06045125 -0.07345436 -0.031717636 -0.03289354 -0.038987998 0.07185369 0.07265431 0.04904737
-0.037809238 -0.062244806 -0.024379557 -0.037789024 0.010355355 0.04569699 0.085519314 0.06574525

weight f4 [16]
00000000: 39fc 4840 d0e0 7540 e2e1 0440 9ee5 cf40
00000010: c517 0e40 8fc4 0e40 a82f 7240 b985 6e40
00000020: 2e6d bb40 1806 0c40 8ec1 1540 5762 7240
00000030: 5ee2 8040 42dd 4d40 178a 3f40 1a18 2c40
3.1403944 3.8418465 2.0762868 6.4967794 2.2202008 2.230747 3.7841587 3.7269118
5.8570776 2.187872 2.3399386 3.7872522 4.0276327 3.2166295 2.9928033 2.688971

bias f4 [16]
00000000: 750f 0ec0 6380 0840 42e5 8ebf e948 0240
00000010: c6b2 0ec0 04d5 6ac0 d6b5 4d40 2ee9 5bbf
00000020: 2367 f73f c1f1 3a3f e814 9bbf a271 9a3d
00000030: d002 e5bf 09e1 00c0 e30b d5bf 9278 4bbf
-2.2196934 2.132836 -1.1163714 2.0357 -2.2296615 -3.6692514 3.2142234 -0.8590268
1.932835 0.7302514 -1.2115755 0.07541205 -1.7891483 -2.013735 -1.6644253 -0.7948085
