model/tlstead.pt (torch, 119202 bytes, 56 tensors)

weight f4 [8, 3, 1]
17.615181 -0.060961116 -0.28389192 36.79372 -0.07803118 0.026961727 0.20920849 -0.40878245
17.167328 -17.14616 -0.090187594 -0.414376 0.4939855 11.210614 1.656115 -0.37415802
-1.3584287 -12.070523 0.23914672 12.668238 -1.0420648 -0.41881883 -29.70909 -0.8943111
00000000: e4eb 8c41 5db2 79bd 485a 91be c52c 1342
00000010: d0ce 9fbd d7de dc3c c03a 563e ef4b d1be
00000020: b056 8941 562b 89c1 46b4 b8bd 1729 d4be
00000030: abeb fc3e ad5e 3341 94fb d33f a491 bfbe
00000040: fee0 adbf dd20 41c1 e1e2 743e 1ab1 4a41
00000050: 6162 85bf 6c6f d6be 37ac edc1 92f1 64bf

bias f4 [8]
-0.10903739 0.3638522 -0.30893582 -0.35860723 0.15971443 -0.2909711 0.8548005 -0.41263786
00000000: ff4e dfbd d64a ba3e d62c 9ebe 5e9b b7be
00000010: 2e8c 233e 2afa 94be 35d4 5a3f 4545 d3be

weight f4 [8]
2.1118324 3.2682555 1.07149 3.9643543 0.2580957 1.0903039 0.80877984 0.8565875
00000000: 4328 0740 192b 5140 9626 893f fbb7 7d40
00000010: 1f25 843e 148f 8b3f 320c 4f3f 5249 5b3f

bias f4 [8]
0.5269567 0.010641384 0.26702878 0.4954905 0.7337399 0.20620643 -0.00021328255 0.21386437
00000000: a2e6 063f 3359 2e3c ffb7 883e eeb0 fd3e
00000010: 61d6 3b3f c727 533e 99a4 5fb9 43ff 5a3e

running_mean f4 [8]
-0.15016273 0.27512604 -0.3854032 -0.3153272 0.13850252 -0.23484404 0.8445753 -0.37413874
00000000: 42c4 19be 52dd 8c3e 9153 c5be 9172 a1be
00000010: 9bd3 0d3e f57a 70be 1636 583f 1d8f bfbe

running_var f4 [8]
322.4369 1406.5791 444.96884 305.8468 195.4258 223.9654 243.29239 1335.7812
00000000: ec37 a143 88d2 af44 037c de43 64ec 9843
00000010: 016d 4343 24f7 5f43 da4a 7343 00f9 a644

weight f4 [11, 8, 7]
3.5849967 1.9398564 3.7966301 2.927361 -1.1218122 2.3689475 1.1965548 0.7927251
-1.8726038 -1.0071764 -0.120022096 2.1863205 2.0888405 1.8703239 1.1554108 3.2674744
3.8839428 7.7147126 6.7010746 6.0804825 2.6422496 -0.112706356 -1.5196537 -3.6392004
-0.03773187 2.5955238 -0.52701247 -1.1947588 1.9134723 2.1792986 3.096565 -1.1642697
-0.78773636 3.687874 -0.7095001 3.4429681 3.6428502 4.7236314 5.7769647 1.8726963
-2.0893593 -2.8106043 3.0913348 3.5270877 4.802398 9.366414 10.767308 8.925736
4.5214906 -2.4772007 0.924397 -2.0043082 1.551587 2.3484952 0.15908922 -2.135178
-3.5976033 4.5816584 3.062721 -7.84744 2.424755 1.6968648 -0.59904265 -2.0786097
4.247943 2.5341475 -6.1583633 1.2764031 0.04409089 0.2880845 -1.1377261 -0.3420288
1.306163 1.2123673 0.31709963 -2.5936918 1.0693494 3.75388 -6.34364 -1.4108531
4.688589 0.37136084 -0.66465575 -0.38367927 -2.246163 1.2932377 -0.14253576 -0.4294824
1.6546952 0.15044509 0.25740793 1.4751279 -0.47543582 -1.2888575 -1.0342443 -0.17911123
2.9286532 -1.4454757 0.26652783 0.53954285 0.33914304 -1.3835782 -0.28906393 -0.08558502
0.3044576 -0.33122635 0.08367456 -0.18098976 0.70053947 0.31500962 -0.19956404 -0.2470009
-0.38411275 2.658454 -5.1769266 3.7711935 2.2827816 -5.1356525 2.1004746 -0.47388434
2.0663648 -3.2025163 1.7361895 1.3913369 -3.1905243 1.6359394 0.5497921 -0.26014295
-0.48673767 -0.34945205 -0.4141954 1.2484723 -0.4042596 0.6315815 -3.892188 7.47073
-5.548235 -1.2087182 4.776408 -2.300654 -1.8656567 2.3022552 -1.1010783 2.0677347
0.5476109 -1.8000847 0.6529592 -0.40006244 -0.68314606 1.2336904 0.3668624 1.2696514
-2.249423 0.24462405 0.88128775 1.2807012 -2.0330281 -2.000533 -0.2983983 -1.8756897
2.584965 -1.1980482 -0.9752447 2.2092655 -0.21205415 0.26629883 1.6216763 -1.8563272
-3.7738764 0.28426147 2.9372468 4.1892915 -0.39768112 -1.4632462 -1.815343 -3.7055767
-0.19926041 2.6906843 4.589681 1.0675122 -1.4677663 -2.921286 0.59794307 -0.17470966
-0.75790834 -0.45233244 0.30100963 0.86394614 -0.49962717 5.384513 0.4660967 -3.2958608
-7.2042193 -0.6490905 1.6940266 3.6454542 0.4349088 -0.28697318 -0.49526533 -0.4029704
0.29072982 0.85430634 0.6295054 -0.6630973 0.1145243 0.7657321 0.6396001 -0.80388665
-0.8987972 0.6761217 -0.08559114 -0.42150444 -0.2590712 0.45824963 0.3299277 -0.26715803
-0.1798436 0.018019443 0.7186484 0.031630766 0.16858694 -0.2765172 0.10204324 -0.2930349
-2.5637295 -1.9713428 -3.6169405 -2.6411238 0.23252593 -1.3430061 -0.8345405 -0.34581366
1.444407 0.94725174 0.15819146 -0.13263689 -0.41979107 -0.68667936 0.43525252 0.53342634
2.4133413 8.695641 6.657066 4.665312 6.035796 -0.7831583 1.1909733 1.658804
0.36921808 -0.88692474 0.79123735 1.4265968 1.7206383 0.7743027 3.5637472 3.4990752
00000000: 9670 6540 374d f83f fdfb 7240 e259 3b40
00000010: 8b97 8fbf d69c 1740 b528 993f 08f0 4a3f
00000020: 7bb1 efbf 28eb 80bf 25ce f5bd adec 0b40
00000030: 90af 0540 c666 ef3f 80e4 933f 4d1e 5140
00000040: 8592 7840 edde f640 346f d640 5093 c240
00000050: 9e1a 2940 97d2 e6bd 0384 c2bf a9e8 68c0
00000060: bc8c 1abd 101d 2640 4aea 06bf dbed 98bf
00000070: a9ec f43f a179 0b40 1f2e 4640 ca06 95bf
00000080: 17a9 49bf 2106 6c40 cca1 35bf 9759 5c40
00000090: 7524 6940 fd27 9740 e5dc b840 83b4 ef3f
000000a0: 10b8 05c0 f1e0 33c0 6ed8 4540 cebb 6140
000000b0: 3fad 9940 d5dc 1541 e546 2c41 d1cf 0e41
000000c0: 0db0 9040 758a 1ec0 48a5 6c3f 9646 00c0
000000d0: 679a c63f bf4d 1640 49e8 223e c2a6 08c0
000000e0: 223f 66c0 f29c 9240 9f03 4440 3a1e fbc0
000000f0: 302f 1b40 de32 d93f dc5a 19bf f107 05c0
00000100: 26ef 8740 792f 2240 5011 c5c0 2d61 a33f
00000110: a698 343d d07f 933e 02a1 91bf 661e afbe
00000120: 5930 a73f da2e 9b3f e25a a23e 0cff 25c0
00000130: 71e0 883f 923f 7040 19ff cac0 d696 b4bf
00000140: ec08 9640 0223 be3e e126 2abf 9c71 c4be
00000150: 22c1 0fc0 d088 a53f e5f4 11be 1ee5 dbbe
00000160: 0dcd d33f 470e 1a3e f9ca 833e fed0 bc3f
00000170: 536c f3be 48f9 a4bf 1e62 84bf ef68 37be
00000180: 0e6f 3b40 5905 b9bf 5676 883e 7b1f 0a3f
00000190: 28a4 ad3e 1719 b1bf 3000 94be 3347 afbd
000001a0: dee1 9b3e 8096 a9be 915d ab3d 6155 39be
000001b0: 8e56 333f f148 a13e 845a 4cbe ceed 7cbe
000001c0: 6daa c4be 1c24 2a40 62a9 a5c0 3c5b 7140
000001d0: 1819 1240 4457 a4c0 2d6e 0640 f8a0 f2be
000001e0: 523f 0440 07f6 4cc0 753b de3f 5417 b23f
000001f0: 8d31 4cc0 7666 d13f 2dbf 0c3f 7531 85be
00000200: ae35 f9be 61eb b2be 6b11 d4be f1cd 9f3f
00000210: 1dfb cebe 53af 213f 9c19 79c0 3810 ef40
00000220: 248b b1c0 47b7 9abf 56d8 9840 ea3d 13c0
00000230: d7cd eebf 2658 1340 22f0 8cbf c455 0440
00000240: 3a30 0c3f 2d69 e6bf 5628 273f fcd4 ccbe
00000250: a9e2 2ebf 91e9 9d3f 63d5 bb3e f083 a23f
00000260: 8cf6 0fc0 ba7e 7a3e 139c 613f 04ee a33f
00000270: 221d 02c0 bc08 00c0 a9c7 98be 9a16 f0bf
00000280: 1170 2540 a559 99bf a3a9 79bf 9b64 0d40
00000290: b924 59be 5258 883e 1793 cf3f 219c edbf
000002a0: 3187 71c0 b88a 913e dafb 3b40 ad0e 8640
000002b0: dc9c cbbe a74b bbbf 295d e8bf 2b28 6dc0
000002c0: ec0a 4cbe 2c34 2c40 abde 9240 3da4 883f
000002d0: c4df bbbf 5af6 3ac0 cc12 193f 17e7 32be
000002e0: 4806 42bf 1e98 e7be ef1d 9a3e 932b 5d3f
000002f0: 22cf ffbe ee4d ac40 3aa4 ee3e 62ef 52c0
00000300: f788 e6c0 cc2a 26bf ddd5 d83f 1f4f 6940
00000310: 5eac de3e 26ee 92be 6b93 fdbe 2352 cebe
00000320: 8ada 943e d2b3 5a3f 4427 213f bfc0 29bf
00000330: b78b ea3d 0507 443f d5bc 233f 84cb 4dbf
00000340: 9317 66bf 5016 2d3f 684a afbd 6ecf d7be
00000350: fba4 84be b29f ea3e 49ec a83e f0c8 88be
00000360: ec28 38be 839d 933c 57f9 373f 438f 013d
00000370: 0ea2 2c3e aa93 8dbe 0cfc d03d ac08 96be
00000380: 2514 24c0 f654 fcbf f47b 67c0 2c08 29c0
00000390: 471b 6e3e a0e7 abbf 72a4 55bf 7d0e b1be
000003a0: 54e2 b83f 177f 723f f1fc 213e f7d1 07be
000003b0: dbee d6be 38ca 2fbf 6bd9 de3e a18e 083f
000003c0: 2f74 1a40 5821 0b41 af06 d540 3c4a 9540
000003d0: 3e25 c140 107d 48bf d071 983f b153 d43f
000003e0: 270a bd3e 800d 63bf 888e 4a3f b99a b63f
000003f0: e03d dc3f b438 463f 6f14 6440 d9f0 5f40

bias f4 [11]
-0.013239742 -0.06027095 0.108589105 -0.05554401 0.12585764 0.016511466 -0.00030625667 0.11299364
-0.032123547 -0.21426462 -0.055188205
00000000: 81eb 58bc acde 76bd f763 de3d 1e82 63bd
00000010: d3e0 003e 0e43 873c 1391 a0b9 3669 e73d
00000020: fb93 03bd 2f68 5bbe 070d 62bd

weight f4 [11]
3.8918796 3.1399593 2.9741185 6.116707 3.662261 5.3551254 2.3771496 3.877942
5.315201 10.110809 4.131754
00000000: 8e14 7940 18f5 4840 f557 3e40 10bc c340
00000010: 7c62 6a40 305d ab40 3823 1840 3430 7840
00000020: 2016 aa40 e0c5 2141 5437 8440

bias f4 [11]
4.5878386 -0.011672348 -0.16528822 -0.004451155 5.963609 -0.03555417 6.3883095 -0.2790921
-0.040690232 -0.113084234 0.04074266
00000000: 93cf 9240 603d 3fbc 5141 29be ffda 91bb
00000010: e3d5 be40 40a1 11bd 086d cc40 29e5 8ebe
00000020: cdaa 26bd b598 e7bd c7e1 263d

running_mean f4 [11]
50.675167 0.15917355 0.07381857 0.72265756 42.287663 -0.74570626 -48.11835 -22.381042
-0.03412705 -0.21914281 -1.7988678
00000000: 5fb3 4a42 64fe 223e 312e 973d 1600 393f
00000010: 9126 2942 9be6 3ebf 3179 40c2 600c b3c1
00000020: cec8 0bbd f966 60be 4d41 e6bf

running_var f4 [11]
2098.104 220.01057 72.902824 1081.8668 1566.6312 438.16714 2365.9346 1768.7212
613.78094 2370.8384 683.3896
00000000: aa21 0345 b502 5c43 3fce 9142 bd3b 8744
00000010: 33d4 c344 6515 db43 f4de 1345 1417 dd44
00000020: fb71 1944 6a2d 1445 efd8 2a44

weight f4 [16, 11, 7]
3.4903188 3.7840345 1.2817876 7.151488 5.5950613 4.267503 5.798448 0.21538697
0.5678669 0.053464226 1.1990297 1.3676586 1.2933321 1.3923668 0.5270003 0.35625082
0.718444 1.4501162 1.1435772 0.578822 0.44802088 -0.21225742 -0.34296945 0.09909298
1.0500271 1.4186691 1.3948537 0.966384 4.638498 5.3758082 5.6777725 11.671372
8.74388 8.408951 6.8142467 1.4195253 1.9269122 3.1587238 5.292226 3.8785245
3.75002 2.3396006 -1.3665948 -2.148011 -0.9529665 1.3665743 2.4893389 3.1886523
1.8767569 4.9442983 3.5104682 5.809209 2.7418323 0.68641526 1.0062085 -1.1037799
1.1324421 1.1956388 0.9475747 4.6859202 3.831217 2.9237685 2.9483635 -0.6861872
-0.83525366 -0.6391221 -0.01789836 -0.024975687 -0.0100291595 -0.07166472 -0.9975864 -0.84288067
2.825871 1.8120375 0.8577453 0.6772303 -1.1046194 2.8686428 3.4935312 2.6570837
2.4285128 -3.52344 -6.4978733 -1.2388326 2.1230829 2.094438 0.4731467 -3.2428353
-5.9393234 -3.864479 1.3386675 1.5425798 2.1351385 0.800069 -1.8109854 -0.9952438
0.96753645 1.0207063 0.99266773 -1.5938784 -5.299938 -9.196671 -10.661424 -4.620235
0.019334665 -2.287994 -2.0946634 -2.937302 -0.51035005 0.85774857 5.131212 2.8941722
-0.06201225 -0.8118305 -1.858449 -3.7054632 -3.917163 0.12352576 0.8072464 2.9961724
0.47733203 -4.091386 3.5403464 -0.25994578 -2.599426 -2.815781 0.8829553 0.7588982
0.6255712 -0.8249957 -1.3126388 0.55383295 -0.037994802 -0.8124947 -1.5364624 -3.049117
-4.3024735 -5.2932186 -2.2708263 0.11677368 -3.9141028 -7.028871 -9.788714 -13.570652
-10.168989 -4.383896 -0.66901654 0.124314964 -2.305997 -3.2950304 -1.4028141 -1.1441851
2.1579525 0.66580576 -5.843438 -6.7595644 0.27995458 6.625946 4.4282084 0.19969508
-0.3669796 0.40925753 0.39886004 0.78587216 0.170533 0.0060824705 0.041416984 0.46891588
0.79829216 0.115591444 -0.16059649 0.17328747 0.32263768 0.1498765 0.09496874 -0.3354232
-0.15416607 -0.052075144 -0.23159792 -0.28004113 0.026399145 -0.090168744 -11.135966 -6.6912327
-1.1745254 9.58956 7.068574 2.3177445 -1.1500912 -3.6107671 -2.7341952 0.47061962
3.0881214 1.9314266 0.55370253 -0.08132563 0.23984508 0.48967102 1.087947 1.4296227
-0.0441826 -0.11072498 -1.3754284 -7.754143 -0.61199516 1.2453976 3.8268747 1.6922635
0.10489422 -1.0782809 -4.109282 -3.1243284 0.09845015 3.3807983 2.0792463 0.52720547
-0.053958487 -0.5886696 -0.036930438 -0.3511331 -1.0839119 -0.9756674 -0.66172385 0.03412609
0.8129504 1.6801981 -0.39612755 -2.01637 -1.5638131 0.26478514 0.34236154 -0.23520595
-0.7657265 -1.5980195 -1.4952214 -1.899152 -1.9190522 -1.8566431 -0.32688245 -0.16957384
-0.343412 -0.34098807 0.039996997 -0.32073888 -0.55859804 1.354425 1.5627357 1.2444464
2.153435 1.2268592 0.7467181 1.2411945 -1.3138118 -1.7610955 -2.055788 -2.6342854
00000000: 6261 5f40 9f2d 7240 9e11 a43f fdd8 e440
00000010: be0a b340 628f 8840 e38c b940 678e 5c3e
00000020: ba5f 113f 4efd 5a3d ce79 993f 700f af3f
00000030: e88b a53f 1339 b23f 7ee9 063f 8266 b63e
00000040: f2eb 373f 689d b93f bd60 923f ae2d 143f
00000050: fe62 e53e 025a 59be b199 afbe 43f1 ca3d
00000060: 4a67 863f f396 b53f 918a b23f f164 773f
00000070: 936e 9440 9f06 ac40 50b0 b540 f1bd 3a41
00000080: efe6 0b41 108b 0641 4f0e da40 01b3 b53f
00000090: 0fa5 f63f 8828 4a40 ea59 a940 bf39 7840
000000a0: 5400 7040 04bc 1540 94ec aebf 0379 09c0
000000b0: 9df5 73bf e8eb ae3f 5451 1f40 e112 4c40
000000c0: 9239 f03f b137 9e40 83ab 6040 0ae5 b940
000000d0: 2e7a 2f40 e9b8 2f3f 71cb 803f a948 8dbf
000000e0: ddf3 903f b10a 993f 4194 723f 0ff3 9540
000000f0: a932 7540 061f 3b40 fdb1 3c40 f7a9 2fbf
00000100: 2fd3 55bf 829d 23bf 959f 92bc d099 ccbc
00000110: 5851 24bc f4c4 92bd d361 7fbf 07c7 57bf
00000120: 12db 3440 d8f0 e73f 3295 5b3f f75e 2d3f
00000130: 2b64 8dbf d897 3740 0496 5f40 a90d 2a40
00000140: c16c 1b40 0a80 61c0 94ee cfc0 1192 9ebf
00000150: 97e0 0740 460b 0640 4940 f23e 9d8a 4fc0
00000160: f00e bec0 a053 77c0 7559 ab3f 4173 c53f
00000170: 1ca6 0840 52d1 4c3f 5fce e7bf 4cc8 7ebf
00000180: 78b0 773f 81a6 823f 791f 7e3f 3504 ccbf
00000190: 1899 a9c0 9025 13c1 3195 2ac1 f7d8 93c0
000001a0: bb63 9e3c 7e6e 12c0 f70e 06c0 c2fc 3bc0
000001b0: 4da6 02bf 6995 5b3f e432 a440 1e3a 3940
000001c0: 8f00 7ebd 20d4 4fbf a8e1 edbf 4f26 6dc0
000001d0: ccb2 7ac0 13fb fc3d b3a7 4e3f 4ac1 3f40
000001e0: dd64 f43e a2ec 82c0 0995 6240 9d17 85be
000001f0: ff5c 26c0 c235 34c0 5c09 623f 2747 423f
00000200: 6f25 203f eb32 53bf 8c04 a8bf ffc7 0d3f
00000210: 70a0 1bbd a7ff 4fbf cdaa c4bf bc24 43c0
00000220: ddad 89c0 0c62 a9c0 3855 11c0 0a27 ef3d
00000230: a980 7ac0 83ec e0c0 939e 1cc1 6421 59c1
00000240: 2eb4 22c1 e048 8cc0 ab44 2bbf d898 fe3d
00000250: 7495 13c0 c7e1 52c0 6a8f b3bf a874 92bf
00000260: e51b 0a40 3f72 2a3f 72fd bac0 5a4e d8c0
00000270: 3556 8f3e c007 d440 e2b3 8d40 de7c 4c3e
00000280: c0e4 bbbe 348a d13e 6237 cc3e eb2e 493f
00000290: 34a0 2e3e 764f c73b dba4 293d be15 f03e
000002a0: e05c 4c3f 35bb ec3d 6873 24be 4572 313e
000002b0: c430 a53e 3a79 193e f97e c23d 97bc abbe
000002c0: b6dd 1dbe bf4c 55bd 0128 6dbe 8d61 8fbe
000002d0: 0543 d83c 64aa b8bd eb2c 32c1 941e d6c0
000002e0: d956 96bf d66e 1941 c231 e240 ed55 1440
000002f0: 3036 93bf cf16 67c0 0efd 2ec0 0ef5 f03e
00000300: c8a3 4540 fd38 f73f 73bf 0d3f 0d8e a6bd
00000310: f399 753e 29b6 fa3e d941 8b3f e0fd b63f
00000320: d0f8 34bd c7c3 e2bd 0a0e b0bf f121 f8c0
00000330: b7ab 1cbf 3069 9f3f 84eb 7440 179c d83f
00000340: c8d2 d63d 1c05 8abf 3d7f 83c0 fff4 47c0
00000350: 3ba0 c93d 005f 5840 5f12 0540 f0f6 063f
00000360: 9303 5dbd 0db3 16bf 5f44 17bd b8c7 b3be
00000370: a0bd 8abf 57c5 79bf bc66 29bf cdc7 0b3d
00000380: 841d 503f bb10 d73f 3bd1 cabe 350c 01c0
00000390: 072b c8bf eb91 873e 034a af3e d4d9 70be
000003a0: a706 44bf e78b ccbf 6a63 bfbf 6a17 f3bf
000003b0: 81a3 f5bf 7ba6 edbf 235d a7be c4a4 2dbe
000003c0: b3d3 afbe fd95 aebe e4d3 233d e337 a4be
000003d0: 4800 0fbf cc5d ad3f b907 c83f 054a 9f3f
000003e0: e1d1 0940 b909 9d3f eb28 3f3f 76df 9e3f
000003f0: fc2a a8bf 946b e1bf 0892 03c0 2298 28c0

bias f4 [16]
0.07712532 -0.11045852 0.0023894776 -0.022669246 -0.062285528 0.047315292 -0.015828667 0.10185799
-0.07362799 0.054951847 -0.1027878 -0.056581724 0.006293372 0.096837856 0.057484057 -0.097759
00000000: e1f3 9d3d 1438 e2bd c898 1c3b dbb4 b9bc
00000010: 1c1f 7fbd aecd 413d 1fab 81bc ec9a d03d
00000020: 46ca 96bd 3015 613d 6982 d2bd 3dc2 67bd
00000030: a138 ce3b ed52 c63d 6774 6b3d df35 c8bd

weight f4 [16]
1.8576443 6.5973535 1.1112494 0.7375852 1.7821081 5.094369 1.5671084 1.1346347
1.3140978 1.9754409 4.2206874 1.1669275 1.9124866 2.7878447 2.6279466 3.120781
00000000: 4ac7 ed3f 851d d340 6c3d 8e3f 62d2 3c3f
00000010: 1e1c e43f 1205 a340 0297 c83f b63b 913f
00000020: 5b34 a83f 3fdb fc3f df0f 8740 e15d 953f
00000030: 5ccc f43f 0c6c 3240 4730 2840 e0ba 4740

bias f4 [16]
-1.2483085 -4.83732 -0.23259735 -0.09425691 -0.04723208 -5.169973 0.7678622 1.7059977
-0.34007823 -1.4647659 -0.019168047 -1.4130651 0.24476156 -2.0024412 2.3508332 -2.0657296
00000000: 93c8 9fbf 53cb 9ac0 002e 6ebe c409 c1bd
00000010: 6d76 41bd 6b70 a5c0 9e92 443f 225e da3f
00000020: bc1e aebe 737d bbbf 4f06 9dbc 51df b4bf
00000030: c6a2 7a3e ff27 00c0 0d74 1640 ea34 04c0

running_mean f4 [16]
568.6853 -245.87259 -17.35881 -297.23184 30.458818 67.47918 -15.076476 -62.688255
-80.50521 247.227 -109.924576 230.73164 4.551041 -78.54789 -588.532 -89.998405
00000000: dc2b 0e44 62df 75c3 d8de 8ac1 ad9d 94c3
00000010: a9ab f341 57f5 8642 3f39 71c1 c6c0 7ac2
00000020: ab02 a1c2 1d3a 7743 62d9 dbc2 4dbb 6643
00000030: 21a2 9140 8518 9dc2 0c22 13c4 2fff b3c2

running_var f4 [16]
86323.055 61148.25 4970.281 5726.4307 31300.318 27934.965 15005.612 15212.608
7484.9736 6163.6616 38104.863 18564.867 7524.0107 8949.379 91618.6 11480.459
00000000: 8799 a847 40dc 6e47 3f52 9b45 72f3 b245
00000010: a388 f446 ee3d da46 7376 6a46 6fb2 6d46
00000020: cae7 e945 4b9d c045 ddd8 1447 bc09 9146
00000030: 1620 eb45 84d5 0b46 4df1 b247 d661 3346

weight f4 [22, 16, 7]
3.4196439 1.4243524 3.2317758 -1.4608747 -1.4203762 -1.3821979 -0.8740303 -6.393138
-5.190064 -4.1704235 2.5010073 3.874878 4.558305 1.9028254 -0.24348709 2.5247269
0.2631513 1.4688628 -0.9250312 -2.2501688 2.5304105 0.84205943 1.6166406 1.6984582
2.5554676 2.2650511 1.279685 -0.9777238 0.97204494 0.16923675 -0.64710766 -4.268229
-2.8474512 -2.038851 1.1225716 3.1027343 3.4315507 5.2549787 8.618433 12.185951
4.958029 6.2851367 1.5310866 1.4298463 1.1217237 6.057205 3.541368 3.0131824
0.94916445 -0.5454727 -2.3485286 -2.2044392 -5.2423306 -5.4603186 -3.7514517 -0.40733185
1.8987726 0.076888025 -0.08535043 1.46538 -3.2743173 1.8386351 2.8571842 -1.5718409
-0.7021428 -0.012125143 3.5122626 1.9893296 1.9365584 -1.3127908 -2.7066107 -0.9942419
-0.9091096 2.9474154 1.6510231 0.9157529 -0.6178944 -1.1599463 -2.2855473 -1.0333763
-0.07366463 0.8805659 0.7693506 0.5680062 -2.8363173 -3.8719435 -4.423848 -2.3561873
-0.65508 1.9097892 0.052302524 0.45479035 0.47884038 -2.7473161 -1.8103199 -0.6209885
1.246045 1.1070697 -5.240128 -3.2381372 -4.394072 0.8904571 1.5311787 3.1592922
2.3357828 0.37518355 -2.304114 -4.00521 -0.39387542 -0.15471719 -1.2900906 1.0169942
0.53387195 -1.825316 -2.7798944 -4.696027 -0.73735577 -0.17568992 4.013914 -3.8605814
-2.3246496 -0.37884858 -10.944524 -2.193423 -1.8320634 0.2514339 -0.6055786 0.51886463
-1.206266 4.215233 0.13316752 2.4141502 4.3155847 -0.5368326 1.1777037 2.6504416
-0.25338754 -0.7893211 -1.4016898 -3.9814963 4.4825306 2.1519156 0.75837845 -2.226391
-5.1246147 -3.9560938 -0.777316 -0.4715512 7.6886177 10.182012 6.49178 -8.39444
-1.0813847 2.0540698 0.9960419 -0.98475313 -1.3565196 0.08488363 0.77492464 2.2154865
0.97239995 -0.46402556 -3.0244088 -3.4112961 -0.08422659 1.4518055 2.6108067 5.490874
-1.0113314 -1.4306577 2.893337 2.3122761 0.9960025 2.7095902 1.3411608 -1.4236219
0.12329663 2.4792902 0.8080395 1.1218613 0.4136217 -2.2832592 -4.576172 -3.306505
-2.953864 -0.0849567 2.4964218 2.705926 0.89387345 1.9655263 0.13406008 0.32055882
2.625194 2.676592 4.3864074 4.1311707 0.34586537 2.0192723 4.7282753 1.5686256
-0.55705816 -2.28595 -5.1215963 2.7825186 5.08932 2.6365721 0.5194254 -6.046325
-4.187745 0.8951035 -3.5086715 0.2958714 2.3573468 1.4232626 -1.9211183 -2.9422295
-8.198687 3.7498267 3.8938599 0.09565168 -3.7775686 -4.638727 -2.8665 1.6819527
1.7666515 1.4634367 1.1831384 0.19968556 -0.41785443 -0.7951304 -0.7145556 40.272156
8.363529 2.424391 1.1121465 -0.5753614 -1.4448458 -3.3798077 0.27111194 -0.12812278
-0.7244437 -0.24532093 -1.4482625 -0.85251427 -0.21674098 -0.49295124 -2.076938 -1.2463698
-0.7615717 0.016437579 0.17545524 0.02319445 0.8510948 -2.658442 -0.26053914 -0.058491077
00000000: 72db 5a40 2e51 b63f 6ad5 4e40 f1fd babf
00000010: e3ce b5bf dceb b0bf 73c0 5fbf 9694 ccc0
00000020: 0115 a6c0 1c74 85c0 8110 2040 00fe 7740
00000030: a2dd 9140 c88f f33f ae54 79be 2095 2140
00000040: c4bb 863e b203 bc3f d8ce 6cbf c402 10c0
00000050: 3ff2 2140 3591 573f 14ee ce3f 1467 d93f
00000060: c88c 2340 99f6 1040 b8cc a33f 1b4c 7abf
00000070: f0d7 783f 664c 2d3e d9a8 25bf 5595 88c0
00000080: a43c 36c0 897c 02c0 6db0 8f3f 3393 4640
00000090: 879e 5b40 c928 a840 1ae5 0941 a8f9 4241
000000a0: 2ca8 9e40 d71f c940 a5fa c33f 3405 b73f
000000b0: a494 8f3f a0d4 c140 c6a5 6240 fbd7 4040
000000c0: 71fc 723f 19a4 0bbf 4b4e 16c0 8815 0dc0
000000d0: 2cc1 a7c0 eeba aec0 c917 70c0 cd8d d0be
000000e0: fb0a f33f 7877 9d3d 35cc aebd 9291 bb3f
000000f0: 6a8e 51c0 6558 eb3f 1bdc 3640 1532 c9bf
00000100: a1bf 33bf 89a8 46bc e9c8 6040 5aa2 fe3f
00000110: 25e1 f73f 8709 a8bf 1c39 2dc0 a386 7ebf
00000120: 68bb 68bf 74a2 3c40 ba54 d33f c86e 6a3f
00000130: 542e 1ebf 1f79 94bf 6846 12c0 ad45 84bf
00000140: 7bdd 96bd c46c 613f 29f4 443f db68 113f
00000150: 3986 35c0 eccd 77c0 2a90 8dc0 c6cb 16c0
00000160: 53b3 27bf f973 f43f 2c3b 563d 48da e83e
00000170: 912a f53e 07d4 2fc0 90b8 e7bf 1af9 1ebf
00000180: 677e 9f3f 76b4 8d3f 21af a7c0 a43d 4fc0
00000190: 3d9c 8cc0 fff4 633f aafd c33f d831 4a40
000001a0: 777d 1540 0f18 c03e 9b76 13c0 ae2a 80c0
000001b0: 0aaa c9be 2f6e 1ebe b021 a5bf de2c 823f
000001c0: d5ab 083f f4a3 e9bf cae9 31c0 da45 96c0
000001d0: 59c3 3cbf 0fe8 33be fc71 8040 c413 77c0
000001e0: 0fc7 14c0 71f8 c1be c51c 2fc1 0b61 0cc0
000001f0: 0e81 eabf f2bb 803e 3307 1bbf 50d4 043f
00000200: ed66 9abf 30e3 8640 115d 083e 7081 1a40
00000210: 4519 8a40 dc6d 09bf ffbe 963f d6a0 2940
00000220: 03bc 81be f310 4abf 926a b3bf d6d0 7ec0
00000230: e470 8f40 fcb8 0940 1725 423f 317d 0ec0
00000240: d8fc a3c0 a430 7dc0 2efe 46bf 296f f1be
00000250: 2809 f640 85e9 2241 a9bc cf40 a04f 06c1
00000260: d06a 8abf e175 0340 9afc 7e3f c818 7cbf
00000270: 6fa2 adbf 78d7 ad3d 7661 463f 88ca 0d40
00000280: 34ef 783f c294 edbe ea8f 41c0 ad52 5ac0
00000290: fe7e acbd c3d4 b93f 7517 2740 3db5 af40
000002a0: 4f73 81bf cb1f b7bf 6f2c 3940 55fc 1340
000002b0: 05fa 7e3f ed69 2d40 28ab ab3f 3e39 b6bf
000002c0: f282 fc3d b1ac 1e40 addb 4e3f 2799 8f3f
000002d0: 39c6 d33e eb20 12c0 0070 92c0 c79d 53c0
000002e0: 1c0c 3dc0 c7fd adbd 60c5 1f40 e42d 2d40
000002f0: e4d4 643f 5e96 fb3f 0c47 093e 4920 a43e
00000300: 2e03 2840 494d 2b40 735d 8c40 8d32 8440
00000310: 4415 b13e c23b 0140 084e 9740 b9c8 c83f
00000320: 5d9b 0ebf 014d 12c0 1ee4 a3c0 c914 3240
00000330: b6db a240 99bd 2840 10f9 043f 7f7b c1c0
00000340: 0202 86c0 8125 653f 138e 60c0 757c 973e
00000350: c5de 1640 782d b63f 34e7 f5bf 7d4d 3cc0
00000360: d22d 03c1 29fd 6f40 0035 7940 07e5 c33d
00000370: afc3 71c0 7470 94c0 bc74 37c0 3a4a d73f
00000380: a321 e23f e551 bb3f 1471 973f 5f7a 4c3e
00000390: 04f1 d5be aa8d 4bbf 1eed 36bf b016 2142
000003a0: 04d1 0541 3929 1b40 d15a 8e3f e24a 13bf
000003b0: b5f0 b8bf c54e 58c0 2fcf 8a3e 9e32 03be
000003c0: 2475 39bf 6935 7bbe aa60 b9bf 603e 5abf
000003d0: 59f1 5dbe 1b64 fcbe 8dec 04c0 0c89 9fbf
000003e0: 5df6 42bf 1aa8 863c 8aaa 333e 4a02 be3c
000003f0: 59e1 593f ea23 2ac0 6365 85be 5794 6fbd

bias f4 [22]
-0.034863517 -0.086261384 0.0166144 -0.07406744 0.03762785 0.063100554 -0.070194125 -0.04808343
-0.07422113 0.021035304 0.014707802 -0.047379866 0.061287157 0.03973378 -0.087038055 -0.008624686
-0.03858012 -0.01849466 0.056249302 -0.010920269 -0.06357756 0.06384857
00000000: 0ccd 0ebd cfa9 b0bd ec1a 883c acb0 97bd
00000010: a91f 1a3d dd3a 813d f0c1 8fbd 21f3 44bd
00000020: 3f01 98bd 3b52 ac3c fef8 703c 6411 42bd
00000030: 3e08 7b3d e3bf 223d 0241 b2bd 8e4e 0dbc
00000040: 3006 1ebd 1d82 97bc ab65 663d eeea 32bc
00000050: f434 82bd 0ac3 823d

weight f4 [22]
1.4530348 1.1138731 4.039454 1.7106761 5.368426 1.7127421 1.7220445 1.805235
2.4047344 2.8359227 1.664527 2.7931104 2.898344 2.0351815 2.102766 2.5191488
3.6721246 1.4413482 1.8066678 1.9144418 1.7295039 2.203096
00000000: 0bfd b93f 6593 8e3f 3543 8140 6ff7 da3f
00000010: 25ca ab40 223b db3f f46b dc3f f111 e73f
00000020: 2be7 1940 c27f 3540 390f d53f 52c2 3240
00000030: 787e 3940 6a40 0240 b893 0640 bc39 2140
00000040: 1704 6b40 197e b83f e440 e73f 6e0c f53f
00000050: 6260 dd3f 86ff 0c40

bias f4 [22]
1.0400664 1.2782615 -9.589659 2.313658 -3.9881814 -0.13376722 -1.1216636 0.17810877
-0.30896217 -2.4083982 -1.5156982 0.7172976 -5.260036 -0.5675452 -0.49784926 6.4959354
4.8359985 -0.6023942 -1.0172166 1.6755263 -0.6526325 -1.9733135
00000000: e520 853f 139e a33f 3e6f 19c1 f912 1440
00000010: 5d3e 7fc0 46fa 08be ac92 8fbf 2562 363e
00000020: 4a30 9ebe 3223 1ac0 6602 c2bf d1a0 373f
00000030: 3752 a8c0 a44a 11bf 19e6 febe b4de cf40
00000040: 80c0 9a40 8236 1abf 2734 82bf a577 d63f
00000050: ec12 27bf 8995 fcbf

running_mean f4 [22]
-37.936615 -35.03491 -33.995113 2.393357 112.359634 -11.495092 -14.645938 58.417294
57.23536 -0.33475748 -12.060683 -63.91972 -56.530155 -1.1075466 -107.76462 -28.71687
-27.48687 -9.933506 -23.999687 -20.781586 -13.820064 -0.560281
00000000: 18bf 17c2 bf23 0cc2 fffa 07c2 c32c 1940
00000010: 22b8 e042 e6eb 37c1 c355 6ac1 4fab 6942
00000020: 02f1 6442 5565 abbe 8ff8 40c1 cbad 7fc2
00000030: e11e 62c2 16c4 8dbf 7c87 d7c2 26bc e5c1
00000040: 1ce5 dbc1 a4ef 1ec1 5cff bfc1 b040 a6c1
00000050: fb1e 5dc1 936e 0fbf

running_var f4 [22]
781.2789 870.5771 216.06117 497.2446 4481.205 1260.1809 486.1545 486.56396
1482.9404 342.58145 263.61008 1175.8728 349.40744 551.0745 3058.1248 1499.2217
5249.921 229.04156 565.4552 1234.614 415.61487 177.16653
00000000: d951 4344 efa4 5944 a90f 5843 4f9f f843
00000010: a409 8c45 ca85 9d44 c713 f343 3048 f343
00000020: 185e b944 6d4a ab43 17ce 8343 eefb 9244
00000030: 27b4 ae43 c5c4 0944 ff21 3f45 1867 bb44
00000040: 5e0f a445 a40a 6543 225d 0d44 a653 9a44
00000050: b4ce cf43 a22a 3143

weight f4 [32, 22, 7]
-1.1333721 -3.3674138 -4.231682 -1.970283 1.6679125 0.3888419 -1.2089705 -1.756403
-0.20941134 -0.02750584 -0.8105226 1.1241618 3.2878747 -0.68830884 12.49572 3.9823227
3.6499107 -13.047391 0.32026455 -3.8284914 0.9473967 0.11748792 -1.1798791 -1.8870976
-2.4648085 -0.29616386 -1.5909604 -1.2906083 -5.4158344 1.8707526 5.5981183 3.3242826
-2.042851 -0.0020458444 -7.0600905 1.524076 -2.3303955 -0.55832297 2.989385 -2.3945973
-2.6250186 -1.7473067 -1.5203093 -1.6653018 1.0817347 3.512495 2.5376344 2.5911558
-5.7183595 -1.8300228 -3.138802 4.3713655 5.1489224 1.9928806 -0.20028122 0.4252267
2.398367 5.3965163 5.2031035 3.0249271 0.255491 -0.62342775 -2.055643 -0.15439376
-0.7919637 -2.4756625 1.8555722 0.6573998 0.90818095 -2.4347692 -0.28173015 -2.0148375
-0.24790981 0.98761797 3.357294 0.59802186 -5.2270813 4.864226 5.0599933 0.7767483
0.4206636 -2.6955304 -4.0593276 -1.9018226 4.6937346 4.401465 -0.839978 -2.9843135
-1.8544182 2.838118 7.8509865 -2.0760307 2.1594086 1.4823247 5.0653086 4.7755313
5.7464876 -0.685741 -2.833211 -2.6175668 -1.327854 1.1767464 3.8173294 4.5728793
2.9916754 1.5899125 -1.3028775 -0.5275991 -2.1409702 1.6682844 1.7352142 -0.86820453
0.33833402 -1.2961843 -0.87393904 -2.3219275 0.44092104 2.4053407 -3.8191748 -1.3559484
0.4493629 2.748012 2.8102226 1.9853344 -5.702843 -3.9692655 0.76489246 1.6391497
2.9815857 1.8199875 5.397514 -3.2955322 -2.173464 0.6720959 0.68194693 1.9903965
2.8400905 0.9086762 2.8434212 2.7177687 -0.24541359 -0.8475321 1.6318439 2.6861463
2.9073443 -1.390208 -2.9808412 -1.4623084 -2.3563652 -0.20047669 0.47399974 1.8174851
0.6472437 -5.614366 1.535871 -0.12962863 1.3865942 2.907159 3.0010006 3.3396394
1.6426587 -4.389855 -4.2521114 -5.200984 -3.6297522 -2.9428873 -3.372059 -1.8111156
-2.2981713 -6.9993978 -7.491001 -8.321493 -5.5629106 4.6904116 -3.6652327 3.125232
-0.40083143 -1.4055665 -2.537697 -2.8921502 -2.2420926 -2.938906 1.2937838 1.832103
-1.8855091 -2.020935 -0.20524016 -3.394497 -1.8366139 -0.54896295 -3.0830197 -2.3831315
-2.625573 -2.2549338 -2.673108 -0.95038 0.45760423 0.3360873 1.0791047 2.7698236
2.5834627 1.5830646 2.6858275 1.9736059 -1.2736764 -1.8059847 -1.8856833 -0.9046051
-0.01314542 -0.25122693 -3.5805874 -4.9336104 -3.7065117 0.4178994 0.9622803 1.8681244
2.1039646 -1.6164153 -1.3845477 -0.8214131 1.592579 2.3148603 4.5570445 4.048715
0.8426809 -0.896234 0.015846513 1.5849546 4.0288954 3.7545843 2.3281558 0.027501715
-1.3993192 -2.3718555 -0.6165237 -2.6011946 -2.1085062 1.1050723 0.55421686 -0.55184275
-1.5239766 -3.908495 -4.164849 -2.5841632 -3.544647 2.4361627 4.2290564 2.861191
4.0298333 5.0625873 5.387756 6.930533 0.001448919 -1.1806028 -0.07467093 -0.90270656
00000000: 5612 91bf b583 57c0 f069 87c0 3c32 fcbf
00000010: 287e d53f 4916 c73e 8cbf 9abf d0d1 e0bf
00000020: ed6f 56be ed53 e1bc 697e 4fbf 89e4 8f3f
00000030: 8a6c 5240 0235 30bf 78ee 4741 60de 7e40
00000040: 2398 6940 1dc2 50c1 b7f9 a33e 0106 75c0
00000050: 9788 723f 829d f03d 4706 97bf 6a8c f1bf
00000060: 6cbf 1dc0 caa2 97be 97a4 cbbf a732 a5bf
00000070: 844e adc0 d274 ef3f c923 b340 0cc1 5440
00000080: 12be 02c0 9313 06bb 43ec e1c0 ec14 c33f
00000090: 3325 15c0 41ee 0ebf 1552 3f40 1541 19c0
000000a0: 4e00 28c0 bfa7 dfbf 7f99 c2bf 9c28 d5bf
000000b0: 4876 8a3f b8cc 6040 9a68 2240 7fd5 2540
000000c0: cdfc b6c0 303e eabf 22e2 48c0 3ae2 8b40
000000d0: f9c3 a440 b616 ff3f 8516 4dbe 50b7 d93e
000000e0: d87e 1940 43b0 ac40 d37f a640 6898 4140
000000f0: b7cf 823e f698 1fbf a88f 03c0 6619 1ebe
00000100: 22be 4abf 4171 1ec0 6483 ed3f 5a4b 283f
00000110: 8c7e 683f 42d3 1bc0 ef3e 90be 19f3 00c0
00000120: 12dc 7dbe 88d4 7c3f e8dd 5640 f617 193f
00000130: 4044 a7c0 bda7 9b40 77eb a140 fad8 463f
00000140: 3861 d73e 9283 2cc0 03e6 81c0 ec6e f3bf
00000150: 1333 9640 cdd8 8c40 cc08 57bf fefe 3ec0
00000160: 935d edbf baa3 3540 483b fb40 b0dd 04c0
00000170: c033 0a40 d1bc bd3f 0217 a240 27d1 9840
00000180: 3ae3 b740 b98c 2fbf 5453 35c0 3786 27c0
00000190: 1ff7 a9bf a09f 963f 204f 7440 0755 9240
000001a0: 9c77 3f40 4182 cb3f b1c4 a6bf bc10 07bf
000001b0: a805 09c0 588a d53f 801b de3f a742 5ebf
000001c0: 1e3a ad3e 5ee9 a5bf 78ba 5fbf 769a 14c0
000001d0: 67c0 e13e 1af1 1940 5c6d 74c0 b88f adbf
000001e0: e512 e63e 6edf 2f40 b0da 3340 701f fe3f
000001f0: b17d b6c0 7208 7ec0 fecf 433f a8cf d13f
00000200: 4dd2 3e40 5af5 e83f 6fb8 ac40 00ea 52c0
00000210: 091a 0bc0 7a0e 2c3f 1394 2e3f 50c5 fe3f
00000220: 0bc4 3540 019f 683f 9dfa 3540 ecef 2d40
00000230: b34d 7bbe ddf7 58bf 43e0 d03f d2e9 2b40
00000240: ee11 3a40 56f2 b1bf 1ac6 3ec0 ec2c bbbf
00000250: b0ce 16c0 c349 4dbe 18b0 f23e 5aa3 e83f
00000260: c3b1 253f e3a8 b3c0 6c97 c43f 5ebd 04be
00000270: eb7b b13f e50e 3a40 6510 4040 a7bc 5540
00000280: a442 d23f b179 8cc0 4c11 88c0 766e a6c0
00000290: dc4d 68c0 4458 3cc0 d1cf 57c0 a3d2 e7bf
000002a0: 3d15 13c0 11fb dfc0 48b6 efc0 d624 05c1
000002b0: 5d03 b2c0 da17 9640 2c93 6ac0 cd03 4840
000002c0: c739 cdbe 9ae9 b3bf a169 22c0 fd18 39c0
000002d0: 727e 0fc0 0917 3cc0 b59a a53f 5a82 ea3f
000002e0: 5d58 f1bf 0057 01c0 7a2a 52be 703f 59c0
000002f0: 2a16 ebbf d688 0cbf 3250 45c0 3a85 18c0
00000300: 6309 28c0 d650 10c0 3414 2bc0 1b4c 73bf
00000310: 1a4b ea3e a213 ac3e 1a20 8a3f ca44 3140
00000320: 7457 2540 dca1 ca3f 99e4 2b40 1e9f fc3f
00000330: d407 a3bf 822a e7bf 125e f1bf 3394 67bf
00000340: e35f 57bc d1a0 80be 5828 65c0 23e0 9dc0
00000350: 7d37 6dc0 e9f6 d53e 0058 763f b31e ef3f
00000360: 5ba7 0640 b2e6 cebf dc38 b1bf 2148 52bf
00000370: a1d9 cb3f ac26 1440 4fd3 9140 138f 8140
00000380: efb9 573f 976f 65bf 8cd0 813c cbdf ca3f
00000390: b6ec 8040 1c4b 7040 8100 1540 474b e13c
000003a0: e41c b3bf 7bcc 17c0 7fd4 1dbf f979 26c0
000003b0: c4f1 06c0 0273 8d3f 28e1 0d3f 9145 0dbf
000003c0: aa11 c3bf c824 7ac0 7146 85c0 ee62 25c0
000003d0: 7fdb 62c0 17ea 1b40 6e54 8740 c11d 3740
000003e0: 65f4 8040 b700 a240 7f68 ac40 edc6 dd40
000003f0: a7e9 bd3a fe1d 97bf 13ed 98bd c717 67bf

bias f4 [32]
0.05129237 0.03322505 -0.053402133 0.07940334 -0.07675595 -0.05651359 -0.04845665 -0.02183259
0.035138056 0.016273985 -0.0695416 0.07808811 0.07619013 0.039003495 -0.07841824 0.04590055
0.023591438 -0.009549023 -0.066760376 0.067878515 -0.02416921 -0.06679488 0.06173716 0.03080521
0.024286803 0.052319545 0.0277222 -0.017371807 -0.014040512 0.066615164 -0.0025230374 -0.066971526
00000000: f317 523d fd16 083d 32bc 5abd 389e a23d
00000010: 3932 9dbd cb7a 67bd 7b7a 46bd 43da b2bc
00000020: ecec 0f3d 0551 853c d46b 8ebd a9ec 9f3d
00000030: 9209 9c3d 21c2 1f3d be99 a0bd 3702 3c3d
00000040: d542 c13c 8173 1cbc aab9 88bd e403 8b3d
00000050: 82fe c5bc c1cb 88bd 1be0 7c3d 355b fc3c
00000060: 1ef5 c63c 054d 563d ab19 e33c 524f 8ebc
00000070: 2d0a 66bc 886d 883d 8b59 25bb 5e28 89bd

weight f4 [32]
3.0803733 1.4575824 2.130804 4.5489874 3.4008884 2.953167 2.2260706 4.4831223
2.9115822 3.3492115 4.0144997 6.610443 2.691961 2.7637064 3.6863604 3.0113475
3.7459288 2.7893317 5.3181295 3.0226407 2.879777 3.7879307 2.6711519 5.3162994
2.7578735 3.1320102 2.2466793 3.553888 3.8600268 3.4844303 3.0807607 2.640908
00000000: d624 4540 0f92 ba3f 185f 0840 4e91 9140
00000010: 28a8 5940 b000 3d40 f177 0e40 bd75 8f40
00000020: 5d57 3a40 7b59 5640 c876 8040 c088 d340
00000030: 1749 2c40 91e0 3040 54ed 6b40 ebb9 4040
00000040: 4cbd 6f40 6984 3240 1e2e aa40 f272 4140
00000050: 444e 3840 756d 7240 27f4 2a40 201f aa40
00000060: 0081 3040 db72 4840 98c9 0f40 e772 6340
00000070: ae0a 7740 e800 5f40 2f2b 4540 a304 2940

bias f4 [32]
-1.0516732 1.1124495 0.4656579 2.9238408 -0.23438205 -0.36618406 0.11966526 1.0568631
0.23309202 -0.91896236 -1.7193174 3.1823378 1.4947736 -1.3655689 -2.1277647 1.4253471
-5.6887555 1.0677558 2.0790353 -0.7429392 0.13870043 -3.2039657 -0.5234801 -5.178508
0.6723327 -1.2243698 2.000077 1.8801771 -2.5630336 0.07587142 0.99479187 0.19549873
00000000: 3a9d 86bf bf64 8e3f b66a ee3e 3520 3b40
00000010: d901 70be 7a7c bbbe 0f13 f53d 4a47 873f
00000020: adaf 6e3e 1e41 6bbf 9812 dcbf 6cab 4b40
00000030: be54 bf3f f6ca aebf 4c2d 08c0 c671 b63f
00000040: 490a b6c0 39ac 883f ea0e 0540 4331 3ebf
00000050: 7c07 0e3e c60d 4dc0 cb02 06bf 56b6 a5c0
00000060: ff1d 2c3f 26b8 9cbf 4301 0040 a5a9 f03f
00000070: be08 24c0 7a62 9b3d aeaa 7e3f d230 483e

running_mean f4 [32]
-4.9241095 -77.40851 41.5843 0.8533382 0.94557905 -21.033558 -23.627111 -33.051517
-1.1584799 -28.173376 -44.99503 16.30736 -10.21526 -14.5834675 -35.90992 -27.92186
-66.21627 41.724686 50.047493 -19.37317 16.000082 -35.984066 -18.467295 10.873048
-0.4547904 54.80712 -27.98909 -27.342306 -31.077343 -15.71646 35.32957 -53.44858
00000000: 4e92 9dc0 28d1 9ac2 5356 2642 5f74 5a3f
00000010: 7811 723f ba44 a8c1 5304 bdc1 c134 04c2
00000020: 1249 94bf 1363 e1c1 e9fa 33c2 7975 8241
00000030: b471 23c1 e255 69c1 c2a3 0fc2 f85f dfc1
00000040: bb6e 84c2 14e6 2642 a230 4842 41fc 9ac1
00000050: 2b00 8041 afef 0fc2 05bd 93c1 01f8 2d41
00000060: 4ada e8be 7e3a 5b42 a8e9 dfc1 0bbd dac1
00000070: 669e f8c1 9f76 7bc1 7b51 0d42 59cb 55c2

running_var f4 [32]
2714.91 1366.1625 1153.0961 2986.753 3190.3184 3220.161 1583.3254 5589.508
2076.811 2843.2378 3245.9211 3105.4153 2005.4364 984.99756 2266.8042 3956.939
2831.6494 2834.9673 3367.4028 2132.8728 1404.0455 2526.6465 2029.3849 1958.3097
1842.9553 1321.3623 1425.9236 3698.518 1714.0889 2297.4075 3478.2158 3371.8171
00000000: 8fae 2945 33c5 aa44 1323 9044 0cac 3a45
00000010: 1865 4745 9342 4945 6aea c544 10ac ae45
00000020: facc 0145 ceb3 3145 bdde 4a45 a516 4245
00000030: f7ad fa44 d83f 7644 deac 0d45 064f 7745
00000040: 64fa 3045 7a2f 3145 7276 5245 f74d 0545
00000050: 7581 af44 58ea 1d45 51ac fd44 e9c9 f444
00000060: 925e e644 982b a544 8e3d b244 4a28 6745
00000070: d842 d644 8596 0f45 7463 5945 13bd 5245

weight f4 [32, 22, 7]
-0.19388603 1.2979217 -0.10123907 5.460203 2.3474345 -2.4486928 -0.3229428 -2.380025
-1.7548331 2.9300952 4.5288157 -0.4483532 -1.0944792 3.5033078 2.7023351 0.9305517
3.2111583 0.107777156 -1.0222732 -0.31231326 2.743868 1.6912416 0.9937538 1.2979267
1.1155246 2.7248945 -1.8449421 -2.178075 -1.065946 0.57038313 2.5639768 1.060308
2.0103905 -3.8780203 -2.4909854 4.6723533 4.941583 4.3286266 1.1615192 2.2373033
0.47352663 1.4747907 -8.982353 -0.967588 0.64309657 0.49723464 -1.2281187 1.042427
0.079732694 4.425146 -2.2588131 5.562035 -2.691953 4.6476545 -12.50413 2.5498269
-2.923673 -2.8998978 2.4255724 -1.2397363 -4.175702 3.4315937 0.89065135 -4.2710247
-0.22654451 -3.9028754 -2.136552 1.6733613 -3.0001323 -7.6855807 0.7721548 1.8872906
1.6813262 -2.3966541 -5.5515 -2.9545271 0.92342806 1.4894191 0.55402356 1.172067
-3.0153773 3.0253687 2.5706892 2.513326 1.2689413 -1.4475675 -4.535617 0.27387172
3.2150428 -1.4671744 -8.486962 -1.9581652 -1.2153683 -2.5877237 1.2905849 -5.0851507
-6.769731 4.137964 -2.8108454 1.594924 -0.5573076 -1.0316097 -2.435236 6.8837194
-4.0770946 2.238361 1.9835873 3.6851687 3.7552567 -0.27458355 0.3193816 -3.9131725
-0.09224321 2.0680172 2.3037117 -2.062785 -2.916912 3.620912 2.3516753 0.7605557
2.798645 1.336052 2.5340173 -2.8285851 1.3727952 -4.2401133 3.9905856 3.3134866
-4.083057 -2.135448 -0.5510431 -0.6194956 -0.7699931 -1.9207689 2.6694252 1.7621977
-0.3219726 0.6398981 2.383889 -10.207154 0.35934362 1.7943745 0.676606 -2.5187814
-2.1856642 4.6550913 4.9095955 2.8353612 1.5199634 1.402232 -2.5462668 2.7064483
10.277876 4.040224 2.056892 -1.6118724 -2.9535828 -1.6001432 -0.57819086 1.1215804
-0.9634962 -0.03640754 -6.037013 1.0706972 -2.1919715 1.061496 1.2308522 0.4133346
4.1791263 -1.1888503 0.33544916 0.5727907 -0.123462595 -0.8636319 3.3389282 1.586614
0.345416 -1.0212791 1.6927147 0.27948707 -0.15450382 0.07666566 0.52260584 1.2403244
1.1140825 3.440938 4.7678766 0.35628903 0.1455983 -0.44083962 1.0183957 -2.9966514
-3.5396328 -4.245341 -4.584252 1.8196281 3.308441 3.8444183 3.8727317 -2.7459934
-1.7881447 0.12776433 -3.7260349 -0.5339515 -0.096716054 -3.3158226 -3.373512 -0.98980576
4.5561666 0.6529828 6.398635 1.5302143 -3.6400144 -1.6465567 -1.6096039 -1.7449661
-1.1935134 -6.4785233 -3.6429055 -6.5704975 -4.9677014 0.5033039 -2.80591 -0.28761476
-0.38607392 -1.200895 2.390897 -4.5029693 1.453367 -1.3658162 1.5595101 -0.5751502
3.3867888 2.8796287 2.3725245 -0.7892754 2.18299 0.4545312 -3.4345133 3.5394754
7.324717 -0.13332628 -0.3564369 0.95485425 0.89805657 -4.3159986 -3.6596217 0.27029142
-1.9135011 0.18986194 -5.595559 -5.284229 4.9204726 -4.973017 1.4461527 1.7757492
00000000: 0f8a 46be 4c22 a63f 6e56 cfbd fcb9 ae40
00000010: 5e3c 1640 62b7 1cc0 c258 a5be 5452 18c0
00000020: 5f9e e0bf ae86 3b40 0fec 9040 8d8e e5be
00000030: e517 8cbf 3236 6040 0ff3 2c40 a338 6e3f
00000040: 9e83 4d40 45ba dc3d d9d9 82bf 86e7 9fbe
00000050: 899b 2f40 9b7a d83f a666 7e3f 7622 a63f
00000060: 83c9 8e3f ac64 2e40 1027 ecbf 9565 0bc0
00000070: eb70 88bf a104 123f 3218 2440 2cb8 873f
00000080: 3daa 0040 7c31 78c0 4e6c 1fc0 eb83 9540
00000090: 7321 9e40 1c84 8a40 a9ac 943f fa2f 0f40
000000a0: 1572 f23e f1c5 bc3f b8b7 0fc1 d9b3 77bf
000000b0: faa1 243f 8a95 fe3e fe32 9dbf 3f6e 853f
000000c0: e54a a33d cc9a 8d40 6590 10c0 31fc b140
000000d0: f548 2cc0 96b9 9440 eb10 48c1 5d30 2340
000000e0: 751d 3bc0 ed97 39c0 943c 1b40 aeaf 9ebf
000000f0: 5a9f 85c0 3b9f 5b40 ba01 643f 3cac 88c0
00000100: 49fb 67be b6c8 79c0 45bd 08c0 b430 d63f
00000110: 2b02 40c0 47f0 f5c0 f0ab 453f bd92 f13f
00000120: b235 d73f c862 19c0 e3a5 b1c0 f916 3dc0
00000130: c865 6c3f 49a5 be3f 7dd4 0d3f 4b06 963f
00000140: f1fb 40c0 a49f 4140 2c86 2440 55da 2040
00000150: ab6c a23f e449 b9bf c623 91c0 ea38 8c3e
00000160: 43c3 4d40 5fcc bbbf 99ca 07c1 28a5 fabf
00000170: 3091 9bbf 449d 25c0 e331 a53f 8eb9 a2c0
00000180: a3a1 d8c0 336a 8440 e4e4 33c0 7826 cc3f
00000190: b6ab 0ebf c90b 84bf e8da 1bc0 6e47 dc40
000001a0: 8f77 82c0 4e41 0f40 30e6 fd3f ced9 6b40
000001b0: 2056 7040 3796 8cbe fc85 a33e 6b71 7ac0
000001c0: 02ea bcbd 655a 0440 0370 1340 ab04 04c0
000001d0: b0ae 3ac0 06bd 6740 d981 1640 c7b3 423f
000001e0: 001d 3340 c003 ab3f 572d 2240 8a07 35c0
000001f0: c1b7 af3f 02af 87c0 c165 7f40 2a10 5440
00000200: 67a8 82c0 2eab 08c0 2911 0dbf 4397 1ebf
00000210: 451e 45bf c1db f5bf ddd7 2a40 b28f e13f
00000220: 98d9 a4be 5dd0 233f a391 1840 8150 23c1
00000230: e3fb b73e 10ae e53f 0d36 2d3f b733 21c0
00000240: ece1 0bc0 82f6 9440 681b 9d40 8f76 3540
00000250: 298e c23f 577c b33f 09f6 22c0 7336 2d40
00000260: 2e72 2441 8449 8140 1ea4 0340 d651 cebf
00000270: 8007 3dc0 7ed1 ccbf 5104 14bf f28f 8f3f
00000280: b0a7 76bf 1320 15bd 362f c1c0 9b0c 893f
00000290: 4349 0cc0 1adf 873f 918c 9d3f 98a0 d33e
000002a0: 67bb 8540 3f2c 98bf febf ab3e 69a2 123f
000002b0: f5d9 fcbd fb16 5dbf 00b1 5540 2b16 cb3f
000002c0: 5eda b03e 46b9 82bf e0aa d83f ee18 8f3e
000002d0: 4036 1ebe e302 9d3d 7fc9 053f f3c2 9e3f
000002e0: 419a 8e3f 5438 5c40 7292 9840 846b b63e
000002f0: b917 153e bbb5 e1be ca5a 823f 23c9 3fc0
00000300: 5889 62c0 d5d9 87c0 31b2 92c0 93e9 e83f
00000310: 7fbd 5340 f30a 7640 d6da 7740 5bbe 2fc0
00000320: ede1 e4bf a7d4 023e 5b77 6ec0 0cb1 08bf
00000330: 1113 c6bd 7036 54c0 9fe7 57c0 e963 7dbf
00000340: 1ecc 9140 e129 273f 9ec1 cc40 10de c33f
00000350: fff5 68c0 5fc2 d2bf 8007 cebf 0d5b dfbf
00000360: 0cc5 98bf 1050 cfc0 5d25 69c0 8441 d2c0
00000370: 69f7 9ec0 86d8 003f 0894 33c0 3e42 93be
00000380: 7bab c5be edb6 99bf 7504 1940 5318 90c0
00000390: ee07 ba3f 11d3 aebf 079e c73f 0b3d 13bf
000003a0: 26c1 5840 d64b 3840 71d7 1740 f40d 4abf
000003b0: 1cb6 0b40 50b8 e83e 11cf 5bc0 c486 6240
000003c0: 1564 ea40 af86 08be e67e b6be 5471 743f
000003d0: 09e7 653f a91c 8ac0 3e37 6ac0 a363 8a3e
000003e0: 9bed f4bf 2b6b 423e d20e b3c0 6718 a9c0
000003f0: 8374 9d40 f522 9fc0 881b b93f c04b e33f

bias f4 [22]
0.078131914 0.07066364 0.040602803 -0.029013902 -0.027364902 0.04818619 0.061680954 0.080027744
0.037014615 -0.03234126 -0.03615034 0.075921394 -0.059421647 -0.067898005 -0.0081504425 -0.015168705
0.040637203 -0.056613903 -0.018306626 -0.06234178 0.053527217 0.017960625
00000000: a003 a03d 19b8 903d 204f 263d 90ae edbc
00000010: 5c2c e0bc e25e 453d 2ba5 7c3d 96e5 a33d
00000020: a39c 173d 4578 04bd 6112 14bd ad7c 9b3d
00000030: 1d64 73bd 1c0e 8bbd 6f89 05bc 2986 78bc
00000040: 3273 263d fbe3 67bd c7f7 95bc 185a 7fbd
00000050: 5b3f 5b3d 2922 933c

weight f4 [22]
2.0887997 2.2223754 3.549018 2.708063 3.299723 3.3661146 3.30724 3.4087791
4.354124 2.6717207 2.9903276 2.5440364 5.160307 3.0807102 4.2967124 2.7904723
2.923746 3.9353127 2.7258384 3.2389476 3.1477723 3.619767
00000000: e5ae 0540 663b 0e40 1c23 6340 e750 2d40
00000010: a92e 5340 6c6e 5740 d2a9 5340 7029 5a40
00000020: fc54 8b40 79fd 2a40 8761 3f40 7ed1 2240
00000030: 3c21 a540 5b2a 4540 ab7e 8940 1997 3240
00000040: a81e 3b40 2adc 7b40 2374 2e40 eb4a 4f40
00000050: 1a75 4940 43aa 6740

bias f4 [22]
0.07833126 -1.8978024 0.32309523 -1.0727996 -2.8241189 -1.4159862 0.76565075 -2.4534097
0.21579412 -3.4524643 -3.5899196 1.8951578 -0.5812661 -0.8738017 0.048099972 -0.30335963
-0.30309704 -1.8092697 -1.7553555 -0.68852764 -2.4438314 -1.8559669
00000000: 246c a03d 30eb f2bf bd6c a53e 7f51 89bf
00000010: 5dbe 34c0 093f b5bf b001 443f aa04 1dc0
00000020: 22f9 5c3e 2df5 5cc0 3ec1 65c0 8894 f23f
00000030: dbcd 14bf 78b1 5fbf 7a04 453d f451 9bbe
00000040: 892f 9bbe 2696 e7bf 7daf e0bf 5943 30bf
00000050: bc67 1cc0 5390 edbf

running_mean f4 [22]
-17.713095 -26.146345 -10.731524 -35.60165 -16.318216 -70.15592 -6.729961 -51.58159
6.176907 -76.38736 -64.78489 -7.286563 -13.192844 -46.005505 -23.99721 -12.31323
-79.300255 -19.559486 -49.39824 -46.318005 -67.08201 -20.645031
00000000: 6bb4 8dc1 b72b d1c1 53b4 2bc1 1768 0ec2
00000010: b58b 82c1 d54f 8cc2 d75b d7c0 8c53 4ec2
00000020: 39a9 c540 54c6 98c2 dd91 81c2 862b e9c0
00000030: e415 53c1 a305 38c2 49fa bfc1 fd02 45c1
00000040: bb99 9ec2 d479 9cc1 cc97 45c2 a345 39c2
00000050: fd29 86c2 0629 a5c1

running_var f4 [22]
2731.4229 1896.1525 5108.3325 2311.7212 2245.8179 8526.251 3735.1912 3943.4102
3818.5364 2375.476 3351.7883 3038.9397 4897.783 3801.4138 4116.7036 3080.4202
3205.0625 4829.075 3373.348 3935.1946 1916.1937 3088.3853
00000000: c4b6 2a45 e104 ed44 a9a2 9f45 8a7b 1045
00000010: 165d 0c45 0139 0546 0f73 6945 9076 7645
00000020: 95a8 6e45 9e77 1445 9d7c 5145 09ef 3d45
00000030: 440e 9945 9f96 6d45 a1a5 8045 b986 4045
00000040: 0051 4845 9ae8 9645 91d5 5245 1df3 7545
00000050: 3386 ef44 2a06 4145

weight f4 [44, 16, 7]
0.6495658 0.19495174 2.0558498 1.0999777 -0.83797246 0.11843056 -0.25566864 -1.198812
-2.0994596 -1.62413 -0.23664162 -4.1256056 -2.1927333 -4.1020784 0.61359143 0.2936739
-1.2581359 -1.0882597 0.88105386 -1.2540039 -3.2179196 -4.1484327 -3.2185967 -4.489455
-6.668827 -5.973208 -3.2717965 -4.7305665 -0.8420277 -0.32844025 -2.79289 -1.164447
-1.9186945 -2.898964 -2.178686 -1.6647843 -1.7004586 -3.8589427 -2.9829793 -1.6738957
0.17674047 0.10125317 -5.0661683 -6.883746 -2.455063 -5.9709673 -0.20218761 -3.825125
-2.9608421 -1.5583202 -0.7032417 -5.502038 0.45879346 -3.4740667 2.7333393 0.54575914
-0.9269113 -1.7284963 -1.8934779 -3.565966 -4.0613575 -2.066431 -1.7065831 1.2293843
1.1000934 0.59932077 0.75778574 -0.81270885 1.7436441 1.279193 -0.03811482 0.82251954
1.5878203 -0.67367285 1.0405695 0.5127795 1.4536963 4.3642435 1.86464 3.7740867
2.9093587 1.0823277 2.6614003 3.9952035 1.9890237 0.8936374 2.312744 0.51806086
0.21862744 -1.2710314 -2.2602165 -2.1733027 -3.973921 0.07949559 2.7940447 -2.8491454
-4.35509 0.9779451 -1.7868309 -0.76611054 -1.9149373 -1.6708624 -0.9972727 -0.69678026
-1.445776 -0.34274977 0.06068701 0.90734416 4.4641156 3.3787494 2.8732789 3.6172488
-0.9895645 -1.7427132 -1.138772 -2.8510048 -2.0157688 -0.58286506 -3.1661704 1.0298015
2.2852314 2.8830862 6.484517 -1.0362372 1.2090851 -1.7670027 -0.66241354 -0.021630557
-1.1469326 0.9604854 3.0126889 1.925995 -2.6573365 -4.2299676 2.8676965 -2.136134
0.07730405 2.5063276 -1.134464 0.832795 2.5002086 0.88084483 3.0751116 3.9624753
3.3409042 3.2217922 1.936525 3.258074 3.4896555 3.2926712 1.8559706 -2.408676
-1.9754717 -1.8848767 -3.4872825 -4.6460567 -5.309357 -2.2480576 -0.97303104 -0.5799642
-4.7384486 2.191766 -2.4574313 -2.2278366 -0.25571227 -0.87166166 -0.40367648 1.1422039
-7.4906945 -7.094212 -3.073312 -5.3312116 -4.1742992 -4.0171084 -2.6208386 -0.41362903
-0.19829659 0.79149044 4.0163636 -0.9723596 -0.57958066 -1.2318797 -0.760664 -0.61782163
-1.1928748 -1.6563505 -1.1122421 0.8109714 0.35020968 -2.560789 -2.2360625 -1.3712869
-2.0163836 0.82313144 -0.37170747 -1.68024 -1.9971882 0.43219858 -4.5556664 2.714571
-5.1339073 -0.4266231 1.4077952 1.8886657 3.169128 -0.19360271 1.3996053 -0.4485741
-1.488779 2.5503464 -0.8378541 -0.8366764 -0.050113253 0.9187864 1.1100922 1.8508234
2.3268888 -2.0681891 -2.9832828 -4.2705626 -4.773838 -1.535082 -0.024088431 1.9487524
-5.742992 -3.3577611 -2.4735844 -2.0997872 -3.7253451 -2.0786133 -1.4166427 4.5175734
2.95862 2.4687774 3.614432 5.800804 3.7029972 5.3053565 0.83628 1.3312895
-6.916638 -0.6770684 0.5304704 0.8004642 -6.0877013 3.4917474 1.3845576 3.8220487
3.1170297 1.6423299 2.4965332 3.463841 1.2565855 0.8788451 -0.3927555 0.1027502
00000000: f249 263f 6ea1 473e 0b93 0340 12cc 8c3f
00000010: 5d85 56bf b98b f23d 00e7 82be ac72 99bf
00000020: 8c5d 06c0 7ee3 cfbf 2e52 72be f604 84c0
00000030: be55 0cc0 3a44 83c0 5414 1d3f 6d5c 963e
00000040: 990a a1bf 184c 8bbf bf8c 613f 3383 a0bf
00000050: 65f2 4dc0 f6bf 84c0 7dfd 4dc0 9ea9 8fc0
00000060: 0867 d5c0 8524 bfc0 1d65 51c0 cd60 97c0
00000070: 218f 57bf 5229 a8be b6be 32c0 990c 95bf
00000080: c897 f5bf a088 39c0 976f 0bc0 a717 d5bf
00000090: a1a8 d9bf ebf8 76c0 22e9 3ec0 3742 d6bf
000000a0: 74fb 343e d25d cf3d 0d1e a2c0 a647 dcc0
000000b0: c11f 1dc0 2a12 bfc0 450a 4fbe d9ce 74c0
000000c0: 707e 3dc0 0977 c7bf a607 34bf b210 b0c0
000000d0: fae6 ea3e 1c57 5ec0 08ef 2e40 dfb6 0b3f
000000e0: 0f4a 6dbf 5e3f ddbf 7c5d f2bf c938 64c0
000000f0: a4f6 81c0 6840 04c0 5171 dabf 775c 9d3f
00000100: dccf 8c3f 166d 193f 3ffe 413f b00d 50bf
00000110: bb2f df3f 99bc a33f 491e 1cbd a490 523f
00000120: b23d cb3f d375 2cbf 6231 853f 8445 033f
00000130: b812 ba3f e2a7 8b40 86ac ee3f a38a 7140
00000140: ef32 3a40 b789 8a3f 6254 2a40 6ab1 7f40
00000150: 5498 fe3f 6cc5 643f ff03 1440 a39f 043f
00000160: dfdf 5f3e 28b1 a2bf 63a7 10c0 6417 0bc0
00000170: b954 7ec0 95ce a23d a1d1 3240 6658 36c0
00000180: e65c 8bc0 9c5a 7a3f e0b6 e4bf d21f 44bf
00000190: aa1c f5bf d2de d5bf 434d 7fbf 3160 32bf
000001a0: 300f b9bf e67c afbe f192 783d b547 683f
000001b0: 09da 8e40 6e3d 5840 cde3 3740 0181 6740
000001c0: 1954 7dbf 3a11 dfbf 48c3 91bf dd76 36c0
000001d0: 5b02 01c0 a536 15bf 89a2 4ac0 89d0 833f
000001e0: 3b41 1240 7c84 3840 2a81 cf40 6ca3 84bf
000001f0: 4dc3 9a3f 252d e2bf ef93 29bf 9132 b1bc
00000200: b0ce 92bf 5fe2 753f e5cf 4040 0187 f63f
00000210: cd11 2ac0 e55b 87c0 5788 3740 6bb6 08c0
00000220: 9651 9e3d ac67 2040 1e36 91bf 0e32 553f
00000230: 6b03 2040 0c7f 613f a1ce 4440 3299 7d40
00000240: 60d1 5540 d831 4e40 0de0 f73f 4984 5040
00000250: 8456 5f40 20bb 5240 7290 ed3f bf27 1ac0
00000260: 42dc fcbf a443 f1bf a32f 5fc0 7fac 94c0
00000270: 41e6 a9c0 2de0 0fc0 9018 79bf 8978 14bf
00000280: 5fa1 97c0 e545 0c40 8e46 1dc0 e094 0ec0
00000290: b8ec 82be 3825 5fbf afae cebe bd33 923f
000002a0: c5b3 efc0 c903 e3c0 25b1 44c0 4999 aac0
000002b0: dc93 85c0 278c 80c0 d2bb 27c0 2fc7 d3be
000002c0: 430e 4bbe 1e9f 4a3f 0d86 8040 8fec 78bf
000002d0: 665f 14bf 3cae 9dbf e0ba 42bf 8f29 1ebf
000002e0: 1fb0 98bf 4b03 d4bf f35d 8ebf d29b 4f3f
000002f0: af4e b33e f8e3 23c0 a61b 0fc0 5486 afbf
00000300: 6e0c 01c0 beb8 523f 7150 bebe 1b12 d7bf
00000310: dda3 ffbf 2249 dd3e 05c8 91c0 88bb 2d40
00000320: f848 a4c0 586e dabe a232 b43f ccbf f13f
00000330: fed2 4a40 ca3f 46be 4426 b33f 81ab e5be
00000340: 4f90 bebf e038 2340 9b7d 56bf 6d30 56bf
00000350: 8e43 4dbd 9635 6b3f 8017 8e3f c8e7 ec3f
00000360: bfeb 1440 365d 04c0 1bee 3ec0 73a8 88c0
00000370: 48c3 98c0 917d c4bf 1a55 c5bc b870 f93f
00000380: 97c6 b7c0 8fe5 56c0 354f 1ec0 ea62 06c0
00000390: 0e6c 6ec0 0008 05c0 8c54 b5bf f68f 9040
000003a0: 085a 3d40 7300 1e40 db52 6740 30a0 b940
000003b0: e8fd 6c40 7bc5 a940 7216 563f b267 aa3f
000003c0: 1955 ddc0 5b54 2dbf e8cc 073f 39eb 4c3f
000003d0: 73ce c2c0 ca78 5f40 2f39 b13f 729c 7440
000003e0: 6a7d 4740 de37 d23f 33c7 1f40 92af 5d40
000003f0: cbd7 a03f fefb 603f 4017 c9be b26e d23d

bias f4 [16]
0.060429435 -0.07344072 -0.03169987 -0.03290926 -0.03900031 0.07186142 0.07267415 0.049055878
-0.03781331 -0.062227547 -0.024390105 -0.03780396 0.0103634605 0.04571155 0.085519426 0.06573526
00000000: db84 773d 1768 96bd b9d7 01bd dccb 06bd
00000010: cabe 1fbd 152c 933d 2fd6 943d d1ee 483d
00000020: 21e2 1abd 50e2 7ebd c2cd c7bc 53d8 1abd
00000030: 81cb 293c 093c 3b3d cf24 af3d 35a0 863d

weight f4 [16]
3.140271 3.872691 2.0905392 6.4823785 2.1894732 2.2236428 3.7826245 3.7123551
5.8502483 2.1973212 2.324228 3.796491 4.0011187 3.2447765 3.0201595 2.6993914
00000000: 33fa 4840 2bda 7740 65cb 0540 a56f cf40
00000010: 5420 0c40 2a50 0e40 8516 7240 3a97 6d40
00000020: 3c35 bb40 e9a0 0c40 27c0 1440 b5f9 7240
00000030: 2a09 8040 6baa 4f40 4b4a 4140 d4c2 2c40

bias f4 [16]
-2.2251759 2.1598608 -1.1052845 2.0271912 -2.2772248 -3.6726017 3.2123168 -0.8742358
1.9104835 0.74877805 -1.2397012 0.112780735 -1.8109709 -1.9680544 -1.649592 -0.76562923
00000000: 4869 0ec0 293b 0a40 f679 8dbf 80bd 0140
00000010: 0dbe 11c0 e80b 6bc0 9996 4d40 ebcd 5fbf
00000020: b98a f43f ebaf 3f3f 87ae 9ebf 96f9 e63d
00000030: e5cd e7bf 35e9 fbbf d525 d3bf 4700 44bf
